{
  "{\"x\":\"bf16[1024,4096]\",\"labels\":\"i32[1024]\",\"w\":\"bf16[4096,151936]\",\"reduction\":\"mean\",\"return_residuals\":false}": {
    "{}": {
      "compile_time_ms": 1480.4090249817818,
      "lower_time_ms": 27.17971696984023,
      "evaluation_times_ms": [
        1.937341,
        1.942366,
        1.940605,
        1.948349,
        1.944541
      ],
      "metadata": {},
      "peak_memory_mb": 1565.724676
    }
  },
  "{\"x\":\"bf16[1024,4096]\",\"labels\":\"i32[1024]\",\"w\":\"bf16[4096,151936]\",\"reduction\":\"mean\",\"return_residuals\":true}": {
    "{}": {
      "compile_time_ms": 562.6402569469064,
      "lower_time_ms": 475.823849090375,
      "evaluation_times_ms": [
        2.052317,
        2.051453,
        2.0525729999999998,
        2.058046,
        2.0570530000000002
      ],
      "metadata": {},
      "peak_memory_mb": 1565.724692
    }
  },
  "{\"x\":\"f32[1024,4096]\",\"labels\":\"i32[1024]\",\"w\":\"bf16[4096,151936]\",\"reduction\":\"mean\",\"return_residuals\":false}": {
    "{}": {
      "compile_time_ms": 1665.197768015787,
      "lower_time_ms": 20.36935999058187,
      "evaluation_times_ms": [
        4.909625,
        4.913754,
        4.915865,
        4.919578,
        4.910425
      ],
      "metadata": {},
      "peak_memory_mb": 4406.64474
    }
  },
  "{\"x\":\"f32[1024,4096]\",\"labels\":\"i32[1024]\",\"w\":\"bf16[4096,151936]\",\"reduction\":\"mean\",\"return_residuals\":true}": {
    "{}": {
      "compile_time_ms": 411.50044393725693,
      "lower_time_ms": 11.501246015541255,
      "evaluation_times_ms": [
        4.951705,
        4.946137,
        4.95609,
        4.948665,
        4.958873
      ],
      "metadata": {},
      "peak_memory_mb": 4406.648852
    }
  },
  "{\"x\":\"bf16[1024,4096]\",\"labels\":\"i32[1024]\",\"w\":\"bf16[4096,151936]\",\"reduction\":\"sum\",\"return_residuals\":false}": {
    "{}": {
      "compile_time_ms": 376.8886650213972,
      "lower_time_ms": 13.933449052274227,
      "evaluation_times_ms": [
        1.9432289999999999,
        1.9429729999999998,
        1.945181,
        1.9469409999999998,
        1.9439339999999998
      ],
      "metadata": {},
      "peak_memory_mb": 1565.724676
    }
  },
  "{\"x\":\"bf16[1024,4096]\",\"labels\":\"i32[1024]\",\"w\":\"bf16[4096,151936]\",\"reduction\":\"sum\",\"return_residuals\":true}": {
    "{}": {
      "compile_time_ms": 403.4080059500411,
      "lower_time_ms": 12.91327504441142,
      "evaluation_times_ms": [
        2.050653,
        2.053373,
        2.0531170000000003,
        2.053213,
        2.053149
      ],
      "metadata": {},
      "peak_memory_mb": 1565.724692
    }
  },
  "{\"x\":\"f32[1024,4096]\",\"labels\":\"i32[1024]\",\"w\":\"bf16[4096,151936]\",\"reduction\":\"sum\",\"return_residuals\":false}": {
    "{}": {
      "compile_time_ms": 175.1037669600919,
      "lower_time_ms": 13.108349055983126,
      "evaluation_times_ms": [
        4.905625000000001,
        4.908953,
        4.902553,
        4.911544,
        4.902297
      ],
      "metadata": {},
      "peak_memory_mb": 4406.64474
    }
  },
  "{\"x\":\"f32[1024,4096]\",\"labels\":\"i32[1024]\",\"w\":\"bf16[4096,151936]\",\"reduction\":\"sum\",\"return_residuals\":true}": {
    "{}": {
      "compile_time_ms": 205.99489705637097,
      "lower_time_ms": 11.530774994753301,
      "evaluation_times_ms": [
        4.941753,
        4.9470339999999995,
        4.947257,
        4.9488900000000005,
        4.952666
      ],
      "metadata": {},
      "peak_memory_mb": 4406.648852
    }
  },
  "{\"x\":\"bf16[2048,4096]\",\"labels\":\"i32[2048]\",\"w\":\"bf16[4096,151936]\",\"reduction\":\"mean\",\"return_residuals\":false}": {
    "{}": {
      "compile_time_ms": 1367.3174770083278,
      "lower_time_ms": 22.085434990003705,
      "evaluation_times_ms": [
        3.784539,
        3.791963,
        3.798075,
        3.800571,
        3.802331
      ],
      "metadata": {},
      "peak_memory_mb": 1917.329412
    }
  },
  "{\"x\":\"bf16[2048,4096]\",\"labels\":\"i32[2048]\",\"w\":\"bf16[4096,151936]\",\"reduction\":\"mean\",\"return_residuals\":true}": {
    "{}": {
      "compile_time_ms": 359.22329500317574,
      "lower_time_ms": 12.95854605268687,
      "evaluation_times_ms": [
        3.957403,
        3.9624900000000003,
        3.963835,
        3.957339,
        3.957019
      ],
      "metadata": {},
      "peak_memory_mb": 1917.333524
    }
  },
  "{\"x\":\"f32[2048,4096]\",\"labels\":\"i32[2048]\",\"w\":\"bf16[4096,151936]\",\"reduction\":\"mean\",\"return_residuals\":false}": {
    "{}": {
      "compile_time_ms": 2423.9945800509304,
      "lower_time_ms": 19.817068008705974,
      "evaluation_times_ms": [
        8.646741,
        8.619892,
        8.557493000000001,
        8.572148,
        8.578196
      ],
      "metadata": {},
      "peak_memory_mb": 5045.755908
    }
  },
  "{\"x\":\"f32[2048,4096]\",\"labels\":\"i32[2048]\",\"w\":\"bf16[4096,151936]\",\"reduction\":\"mean\",\"return_residuals\":true}": {
    "{}": {
      "compile_time_ms": 482.45342797599733,
      "lower_time_ms": 11.55981793999672,
      "evaluation_times_ms": [
        8.698807,
        8.730582,
        8.700663,
        8.714838,
        8.67599
      ],
      "metadata": {},
      "peak_memory_mb": 5045.764116
    }
  },
  "{\"x\":\"bf16[2048,4096]\",\"labels\":\"i32[2048]\",\"w\":\"bf16[4096,151936]\",\"reduction\":\"sum\",\"return_residuals\":false}": {
    "{}": {
      "compile_time_ms": 165.56847898755223,
      "lower_time_ms": 15.32221504021436,
      "evaluation_times_ms": [
        3.7964119999999997,
        3.791163,
        3.797307,
        3.796348,
        3.829595
      ],
      "metadata": {},
      "peak_memory_mb": 1917.329412
    }
  },
  "{\"x\":\"bf16[2048,4096]\",\"labels\":\"i32[2048]\",\"w\":\"bf16[4096,151936]\",\"reduction\":\"sum\",\"return_residuals\":true}": {
    "{}": {
      "compile_time_ms": 1621.1252369998874,
      "lower_time_ms": 28.483543999755057,
      "evaluation_times_ms": [
        3.887379,
        3.885075,
        3.890548,
        3.912788,
        3.914355
      ],
      "metadata": {},
      "peak_memory_mb": 1917.333524
    }
  },
  "{\"x\":\"f32[2048,4096]\",\"labels\":\"i32[2048]\",\"w\":\"bf16[4096,151936]\",\"reduction\":\"sum\",\"return_residuals\":false}": {
    "{}": {
      "compile_time_ms": 2564.8796460000085,
      "lower_time_ms": 22.62242699998751,
      "evaluation_times_ms": [
        8.509823,
        8.509981999999999,
        8.548765,
        8.49155,
        8.55411
      ],
      "metadata": {},
      "peak_memory_mb": 5045.755908
    }
  },
  "{\"x\":\"f32[2048,4096]\",\"labels\":\"i32[2048]\",\"w\":\"bf16[4096,151936]\",\"reduction\":\"sum\",\"return_residuals\":true}": {
    "{}": {
      "compile_time_ms": 382.0253640001283,
      "lower_time_ms": 12.425101999724575,
      "evaluation_times_ms": [
        8.579006,
        8.622781999999999,
        8.591743000000001,
        8.574718,
        8.544607000000001
      ],
      "metadata": {},
      "peak_memory_mb": 5045.764116
    }
  },
  "{\"x\":\"bf16[4096,4096]\",\"labels\":\"i32[4096]\",\"w\":\"bf16[4096,151936]\",\"reduction\":\"mean\",\"return_residuals\":false}": {
    "{}": {
      "compile_time_ms": 2344.190805999915,
      "lower_time_ms": 24.236021999968216,
      "evaluation_times_ms": [
        8.060546,
        8.094274,
        8.130049,
        8.132065,
        8.193857
      ],
      "metadata": {},
      "peak_memory_mb": 2528.919556
    }
  },
  "{\"x\":\"bf16[4096,4096]\",\"labels\":\"i32[4096]\",\"w\":\"bf16[4096,151936]\",\"reduction\":\"mean\",\"return_residuals\":true}": {
    "{}": {
      "compile_time_ms": 645.077868000044,
      "lower_time_ms": 13.537953000195557,
      "evaluation_times_ms": [
        8.465981,
        8.465212,
        8.528988,
        8.609435,
        8.607099
      ],
      "metadata": {},
      "peak_memory_mb": 2528.919572
    }
  },
  "{\"x\":\"f32[4096,4096]\",\"labels\":\"i32[4096]\",\"w\":\"bf16[4096,151936]\",\"reduction\":\"mean\",\"return_residuals\":false}": {
    "{}": {
      "compile_time_ms": 4006.665112999599,
      "lower_time_ms": 21.59554499985461,
      "evaluation_times_ms": [
        16.054245,
        16.030438,
        16.981403,
        16.763166,
        16.230629
      ],
      "metadata": {},
      "peak_memory_mb": 6323.978244
    }
  },
  "{\"x\":\"f32[4096,4096]\",\"labels\":\"i32[4096]\",\"w\":\"bf16[4096,151936]\",\"reduction\":\"mean\",\"return_residuals\":true}": {
    "{}": {
      "compile_time_ms": 454.52811899986045,
      "lower_time_ms": 12.788676000127452,
      "evaluation_times_ms": [
        16.126473,
        16.755457,
        17.138749,
        16.684867,
        16.164457000000002
      ],
      "metadata": {},
      "peak_memory_mb": 6323.994644
    }
  },
  "{\"x\":\"bf16[4096,4096]\",\"labels\":\"i32[4096]\",\"w\":\"bf16[4096,151936]\",\"reduction\":\"sum\",\"return_residuals\":false}": {
    "{}": {
      "compile_time_ms": 423.1524110000464,
      "lower_time_ms": 15.304942000057054,
      "evaluation_times_ms": [
        8.080229,
        8.137891999999999,
        8.153859,
        8.158947000000001,
        8.323713
      ],
      "metadata": {},
      "peak_memory_mb": 2528.919556
    }
  },
  "{\"x\":\"bf16[4096,4096]\",\"labels\":\"i32[4096]\",\"w\":\"bf16[4096,151936]\",\"reduction\":\"sum\",\"return_residuals\":true}": {
    "{}": {
      "compile_time_ms": 441.27462899996317,
      "lower_time_ms": 13.044315000115603,
      "evaluation_times_ms": [
        8.45843,
        8.497278,
        8.520893000000001,
        8.716955,
        9.175701
      ],
      "metadata": {},
      "peak_memory_mb": 2528.919572
    }
  },
  "{\"x\":\"f32[4096,4096]\",\"labels\":\"i32[4096]\",\"w\":\"bf16[4096,151936]\",\"reduction\":\"sum\",\"return_residuals\":false}": {
    "{}": {
      "compile_time_ms": 183.97342100024616,
      "lower_time_ms": 13.939623999704054,
      "evaluation_times_ms": [
        15.994658,
        15.964995,
        15.973283,
        16.969783,
        16.964727
      ],
      "metadata": {},
      "peak_memory_mb": 6323.978244
    }
  },
  "{\"x\":\"f32[4096,4096]\",\"labels\":\"i32[4096]\",\"w\":\"bf16[4096,151936]\",\"reduction\":\"sum\",\"return_residuals\":true}": {
    "{}": {
      "compile_time_ms": 222.83459199979916,
      "lower_time_ms": 13.230300000032003,
      "evaluation_times_ms": [
        16.096762,
        16.25676,
        17.024941,
        17.046447,
        16.523157
      ],
      "metadata": {},
      "peak_memory_mb": 6323.994644
    }
  },
  "{\"x\":\"bf16[16384,4096]\",\"labels\":\"i32[16384]\",\"w\":\"bf16[4096,151936]\",\"reduction\":\"mean\",\"return_residuals\":false}": {
    "{}": {
      "compile_time_ms": 7005.060468000011,
      "lower_time_ms": 22.88622400010354,
      "evaluation_times_ms": [
        30.22354,
        33.215696,
        32.460282,
        33.733195,
        34.188933
      ],
      "metadata": {},
      "peak_memory_mb": 6391.13626
    }
  },
  "{\"x\":\"bf16[16384,4096]\",\"labels\":\"i32[16384]\",\"w\":\"bf16[4096,151936]\",\"reduction\":\"mean\",\"return_residuals\":true}": {
    "{}": {
      "compile_time_ms": 518.1756250000262,
      "lower_time_ms": 29.556871000011142,
      "evaluation_times_ms": [
        33.85961,
        34.499494,
        35.208994000000004,
        33.949485,
        35.780286
      ],
      "metadata": {},
      "peak_memory_mb": 6405.783572
    }
  },
  "{\"x\":\"f32[32768,3840]\",\"labels\":\"i32[32768]\",\"w\":\"bf16[3840,262144]\",\"reduction\":\"mean\",\"return_residuals\":false}": {},
  "{\"x\":\"f32[32768,3840]\",\"labels\":\"i32[32768]\",\"w\":\"bf16[3840,262144]\",\"reduction\":\"mean\",\"return_residuals\":true}": {},
  "{\"x\":\"bf16[32768,3840]\",\"labels\":\"i32[32768]\",\"w\":\"bf16[3840,262144]\",\"reduction\":\"sum\",\"return_residuals\":false}": {
    "{}": {
      "compile_time_ms": 22369.375582999965,
      "lower_time_ms": 22.070106000001033,
      "evaluation_times_ms": [
        109.061071,
        108.311765,
        108.45560499999999,
        110.46627600000001,
        113.072848
      ],
      "metadata": {},
      "peak_memory_mb": 19512.164356
    }
  },
  "{\"x\":\"bf16[32768,3840]\",\"labels\":\"i32[32768]\",\"w\":\"bf16[3840,262144]\",\"reduction\":\"sum\",\"return_residuals\":true}": {
    "{}": {
      "compile_time_ms": 484.8247900001752,
      "lower_time_ms": 13.468967000108023,
      "evaluation_times_ms": [
        111.070862,
        112.231044,
        113.061469,
        116.292388,
        117.37830299999999
      ],
      "metadata": {},
      "peak_memory_mb": 19579.338772
    }
  },
  "{\"x\":\"f32[32768,3840]\",\"labels\":\"i32[32768]\",\"w\":\"bf16[3840,262144]\",\"reduction\":\"sum\",\"return_residuals\":false}": {},
  "{\"x\":\"f32[32768,3840]\",\"labels\":\"i32[32768]\",\"w\":\"bf16[3840,262144]\",\"reduction\":\"sum\",\"return_residuals\":true}": {},
  "{\"x\":\"bf16[131072,3840]\",\"labels\":\"i32[131072]\",\"w\":\"bf16[3840,262144]\",\"reduction\":\"mean\",\"return_residuals\":false}": {},
  "{\"x\":\"bf16[131072,3840]\",\"labels\":\"i32[131072]\",\"w\":\"bf16[3840,262144]\",\"reduction\":\"mean\",\"return_residuals\":true}": {},
  "{\"x\":\"f32[131072,3840]\",\"labels\":\"i32[131072]\",\"w\":\"bf16[3840,262144]\",\"reduction\":\"mean\",\"return_residuals\":false}": {},
  "{\"x\":\"f32[131072,3840]\",\"labels\":\"i32[131072]\",\"w\":\"bf16[3840,262144]\",\"reduction\":\"mean\",\"return_residuals\":true}": {},
  "{\"x\":\"bf16[131072,3840]\",\"labels\":\"i32[131072]\",\"w\":\"bf16[3840,262144]\",\"reduction\":\"sum\",\"return_residuals\":false}": {},
  "{\"x\":\"bf16[131072,3840]\",\"labels\":\"i32[131072]\",\"w\":\"bf16[3840,262144]\",\"reduction\":\"sum\",\"return_residuals\":true}": {},
  "{\"x\":\"f32[131072,3840]\",\"labels\":\"i32[131072]\",\"w\":\"bf16[3840,262144]\",\"reduction\":\"sum\",\"return_residuals\":false}": {},
  "{\"x\":\"f32[131072,3840]\",\"labels\":\"i32[131072]\",\"w\":\"bf16[3840,262144]\",\"reduction\":\"sum\",\"return_residuals\":true}": {},
  "{\"x\":\"bf16[1024,4096]\",\"labels\":\"i32[1024]\",\"w\":\"bf16[4096,128256]\",\"reduction\":\"mean\",\"return_residuals\":false}": {
    "{}": {
      "compile_time_ms": 1261.1617330003355,
      "lower_time_ms": 24.47497699995438,
      "evaluation_times_ms": [
        1.609983,
        1.608446,
        1.6096940000000002,
        1.6123180000000001,
        1.610783
      ],
      "metadata": {},
      "peak_memory_mb": 1355.28858
    }
  },
  "{\"x\":\"bf16[1024,4096]\",\"labels\":\"i32[1024]\",\"w\":\"bf16[4096,128256]\",\"reduction\":\"mean\",\"return_residuals\":true}": {
    "{}": {
      "compile_time_ms": 312.96034600018174,
      "lower_time_ms": 13.088460999824747,
      "evaluation_times_ms": [
        1.67411,
        1.675582,
        1.675391,
        1.679807,
        1.6779179999999998
      ],
      "metadata": {},
      "peak_memory_mb": 1355.290644
    }
  },
  "{\"x\":\"f32[1024,4096]\",\"labels\":\"i32[1024]\",\"w\":\"bf16[4096,128256]\",\"reduction\":\"mean\",\"return_residuals\":false}": {
    "{}": {
      "compile_time_ms": 1699.724538999817,
      "lower_time_ms": 22.39214700011871,
      "evaluation_times_ms": [
        4.111868,
        4.108027,
        4.116411,
        4.119483,
        4.113627999999999
      ],
      "metadata": {},
      "peak_memory_mb": 3727.69178
    }
  },
  "{\"x\":\"f32[1024,4096]\",\"labels\":\"i32[1024]\",\"w\":\"bf16[4096,128256]\",\"reduction\":\"mean\",\"return_residuals\":true}": {
    "{}": {
      "compile_time_ms": 291.2335470000471,
      "lower_time_ms": 12.840946999858716,
      "evaluation_times_ms": [
        4.118844,
        4.119388000000001,
        4.119676,
        4.124988,
        4.119355
      ],
      "metadata": {},
      "peak_memory_mb": 3727.695892
    }
  },
  "{\"x\":\"bf16[1024,4096]\",\"labels\":\"i32[1024]\",\"w\":\"bf16[4096,128256]\",\"reduction\":\"sum\",\"return_residuals\":false}": {
    "{}": {
      "compile_time_ms": 142.1723110001949,
      "lower_time_ms": 16.192753999803244,
      "evaluation_times_ms": [
        1.606751,
        1.609758,
        1.611231,
        1.613022,
        1.611071
      ],
      "metadata": {},
      "peak_memory_mb": 1355.28858
    }
  },
  "{\"x\":\"bf16[1024,4096]\",\"labels\":\"i32[1024]\",\"w\":\"bf16[4096,128256]\",\"reduction\":\"sum\",\"return_residuals\":true}": {
    "{}": {
      "compile_time_ms": 173.8483190001716,
      "lower_time_ms": 13.219784000284562,
      "evaluation_times_ms": [
        1.677246,
        1.6735659999999999,
        1.674846,
        1.6774710000000002,
        1.674302
      ],
      "metadata": {},
      "peak_memory_mb": 1355.290644
    }
  },
  "{\"x\":\"f32[1024,4096]\",\"labels\":\"i32[1024]\",\"w\":\"bf16[4096,128256]\",\"reduction\":\"sum\",\"return_residuals\":false}": {
    "{}": {
      "compile_time_ms": 148.86497499992402,
      "lower_time_ms": 13.896718000069086,
      "evaluation_times_ms": [
        4.109915,
        4.113372,
        4.1120600000000005,
        4.113243,
        4.11574
      ],
      "metadata": {},
      "peak_memory_mb": 3727.69178
    }
  },
  "{\"x\":\"f32[1024,4096]\",\"labels\":\"i32[1024]\",\"w\":\"bf16[4096,128256]\",\"reduction\":\"sum\",\"return_residuals\":true}": {
    "{}": {
      "compile_time_ms": 180.13506199986296,
      "lower_time_ms": 13.249660999917978,
      "evaluation_times_ms": [
        4.117916,
        4.120603999999999,
        4.11926,
        4.118908,
        4.125468
      ],
      "metadata": {},
      "peak_memory_mb": 3727.695892
    }
  },
  "{\"x\":\"bf16[2048,4096]\",\"labels\":\"i32[2048]\",\"w\":\"bf16[4096,128256]\",\"reduction\":\"mean\",\"return_residuals\":false}": {
    "{}": {
      "compile_time_ms": 1346.8919309998455,
      "lower_time_ms": 23.768324999764445,
      "evaluation_times_ms": [
        3.129373,
        3.1299159999999997,
        3.130557,
        3.130109,
        3.134364
      ],
      "metadata": {},
      "peak_memory_mb": 1626.349572
    }
  },
  "{\"x\":\"bf16[2048,4096]\",\"labels\":\"i32[2048]\",\"w\":\"bf16[4096,128256]\",\"reduction\":\"mean\",\"return_residuals\":true}": {
    "{}": {
      "compile_time_ms": 358.9148920000298,
      "lower_time_ms": 13.201616000060312,
      "evaluation_times_ms": [
        3.2512290000000004,
        3.2559959999999997,
        3.260637,
        3.265821,
        3.268637
      ],
      "metadata": {},
      "peak_memory_mb": 1626.353684
    }
  },
  "{\"x\":\"f32[2048,4096]\",\"labels\":\"i32[2048]\",\"w\":\"bf16[4096,128256]\",\"reduction\":\"mean\",\"return_residuals\":false}": {
    "{}": {
      "compile_time_ms": 2278.2758280000053,
      "lower_time_ms": 21.51700600006734,
      "evaluation_times_ms": [
        7.1770819999999995,
        7.176313,
        7.187994,
        7.1753219999999995,
        7.133754
      ],
      "metadata": {},
      "peak_memory_mb": 4269.809668
    }
  },
  "{\"x\":\"f32[2048,4096]\",\"labels\":\"i32[2048]\",\"w\":\"bf16[4096,128256]\",\"reduction\":\"mean\",\"return_residuals\":true}": {
    "{}": {
      "compile_time_ms": 464.6766159999629,
      "lower_time_ms": 27.84775999998601,
      "evaluation_times_ms": [
        7.111848,
        7.122917,
        7.144417,
        7.084144,
        7.087983
      ],
      "metadata": {},
      "peak_memory_mb": 4269.817876
    }
  },
  "{\"x\":\"bf16[2048,4096]\",\"labels\":\"i32[2048]\",\"w\":\"bf16[4096,128256]\",\"reduction\":\"sum\",\"return_residuals\":false}": {
    "{}": {
      "compile_time_ms": 1502.7978690000054,
      "lower_time_ms": 29.875395000090066,
      "evaluation_times_ms": [
        3.102157,
        3.101773,
        3.102157,
        3.143277,
        3.108013
      ],
      "metadata": {},
      "peak_memory_mb": 1626.349572
    }
  },
  "{\"x\":\"bf16[2048,4096]\",\"labels\":\"i32[2048]\",\"w\":\"bf16[4096,128256]\",\"reduction\":\"sum\",\"return_residuals\":true}": {
    "{}": {
      "compile_time_ms": 1203.5342069998478,
      "lower_time_ms": 13.724703999741905,
      "evaluation_times_ms": [
        3.227338,
        3.225963,
        3.2278830000000003,
        3.2376110000000002,
        3.23745
      ],
      "metadata": {},
      "peak_memory_mb": 1626.353684
    }
  },
  "{\"x\":\"f32[2048,4096]\",\"labels\":\"i32[2048]\",\"w\":\"bf16[4096,128256]\",\"reduction\":\"sum\",\"return_residuals\":false}": {
    "{}": {
      "compile_time_ms": 2290.656907999619,
      "lower_time_ms": 21.2381970000024,
      "evaluation_times_ms": [
        7.12507,
        7.133359,
        7.144526,
        7.130767,
        7.143503000000001
      ],
      "metadata": {},
      "peak_memory_mb": 4269.809668
    }
  },
  "{\"x\":\"f32[2048,4096]\",\"labels\":\"i32[2048]\",\"w\":\"bf16[4096,128256]\",\"reduction\":\"sum\",\"return_residuals\":true}": {
    "{}": {
      "compile_time_ms": 333.6174219998611,
      "lower_time_ms": 12.447559000065667,
      "evaluation_times_ms": [
        7.131918,
        7.140814000000001,
        7.143886,
        7.124750000000001,
        7.145230000000001
      ],
      "metadata": {},
      "peak_memory_mb": 4269.817876
    }
  },
  "{\"x\":\"bf16[4096,4096]\",\"labels\":\"i32[4096]\",\"w\":\"bf16[4096,128256]\",\"reduction\":\"mean\",\"return_residuals\":false}": {
    "{}": {
      "compile_time_ms": 1985.8274449998135,
      "lower_time_ms": 23.379490000024816,
      "evaluation_times_ms": [
        6.378962,
        6.387987000000001,
        6.401394,
        6.4074729999999995,
        6.631056
      ],
      "metadata": {},
      "peak_memory_mb": 2168.471556
    }
  },
  "{\"x\":\"bf16[4096,4096]\",\"labels\":\"i32[4096]\",\"w\":\"bf16[4096,128256]\",\"reduction\":\"mean\",\"return_residuals\":true}": {
    "{}": {
      "compile_time_ms": 284.57101799995144,
      "lower_time_ms": 13.059130999863555,
      "evaluation_times_ms": [
        6.632079999999999,
        6.643984000000001,
        6.669776,
        6.86475,
        6.852622
      ],
      "metadata": {},
      "peak_memory_mb": 2168.479764
    }
  },
  "{\"x\":\"f32[4096,4096]\",\"labels\":\"i32[4096]\",\"w\":\"bf16[4096,128256]\",\"reduction\":\"mean\",\"return_residuals\":false}": {
    "{}": {
      "compile_time_ms": 3595.1394590001655,
      "lower_time_ms": 21.4835070000845,
      "evaluation_times_ms": [
        13.320992,
        13.340287,
        13.640477,
        13.737408,
        13.827167
      ],
      "metadata": {},
      "peak_memory_mb": 5354.045444
    }
  },
  "{\"x\":\"f32[4096,4096]\",\"labels\":\"i32[4096]\",\"w\":\"bf16[4096,128256]\",\"reduction\":\"mean\",\"return_residuals\":true}": {
    "{}": {
      "compile_time_ms": 262.3923159999322,
      "lower_time_ms": 12.466630000290024,
      "evaluation_times_ms": [
        13.318272,
        13.571198,
        14.156858,
        13.559199,
        13.89526
      ],
      "metadata": {},
      "peak_memory_mb": 5354.061844
    }
  },
  "{\"x\":\"bf16[4096,4096]\",\"labels\":\"i32[4096]\",\"w\":\"bf16[4096,128256]\",\"reduction\":\"sum\",\"return_residuals\":false}": {
    "{}": {
      "compile_time_ms": 247.38591400000587,
      "lower_time_ms": 15.431558999807748,
      "evaluation_times_ms": [
        6.366385,
        6.379312,
        6.386161,
        6.4165280000000005,
        6.567856
      ],
      "metadata": {},
      "peak_memory_mb": 2168.471556
    }
  },
  "{\"x\":\"bf16[4096,4096]\",\"labels\":\"i32[4096]\",\"w\":\"bf16[4096,128256]\",\"reduction\":\"sum\",\"return_residuals\":true}": {
    "{}": {
      "compile_time_ms": 196.02078499974596,
      "lower_time_ms": 12.678798000251845,
      "evaluation_times_ms": [
        6.6226389999999995,
        6.635566,
        6.665134,
        6.704077000000001,
        6.721646
      ],
      "metadata": {},
      "peak_memory_mb": 2168.479764
    }
  },
  "{\"x\":\"f32[4096,4096]\",\"labels\":\"i32[4096]\",\"w\":\"bf16[4096,128256]\",\"reduction\":\"sum\",\"return_residuals\":false}": {
    "{}": {
      "compile_time_ms": 154.73798999983046,
      "lower_time_ms": 13.64830600005007,
      "evaluation_times_ms": [
        13.244859,
        13.294395,
        13.739032,
        13.733751,
        13.904117999999999
      ],
      "metadata": {},
      "peak_memory_mb": 5354.045444
    }
  },
  "{\"x\":\"f32[4096,4096]\",\"labels\":\"i32[4096]\",\"w\":\"bf16[4096,128256]\",\"reduction\":\"sum\",\"return_residuals\":true}": {
    "{}": {
      "compile_time_ms": 191.38141800021913,
      "lower_time_ms": 12.918558999899687,
      "evaluation_times_ms": [
        13.285530999999999,
        13.306106,
        13.327418,
        13.918742,
        14.042387
      ],
      "metadata": {},
      "peak_memory_mb": 5354.061844
    }
  },
  "{\"x\":\"bf16[16384,4096]\",\"labels\":\"i32[16384]\",\"w\":\"bf16[4096,128256]\",\"reduction\":\"mean\",\"return_residuals\":false}": {
    "{}": {
      "compile_time_ms": 698.8400559999945,
      "lower_time_ms": 28.819051999988687,
      "evaluation_times_ms": [
        24.674354,
        27.348683,
        27.529738,
        28.401483,
        27.392463000000003
      ],
      "metadata": {},
      "peak_memory_mb": 5421.20346
    }
  },
  "{\"x\":\"bf16[16384,4096]\",\"labels\":\"i32[16384]\",\"w\":\"bf16[4096,128256]\",\"reduction\":\"mean\",\"return_residuals\":true}": {
    "{}": {
      "compile_time_ms": 5946.806181003922,
      "lower_time_ms": 27.4058940121904,
      "evaluation_times_ms": [
        27.644586,
        27.466953,
        29.039283,
        28.758577000000002,
        28.218637
      ],
      "metadata": {},
      "peak_memory_mb": 5453.41442
    }
  },
  "{\"x\":\"f32[16384,4096]\",\"labels\":\"i32[16384]\",\"w\":\"bf16[4096,128256]\",\"reduction\":\"mean\",\"return_residuals\":false}": {
    "{}": {
      "compile_time_ms": 10062.29596301273,
      "lower_time_ms": 21.10483800061047,
      "evaluation_times_ms": [
        55.932469999999995,
        54.9508,
        55.304114,
        55.921891,
        56.305414
      ],
      "metadata": {},
      "peak_memory_mb": 11859.4601
    }
  },
  "{\"x\":\"f32[16384,4096]\",\"labels\":\"i32[16384]\",\"w\":\"bf16[4096,128256]\",\"reduction\":\"mean\",\"return_residuals\":true}": {
    "{}": {
      "compile_time_ms": 317.19488999806345,
      "lower_time_ms": 11.602957005379722,
      "evaluation_times_ms": [
        54.384868000000004,
        54.475044999999994,
        54.054947000000006,
        56.800147,
        56.770866999999996
      ],
      "metadata": {},
      "peak_memory_mb": 11859.525652
    }
  },
  "{\"x\":\"bf16[16384,4096]\",\"labels\":\"i32[16384]\",\"w\":\"bf16[4096,128256]\",\"reduction\":\"sum\",\"return_residuals\":false}": {
    "{}": {
      "compile_time_ms": 428.34204199607484,
      "lower_time_ms": 13.521383996703662,
      "evaluation_times_ms": [
        25.104042,
        27.497368,
        27.571321,
        27.308087,
        27.824762000000003
      ],
      "metadata": {},
      "peak_memory_mb": 5421.20346
    }
  },
  "{\"x\":\"bf16[16384,4096]\",\"labels\":\"i32[16384]\",\"w\":\"bf16[4096,128256]\",\"reduction\":\"sum\",\"return_residuals\":true}": {
    "{}": {
      "compile_time_ms": 189.84014699526597,
      "lower_time_ms": 13.05798499379307,
      "evaluation_times_ms": [
        27.115983,
        27.965076,
        28.137332,
        28.281941,
        27.882579
      ],
      "metadata": {},
      "peak_memory_mb": 5453.41442
    }
  },
  "{\"x\":\"f32[16384,4096]\",\"labels\":\"i32[16384]\",\"w\":\"bf16[4096,128256]\",\"reduction\":\"sum\",\"return_residuals\":false}": {
    "{}": {
      "compile_time_ms": 155.80113900068682,
      "lower_time_ms": 13.27406799828168,
      "evaluation_times_ms": [
        54.26901,
        55.037814000000004,
        55.748090000000005,
        56.018875,
        55.296119
      ],
      "metadata": {},
      "peak_memory_mb": 11859.4601
    }
  },
  "{\"x\":\"f32[16384,4096]\",\"labels\":\"i32[16384]\",\"w\":\"bf16[4096,128256]\",\"reduction\":\"sum\",\"return_residuals\":true}": {
    "{}": {
      "compile_time_ms": 186.979912003153,
      "lower_time_ms": 11.531559997820295,
      "evaluation_times_ms": [
        55.574131,
        55.351217,
        56.153493,
        56.076820999999995,
        56.205846
      ],
      "metadata": {},
      "peak_memory_mb": 11859.525652
    }
  },
  "{\"x\":\"bf16[32768,4096]\",\"labels\":\"i32[32768]\",\"w\":\"bf16[4096,128256]\",\"reduction\":\"mean\",\"return_residuals\":false}": {
    "{}": {
      "compile_time_ms": 11823.136025996064,
      "lower_time_ms": 21.599960993626155,
      "evaluation_times_ms": [
        55.868721,
        57.120535999999994,
        56.904951000000004,
        56.84623,
        57.425976999999996
      ],
      "metadata": {},
      "peak_memory_mb": 9790.423044
    }
  },
  "{\"x\":\"bf16[32768,4096]\",\"labels\":\"i32[32768]\",\"w\":\"bf16[4096,128256]\",\"reduction\":\"mean\",\"return_residuals\":true}": {
    "{}": {
      "compile_time_ms": 427.4670369923115,
      "lower_time_ms": 13.027576002059504,
      "evaluation_times_ms": [
        57.8904,
        59.714219,
        58.856517,
        58.846758,
        59.529001
      ],
      "metadata": {},
      "peak_memory_mb": 9856.155668
    }
  },
  "{\"x\":\"f32[32768,4096]\",\"labels\":\"i32[32768]\",\"w\":\"bf16[4096,128256]\",\"reduction\":\"mean\",\"return_residuals\":false}": {
    "{}": {
      "compile_time_ms": 19149.609259999124,
      "lower_time_ms": 20.451582997338846,
      "evaluation_times_ms": [
        110.569487,
        114.851434,
        114.092484,
        118.56224,
        117.08935
      ],
      "metadata": {},
      "peak_memory_mb": 20533.346308
    }
  },
  "{\"x\":\"f32[32768,4096]\",\"labels\":\"i32[32768]\",\"w\":\"bf16[4096,128256]\",\"reduction\":\"mean\",\"return_residuals\":true}": {
    "{}": {
      "compile_time_ms": 337.73388899862766,
      "lower_time_ms": 11.945388003368862,
      "evaluation_times_ms": [
        110.735872,
        111.961224,
        112.21415400000001,
        124.111058,
        115.52521399999999
      ],
      "metadata": {},
      "peak_memory_mb": 20533.477396
    }
  },
  "{\"x\":\"bf16[32768,4096]\",\"labels\":\"i32[32768]\",\"w\":\"bf16[4096,128256]\",\"reduction\":\"sum\",\"return_residuals\":false}": {
    "{}": {
      "compile_time_ms": 227.67065599327907,
      "lower_time_ms": 13.66166899970267,
      "evaluation_times_ms": [
        57.282368,
        56.611005,
        56.903838,
        56.352796,
        56.811678
      ],
      "metadata": {},
      "peak_memory_mb": 9790.423044
    }
  },
  "{\"x\":\"bf16[32768,4096]\",\"labels\":\"i32[32768]\",\"w\":\"bf16[4096,128256]\",\"reduction\":\"sum\",\"return_residuals\":true}": {
    "{}": {
      "compile_time_ms": 201.83914600056596,
      "lower_time_ms": 12.585791992023587,
      "evaluation_times_ms": [
        57.7558,
        58.570236,
        58.441147,
        58.986782000000005,
        58.604029
      ],
      "metadata": {},
      "peak_memory_mb": 9856.155668
    }
  },
  "{\"x\":\"f32[32768,4096]\",\"labels\":\"i32[32768]\",\"w\":\"bf16[4096,128256]\",\"reduction\":\"sum\",\"return_residuals\":false}": {
    "{}": {
      "compile_time_ms": 624.6044240001538,
      "lower_time_ms": 60.47551500000736,
      "evaluation_times_ms": [
        109.525548,
        110.826801,
        110.36732400000001,
        114.912384,
        112.975141
      ],
      "metadata": {},
      "peak_memory_mb": 20533.346308
    }
  },
  "{\"x\":\"f32[32768,4096]\",\"labels\":\"i32[32768]\",\"w\":\"bf16[4096,128256]\",\"reduction\":\"sum\",\"return_residuals\":true}": {
    "{}": {
      "compile_time_ms": 298.9780800000972,
      "lower_time_ms": 13.434372000119765,
      "evaluation_times_ms": [
        109.23578,
        111.244457,
        110.634569,
        124.458604,
        113.064522
      ],
      "metadata": {},
      "peak_memory_mb": 20533.477396
    }
  },
  "{\"x\":\"bf16[131072,4096]\",\"labels\":\"i32[131072]\",\"w\":\"bf16[4096,128256]\",\"reduction\":\"mean\",\"return_residuals\":false}": {},
  "{\"x\":\"bf16[131072,4096]\",\"labels\":\"i32[131072]\",\"w\":\"bf16[4096,128256]\",\"reduction\":\"mean\",\"return_residuals\":true}": {},
  "{\"x\":\"f32[131072,4096]\",\"labels\":\"i32[131072]\",\"w\":\"bf16[4096,128256]\",\"reduction\":\"mean\",\"return_residuals\":false}": {},
  "{\"x\":\"f32[131072,4096]\",\"labels\":\"i32[131072]\",\"w\":\"bf16[4096,128256]\",\"reduction\":\"mean\",\"return_residuals\":true}": {},
  "{\"x\":\"bf16[131072,4096]\",\"labels\":\"i32[131072]\",\"w\":\"bf16[4096,128256]\",\"reduction\":\"sum\",\"return_residuals\":false}": {},
  "{\"x\":\"bf16[131072,4096]\",\"labels\":\"i32[131072]\",\"w\":\"bf16[4096,128256]\",\"reduction\":\"sum\",\"return_residuals\":true}": {},
  "{\"x\":\"f32[131072,4096]\",\"labels\":\"i32[131072]\",\"w\":\"bf16[4096,128256]\",\"reduction\":\"sum\",\"return_residuals\":false}": {},
  "{\"x\":\"f32[131072,4096]\",\"labels\":\"i32[131072]\",\"w\":\"bf16[4096,128256]\",\"reduction\":\"sum\",\"return_residuals\":true}": {},
  "{\"x\":\"bf16[4096,7168]\",\"labels\":\"i32[4096]\",\"w\":\"bf16[7168,128256]\",\"reduction\":\"mean\",\"return_residuals\":false}": {
    "{}": {
      "compile_time_ms": 2865.9159979999913,
      "lower_time_ms": 22.381186000075104,
      "evaluation_times_ms": [
        10.061421999999999,
        10.095628999999999,
        11.254571,
        11.28046,
        11.397804
      ],
      "metadata": {},
      "peak_memory_mb": 2981.642244
    }
  },
  "{\"x\":\"bf16[4096,7168]\",\"labels\":\"i32[4096]\",\"w\":\"bf16[7168,128256]\",\"reduction\":\"mean\",\"return_residuals\":true}": {
    "{}": {
      "compile_time_ms": 265.42163900012383,
      "lower_time_ms": 12.45807700001933,
      "evaluation_times_ms": [
        10.281679,
        10.35288,
        11.339118000000001,
        11.446607,
        11.810253
      ],
      "metadata": {},
      "peak_memory_mb": 2981.650452
    }
  },
  "{\"x\":\"f32[4096,7168]\",\"labels\":\"i32[4096]\",\"w\":\"bf16[7168,128256]\",\"reduction\":\"mean\",\"return_residuals\":false}": {
    "{}": {
      "compile_time_ms": 550.1150310000185,
      "lower_time_ms": 29.173389999982646,
      "evaluation_times_ms": [
        21.675157000000002,
        23.553913,
        22.820386000000003,
        22.167771,
        23.267937
      ],
      "metadata": {},
      "peak_memory_mb": 7768.391684
    }
  },
  "{\"x\":\"f32[4096,7168]\",\"labels\":\"i32[4096]\",\"w\":\"bf16[7168,128256]\",\"reduction\":\"mean\",\"return_residuals\":true}": {
    "{}": {
      "compile_time_ms": 5166.322777979076,
      "lower_time_ms": 26.748589938506484,
      "evaluation_times_ms": [
        21.865393,
        23.351281,
        23.066801,
        24.247155,
        24.094034
      ],
      "metadata": {},
      "peak_memory_mb": 7768.408084
    }
  },
  "{\"x\":\"bf16[4096,7168]\",\"labels\":\"i32[4096]\",\"w\":\"bf16[7168,128256]\",\"reduction\":\"sum\",\"return_residuals\":false}": {
    "{}": {
      "compile_time_ms": 2834.9014370469376,
      "lower_time_ms": 21.74435101915151,
      "evaluation_times_ms": [
        10.36663,
        10.815366000000001,
        10.907558,
        10.907846,
        11.200871
      ],
      "metadata": {},
      "peak_memory_mb": 2981.642244
    }
  },
  "{\"x\":\"bf16[4096,7168]\",\"labels\":\"i32[4096]\",\"w\":\"bf16[7168,128256]\",\"reduction\":\"sum\",\"return_residuals\":true}": {
    "{}": {
      "compile_time_ms": 420.71033897809684,
      "lower_time_ms": 12.301127891987562,
      "evaluation_times_ms": [
        10.630818999999999,
        11.072996,
        11.178084,
        11.510404,
        11.507235
      ],
      "metadata": {},
      "peak_memory_mb": 2981.650452
    }
  },
  "{\"x\":\"f32[4096,7168]\",\"labels\":\"i32[4096]\",\"w\":\"bf16[7168,128256]\",\"reduction\":\"sum\",\"return_residuals\":false}": {
    "{}": {
      "compile_time_ms": 375.46772498171777,
      "lower_time_ms": 12.714799959212542,
      "evaluation_times_ms": [
        21.776899999999998,
        22.648356,
        23.769475,
        23.175939000000003,
        23.928292000000003
      ],
      "metadata": {},
      "peak_memory_mb": 7768.391684
    }
  },
  "{\"x\":\"f32[4096,7168]\",\"labels\":\"i32[4096]\",\"w\":\"bf16[7168,128256]\",\"reduction\":\"sum\",\"return_residuals\":true}": {
    "{}": {
      "compile_time_ms": 186.24257401097566,
      "lower_time_ms": 12.25432101637125,
      "evaluation_times_ms": [
        21.853088,
        23.845057,
        23.668737,
        22.550145,
        24.019712000000002
      ],
      "metadata": {},
      "peak_memory_mb": 7768.408084
    }
  },
  "{\"x\":\"bf16[8192,7168]\",\"labels\":\"i32[8192]\",\"w\":\"bf16[7168,128256]\",\"reduction\":\"mean\",\"return_residuals\":false}": {
    "{}": {
      "compile_time_ms": 5286.864934954792,
      "lower_time_ms": 21.717231953516603,
      "evaluation_times_ms": [
        20.815132,
        24.093532,
        23.77206,
        23.893563999999998,
        23.348156
      ],
      "metadata": {},
      "peak_memory_mb": 4091.052036
    }
  },
  "{\"x\":\"bf16[8192,7168]\",\"labels\":\"i32[8192]\",\"w\":\"bf16[7168,128256]\",\"reduction\":\"mean\",\"return_residuals\":true}": {
    "{}": {
      "compile_time_ms": 414.5380159607157,
      "lower_time_ms": 12.182842008769512,
      "evaluation_times_ms": [
        21.527580999999998,
        24.247005,
        23.272157,
        24.218685,
        23.436285
      ],
      "metadata": {},
      "peak_memory_mb": 4091.068436
    }
  },
  "{\"x\":\"f32[8192,7168]\",\"labels\":\"i32[8192]\",\"w\":\"bf16[7168,128256]\",\"reduction\":\"mean\",\"return_residuals\":false}": {
    "{}": {
      "compile_time_ms": 8753.943950054236,
      "lower_time_ms": 20.18108102492988,
      "evaluation_times_ms": [
        46.111764,
        48.156628999999995,
        48.527956999999994,
        47.929525,
        47.058005
      ],
      "metadata": {},
      "peak_memory_mb": 9987.194884
    }
  },
  "{\"x\":\"f32[8192,7168]\",\"labels\":\"i32[8192]\",\"w\":\"bf16[7168,128256]\",\"reduction\":\"mean\",\"return_residuals\":true}": {
    "{}": {
      "compile_time_ms": 422.7567510679364,
      "lower_time_ms": 11.618522927165031,
      "evaluation_times_ms": [
        46.149097,
        47.440842,
        47.816361,
        46.827945,
        48.121514000000005
      ],
      "metadata": {},
      "peak_memory_mb": 9987.227668
    }
  },
  "{\"x\":\"bf16[8192,7168]\",\"labels\":\"i32[8192]\",\"w\":\"bf16[7168,128256]\",\"reduction\":\"sum\",\"return_residuals\":false}": {
    "{}": {
      "compile_time_ms": 212.2544770827517,
      "lower_time_ms": 13.985798927024007,
      "evaluation_times_ms": [
        20.818464000000002,
        23.334144,
        23.15776,
        23.98384,
        23.441952
      ],
      "metadata": {},
      "peak_memory_mb": 4091.052036
    }
  },
  "{\"x\":\"bf16[8192,7168]\",\"labels\":\"i32[8192]\",\"w\":\"bf16[7168,128256]\",\"reduction\":\"sum\",\"return_residuals\":true}": {
    "{}": {
      "compile_time_ms": 183.90161299612373,
      "lower_time_ms": 11.98177202604711,
      "evaluation_times_ms": [
        21.326908,
        24.907163999999998,
        23.790556000000002,
        24.824764000000002,
        23.544188000000002
      ],
      "metadata": {},
      "peak_memory_mb": 4091.068436
    }
  },
  "{\"x\":\"f32[8192,7168]\",\"labels\":\"i32[8192]\",\"w\":\"bf16[7168,128256]\",\"reduction\":\"sum\",\"return_residuals\":false}": {
    "{}": {
      "compile_time_ms": 150.5646100267768,
      "lower_time_ms": 13.114110101014376,
      "evaluation_times_ms": [
        43.86338,
        47.554803,
        47.308659,
        45.927252,
        46.667251
      ],
      "metadata": {},
      "peak_memory_mb": 9987.194884
    }
  },
  "{\"x\":\"f32[8192,7168]\",\"labels\":\"i32[8192]\",\"w\":\"bf16[7168,128256]\",\"reduction\":\"sum\",\"return_residuals\":true}": {
    "{}": {
      "compile_time_ms": 564.3075229999681,
      "lower_time_ms": 594.4865600000071,
      "evaluation_times_ms": [
        44.946412,
        46.918796,
        47.104515,
        45.710431,
        46.019897
      ],
      "metadata": {},
      "peak_memory_mb": 9987.227668
    }
  },
  "{\"x\":\"bf16[16384,7168]\",\"labels\":\"i32[16384]\",\"w\":\"bf16[7168,128256]\",\"reduction\":\"mean\",\"return_residuals\":false}": {},
  "{\"x\":\"bf16[32768,7168]\",\"labels\":\"i32[32768]\",\"w\":\"bf16[7168,128256]\",\"reduction\":\"sum\",\"return_residuals\":true}": {
    "{}": {
      "compile_time_ms": 20101.524673000313,
      "lower_time_ms": 28.831370000261813,
      "evaluation_times_ms": [
        98.254157,
        96.204412,
        97.879344,
        97.905519,
        109.546106
      ],
      "metadata": {},
      "peak_memory_mb": 10845.487124
    }
  },
  "{\"x\":\"f32[32768,7168]\",\"labels\":\"i32[32768]\",\"w\":\"bf16[7168,128256]\",\"reduction\":\"sum\",\"return_residuals\":false}": {
    "{}": {
      "compile_time_ms": 32318.66405200026,
      "lower_time_ms": 22.673379000025307,
      "evaluation_times_ms": [
        182.799757,
        183.97434,
        194.569623,
        182.826807,
        194.117829
      ],
      "metadata": {},
      "peak_memory_mb": 23300.014084
    }
  },
  "{\"x\":\"f32[32768,7168]\",\"labels\":\"i32[32768]\",\"w\":\"bf16[7168,128256]\",\"reduction\":\"sum\",\"return_residuals\":true}": {
    "{}": {
      "compile_time_ms": 433.49931300008393,
      "lower_time_ms": 12.532064999959402,
      "evaluation_times_ms": [
        179.803602,
        185.59357300000002,
        193.161481,
        184.919433,
        190.66774
      ],
      "metadata": {},
      "peak_memory_mb": 23300.145172
    }
  },
  "{\"x\":\"bf16[1024,2880]\",\"labels\":\"i32[1024]\",\"w\":\"bf16[2880,201088]\",\"reduction\":\"mean\",\"return_residuals\":false}": {
    "{}": {
      "compile_time_ms": 1275.5885780002245,
      "lower_time_ms": 22.873773000355868,
      "evaluation_times_ms": [
        1.888144,
        1.88856,
        1.889424,
        1.89336,
        1.888369
      ],
      "metadata": {},
      "peak_memory_mb": 1609.551876
    }
  },
  "{\"x\":\"bf16[1024,2880]\",\"labels\":\"i32[1024]\",\"w\":\"bf16[2880,201088]\",\"reduction\":\"mean\",\"return_residuals\":true}": {
    "{}": {
      "compile_time_ms": 368.0249239996556,
      "lower_time_ms": 12.835692999942694,
      "evaluation_times_ms": [
        2.001678,
        2.000751,
        2.001135,
        2.002703,
        2.0060949999999997
      ],
      "metadata": {},
      "peak_memory_mb": 1609.55394
    }
  },
  "{\"x\":\"f32[1024,2880]\",\"labels\":\"i32[1024]\",\"w\":\"bf16[2880,201088]\",\"reduction\":\"mean\",\"return_residuals\":false}": {
    "{}": {
      "compile_time_ms": 1899.443250999866,
      "lower_time_ms": 21.010756000123365,
      "evaluation_times_ms": [
        5.266032,
        5.271728,
        5.268752,
        5.273968,
        5.2737110000000005
      ],
      "metadata": {},
      "peak_memory_mb": 4343.8121
    }
  },
  "{\"x\":\"f32[1024,2880]\",\"labels\":\"i32[1024]\",\"w\":\"bf16[2880,201088]\",\"reduction\":\"mean\",\"return_residuals\":true}": {
    "{}": {
      "compile_time_ms": 370.384527999704,
      "lower_time_ms": 12.551722999887716,
      "evaluation_times_ms": [
        5.323149,
        5.324653,
        5.326605,
        5.331981,
        5.328461
      ],
      "metadata": {},
      "peak_memory_mb": 4343.816212
    }
  },
  "{\"x\":\"bf16[1024,2880]\",\"labels\":\"i32[1024]\",\"w\":\"bf16[2880,201088]\",\"reduction\":\"sum\",\"return_residuals\":false}": {
    "{}": {
      "compile_time_ms": 185.2733740001895,
      "lower_time_ms": 15.002179000020988,
      "evaluation_times_ms": [
        1.880909,
        1.882957,
        1.88747,
        1.886893,
        1.885326
      ],
      "metadata": {},
      "peak_memory_mb": 1609.551876
    }
  },
  "{\"x\":\"bf16[1024,2880]\",\"labels\":\"i32[1024]\",\"w\":\"bf16[2880,201088]\",\"reduction\":\"sum\",\"return_residuals\":true}": {
    "{}": {
      "compile_time_ms": 230.13417899983324,
      "lower_time_ms": 12.907502999951248,
      "evaluation_times_ms": [
        1.997101,
        2.000076,
        2.002188,
        2.001867,
        1.9993079999999999
      ],
      "metadata": {},
      "peak_memory_mb": 1609.55394
    }
  },
  "{\"x\":\"f32[1024,2880]\",\"labels\":\"i32[1024]\",\"w\":\"bf16[2880,201088]\",\"reduction\":\"sum\",\"return_residuals\":false}": {
    "{}": {
      "compile_time_ms": 184.122703000412,
      "lower_time_ms": 13.701212000341911,
      "evaluation_times_ms": [
        5.25889,
        5.264682,
        5.266122999999999,
        5.270378,
        5.265034
      ],
      "metadata": {},
      "peak_memory_mb": 4343.8121
    }
  },
  "{\"x\":\"f32[1024,2880]\",\"labels\":\"i32[1024]\",\"w\":\"bf16[2880,201088]\",\"reduction\":\"sum\",\"return_residuals\":true}": {
    "{}": {
      "compile_time_ms": 215.56221900027595,
      "lower_time_ms": 13.965101999929175,
      "evaluation_times_ms": [
        5.326153,
        5.323657,
        5.327753,
        5.33524,
        5.329289
      ],
      "metadata": {},
      "peak_memory_mb": 4343.816212
    }
  },
  "{\"x\":\"bf16[2048,2880]\",\"labels\":\"i32[2048]\",\"w\":\"bf16[2880,201088]\",\"reduction\":\"mean\",\"return_residuals\":false}": {
    "{}": {
      "compile_time_ms": 1600.2161860001252,
      "lower_time_ms": 22.83000199986418,
      "evaluation_times_ms": [
        3.700857,
        3.713369,
        3.712056,
        3.7157050000000003,
        3.728344
      ],
      "metadata": {},
      "peak_memory_mb": 2027.282436
    }
  },
  "{\"x\":\"bf16[2048,2880]\",\"labels\":\"i32[2048]\",\"w\":\"bf16[2880,201088]\",\"reduction\":\"mean\",\"return_residuals\":true}": {
    "{}": {
      "compile_time_ms": 401.0888039997553,
      "lower_time_ms": 12.96980999995867,
      "evaluation_times_ms": [
        3.921047,
        3.957398,
        3.922231,
        3.964245,
        3.9637330000000004
      ],
      "metadata": {},
      "peak_memory_mb": 2027.286548
    }
  },
  "{\"x\":\"f32[2048,2880]\",\"labels\":\"i32[2048]\",\"w\":\"bf16[2880,201088]\",\"reduction\":\"mean\",\"return_residuals\":false}": {
    "{}": {
      "compile_time_ms": 2540.1377929999853,
      "lower_time_ms": 28.303328999982114,
      "evaluation_times_ms": [
        9.372588,
        9.232748,
        9.32782,
        9.356332,
        9.324715
      ],
      "metadata": {},
      "peak_memory_mb": 5179.269124
    }
  },
  "{\"x\":\"f32[2048,2880]\",\"labels\":\"i32[2048]\",\"w\":\"bf16[2880,201088]\",\"reduction\":\"mean\",\"return_residuals\":true}": {
    "{}": {
      "compile_time_ms": 360.25635200007855,
      "lower_time_ms": 13.214722000157053,
      "evaluation_times_ms": [
        9.409356,
        9.446381,
        9.526157,
        9.459309000000001,
        9.499373
      ],
      "metadata": {},
      "peak_memory_mb": 5179.277332
    }
  },
  "{\"x\":\"bf16[2048,2880]\",\"labels\":\"i32[2048]\",\"w\":\"bf16[2880,201088]\",\"reduction\":\"sum\",\"return_residuals\":false}": {
    "{}": {
      "compile_time_ms": 1553.8626050001767,
      "lower_time_ms": 21.53513700000076,
      "evaluation_times_ms": [
        3.7196849999999997,
        3.730693,
        3.722693,
        3.728323,
        3.730564
      ],
      "metadata": {},
      "peak_memory_mb": 2027.282436
    }
  },
  "{\"x\":\"bf16[2048,2880]\",\"labels\":\"i32[2048]\",\"w\":\"bf16[2880,201088]\",\"reduction\":\"sum\",\"return_residuals\":true}": {
    "{}": {
      "compile_time_ms": 359.4476390001091,
      "lower_time_ms": 12.720926999918447,
      "evaluation_times_ms": [
        3.944197,
        3.9406130000000004,
        3.944261,
        3.945733,
        3.951141
      ],
      "metadata": {},
      "peak_memory_mb": 2027.286548
    }
  },
  "{\"x\":\"f32[2048,2880]\",\"labels\":\"i32[2048]\",\"w\":\"bf16[2880,201088]\",\"reduction\":\"sum\",\"return_residuals\":false}": {
    "{}": {
      "compile_time_ms": 173.92221199997948,
      "lower_time_ms": 13.53768199987826,
      "evaluation_times_ms": [
        9.308907,
        9.393707000000001,
        9.253931,
        9.329834,
        9.513516000000001
      ],
      "metadata": {},
      "peak_memory_mb": 5179.269124
    }
  },
  "{\"x\":\"f32[2048,2880]\",\"labels\":\"i32[2048]\",\"w\":\"bf16[2880,201088]\",\"reduction\":\"sum\",\"return_residuals\":true}": {
    "{}": {
      "compile_time_ms": 208.30286399996112,
      "lower_time_ms": 12.53753100013455,
      "evaluation_times_ms": [
        9.376842,
        9.447403,
        9.43537,
        9.507659,
        9.572106999999999
      ],
      "metadata": {},
      "peak_memory_mb": 5179.277332
    }
  },
  "{\"x\":\"bf16[4096,2880]\",\"labels\":\"i32[4096]\",\"w\":\"bf16[2880,201088]\",\"reduction\":\"mean\",\"return_residuals\":false}": {
    "{}": {
      "compile_time_ms": 2066.440507999914,
      "lower_time_ms": 22.71728300001996,
      "evaluation_times_ms": [
        7.489129,
        7.425479,
        7.434184,
        7.441353,
        7.422664
      ],
      "metadata": {},
      "peak_memory_mb": 2862.743556
    }
  },
  "{\"x\":\"bf16[4096,2880]\",\"labels\":\"i32[4096]\",\"w\":\"bf16[2880,201088]\",\"reduction\":\"mean\",\"return_residuals\":true}": {
    "{}": {
      "compile_time_ms": 427.5336299999708,
      "lower_time_ms": 12.872931000174503,
      "evaluation_times_ms": [
        7.811945,
        8.023401,
        7.944585,
        7.9405529999999995,
        8.231882
      ],
      "metadata": {},
      "peak_memory_mb": 2862.751764
    }
  },
  "{\"x\":\"f32[4096,2880]\",\"labels\":\"i32[4096]\",\"w\":\"bf16[2880,201088]\",\"reduction\":\"mean\",\"return_residuals\":false}": {
    "{}": {
      "compile_time_ms": 3810.78334599988,
      "lower_time_ms": 20.56151800002226,
      "evaluation_times_ms": [
        17.542131,
        18.286965,
        18.917396,
        18.931957,
        18.964372
      ],
      "metadata": {},
      "peak_memory_mb": 6850.183172
    }
  },
  "{\"x\":\"f32[4096,2880]\",\"labels\":\"i32[4096]\",\"w\":\"bf16[2880,201088]\",\"reduction\":\"mean\",\"return_residuals\":true}": {
    "{}": {
      "compile_time_ms": 353.4251819999099,
      "lower_time_ms": 12.386003000074197,
      "evaluation_times_ms": [
        17.722264,
        17.999417,
        18.486745,
        18.332153,
        18.468888
      ],
      "metadata": {},
      "peak_memory_mb": 6850.199572
    }
  },
  "{\"x\":\"bf16[4096,2880]\",\"labels\":\"i32[4096]\",\"w\":\"bf16[2880,201088]\",\"reduction\":\"sum\",\"return_residuals\":false}": {
    "{}": {
      "compile_time_ms": 180.21081599999889,
      "lower_time_ms": 14.734825999994428,
      "evaluation_times_ms": [
        7.443849999999999,
        7.443562,
        7.441833,
        7.475593999999999,
        7.501066
      ],
      "metadata": {},
      "peak_memory_mb": 2862.743556
    }
  },
  "{\"x\":\"bf16[4096,2880]\",\"labels\":\"i32[4096]\",\"w\":\"bf16[2880,201088]\",\"reduction\":\"sum\",\"return_residuals\":true}": {
    "{}": {
      "compile_time_ms": 224.55800500006262,
      "lower_time_ms": 12.216296000133298,
      "evaluation_times_ms": [
        7.9598510000000005,
        7.813259,
        7.937386,
        7.944331,
        8.208075000000001
      ],
      "metadata": {},
      "peak_memory_mb": 2862.751764
    }
  },
  "{\"x\":\"f32[4096,2880]\",\"labels\":\"i32[4096]\",\"w\":\"bf16[2880,201088]\",\"reduction\":\"sum\",\"return_residuals\":false}": {
    "{}": {
      "compile_time_ms": 183.42307800003255,
      "lower_time_ms": 13.275904000010996,
      "evaluation_times_ms": [
        17.479894,
        17.632119,
        18.269815,
        18.509142999999998,
        18.51596
      ],
      "metadata": {},
      "peak_memory_mb": 6850.183172
    }
  },
  "{\"x\":\"f32[4096,2880]\",\"labels\":\"i32[4096]\",\"w\":\"bf16[2880,201088]\",\"reduction\":\"sum\",\"return_residuals\":true}": {
    "{}": {
      "compile_time_ms": 3977.4593279998953,
      "lower_time_ms": 29.251879000185,
      "evaluation_times_ms": [
        17.979428,
        19.107043,
        18.836162,
        19.14781,
        19.15325
      ],
      "metadata": {},
      "peak_memory_mb": 6850.199572
    }
  },
  "{\"x\":\"bf16[8192,2880]\",\"labels\":\"i32[8192]\",\"w\":\"bf16[2880,201088]\",\"reduction\":\"mean\",\"return_residuals\":false}": {
    "{}": {
      "compile_time_ms": 3407.096695999826,
      "lower_time_ms": 24.08805599952757,
      "evaluation_times_ms": [
        15.162825999999999,
        15.393545,
        15.409577,
        16.18708,
        16.62772
      ],
      "metadata": {},
      "peak_memory_mb": 4533.665796
    }
  },
  "{\"x\":\"bf16[8192,2880]\",\"labels\":\"i32[8192]\",\"w\":\"bf16[2880,201088]\",\"reduction\":\"mean\",\"return_residuals\":true}": {
    "{}": {
      "compile_time_ms": 423.7324539999463,
      "lower_time_ms": 13.309087000379805,
      "evaluation_times_ms": [
        16.003786,
        16.266345,
        16.612808,
        17.403048,
        17.566152
      ],
      "metadata": {},
      "peak_memory_mb": 4533.682196
    }
  },
  "{\"x\":\"f32[8192,2880]\",\"labels\":\"i32[8192]\",\"w\":\"bf16[2880,201088]\",\"reduction\":\"mean\",\"return_residuals\":false}": {},
  "{\"x\":\"f32[8192,2880]\",\"labels\":\"i32[8192]\",\"w\":\"bf16[2880,201088]\",\"reduction\":\"mean\",\"return_residuals\":true}": {},
  "{\"x\":\"bf16[8192,2880]\",\"labels\":\"i32[8192]\",\"w\":\"bf16[2880,201088]\",\"reduction\":\"sum\",\"return_residuals\":false}": {
    "{}": {
      "compile_time_ms": 188.08211900068272,
      "lower_time_ms": 15.007920999778435,
      "evaluation_times_ms": [
        15.160199,
        15.828838000000001,
        15.889381,
        16.208742,
        16.8009
      ],
      "metadata": {},
      "peak_memory_mb": 4533.665796
    }
  },
  "{\"x\":\"bf16[8192,2880]\",\"labels\":\"i32[8192]\",\"w\":\"bf16[2880,201088]\",\"reduction\":\"sum\",\"return_residuals\":true}": {
    "{}": {
      "compile_time_ms": 230.1229759996204,
      "lower_time_ms": 12.419772999237466,
      "evaluation_times_ms": [
        16.020294,
        16.369926,
        16.497028,
        16.784165,
        17.393188000000002
      ],
      "metadata": {},
      "peak_memory_mb": 4533.682196
    }
  },
  "{\"x\":\"f32[8192,2880]\",\"labels\":\"i32[8192]\",\"w\":\"bf16[2880,201088]\",\"reduction\":\"sum\",\"return_residuals\":false}": {},
  "{\"x\":\"f32[8192,2880]\",\"labels\":\"i32[8192]\",\"w\":\"bf16[2880,201088]\",\"reduction\":\"sum\",\"return_residuals\":true}": {},
  "{\"x\":\"bf16[16384,2880]\",\"labels\":\"i32[16384]\",\"w\":\"bf16[2880,201088]\",\"reduction\":\"mean\",\"return_residuals\":false}": {},
  "{\"x\":\"bf16[16384,2880]\",\"labels\":\"i32[16384]\",\"w\":\"bf16[2880,201088]\",\"reduction\":\"mean\",\"return_residuals\":true}": {},
  "{\"x\":\"f32[16384,2880]\",\"labels\":\"i32[16384]\",\"w\":\"bf16[2880,201088]\",\"reduction\":\"mean\",\"return_residuals\":false}": {},
  "{\"x\":\"f32[16384,2880]\",\"labels\":\"i32[16384]\",\"w\":\"bf16[2880,201088]\",\"reduction\":\"mean\",\"return_residuals\":true}": {
    "{}": {
      "compile_time_ms": 11796.199118000033,
      "lower_time_ms": 28.29557300000829,
      "evaluation_times_ms": [
        71.463511,
        70.931389,
        71.434236,
        71.307765,
        71.854955
      ],
      "metadata": {},
      "peak_memory_mb": 16875.733012
    }
  },
  "{\"x\":\"f32[16384,4096]\",\"labels\":\"i32[16384]\",\"w\":\"bf16[4096,151936]\",\"reduction\":\"mean\",\"return_residuals\":false}": {
    "{}": {
      "compile_time_ms": 11939.519829999881,
      "lower_time_ms": 30.007401999910144,
      "evaluation_times_ms": [
        66.805285,
        66.800868,
        65.304973,
        65.284141,
        66.000618
      ],
      "metadata": {},
      "peak_memory_mb": 13993.31226
    }
  },
  "{\"x\":\"f32[16384,4096]\",\"labels\":\"i32[16384]\",\"w\":\"bf16[4096,151936]\",\"reduction\":\"mean\",\"return_residuals\":true}": {
    "{}": {
      "compile_time_ms": 408.3121989999654,
      "lower_time_ms": 13.527815000088594,
      "evaluation_times_ms": [
        66.61939,
        66.044418,
        65.337766,
        66.774525,
        66.431168
      ],
      "metadata": {},
      "peak_memory_mb": 13993.377812
    }
  },
  "{\"x\":\"bf16[16384,4096]\",\"labels\":\"i32[16384]\",\"w\":\"bf16[4096,151936]\",\"reduction\":\"sum\",\"return_residuals\":false}": {
    "{}": {
      "compile_time_ms": 7051.736260000098,
      "lower_time_ms": 22.37107099995228,
      "evaluation_times_ms": [
        30.782262,
        32.331853,
        33.623526,
        33.094473,
        32.966858
      ],
      "metadata": {},
      "peak_memory_mb": 6391.13626
    }
  },
  "{\"x\":\"bf16[16384,4096]\",\"labels\":\"i32[16384]\",\"w\":\"bf16[4096,151936]\",\"reduction\":\"sum\",\"return_residuals\":true}": {
    "{}": {
      "compile_time_ms": 417.1392509999805,
      "lower_time_ms": 13.219765999792799,
      "evaluation_times_ms": [
        31.699089999999998,
        35.055743,
        34.235620000000004,
        34.804449,
        33.775399
      ],
      "metadata": {},
      "peak_memory_mb": 6405.783572
    }
  },
  "{\"x\":\"f32[16384,4096]\",\"labels\":\"i32[16384]\",\"w\":\"bf16[4096,151936]\",\"reduction\":\"sum\",\"return_residuals\":false}": {
    "{}": {
      "compile_time_ms": 184.38953999998375,
      "lower_time_ms": 14.249686000084694,
      "evaluation_times_ms": [
        63.954772,
        65.394571,
        66.38272599999999,
        66.143047,
        64.198355
      ],
      "metadata": {},
      "peak_memory_mb": 13993.31226
    }
  },
  "{\"x\":\"f32[16384,4096]\",\"labels\":\"i32[16384]\",\"w\":\"bf16[4096,151936]\",\"reduction\":\"sum\",\"return_residuals\":true}": {
    "{}": {
      "compile_time_ms": 226.58451300003435,
      "lower_time_ms": 13.341173000071649,
      "evaluation_times_ms": [
        67.026804,
        65.70657800000001,
        65.80395299999999,
        67.307911,
        64.89548
      ],
      "metadata": {},
      "peak_memory_mb": 13993.377812
    }
  },
  "{\"x\":\"bf16[32768,4096]\",\"labels\":\"i32[32768]\",\"w\":\"bf16[4096,151936]\",\"reduction\":\"mean\",\"return_residuals\":false}": {
    "{}": {
      "compile_time_ms": 13958.618461000015,
      "lower_time_ms": 23.053033999985928,
      "evaluation_times_ms": [
        67.836022,
        67.177945,
        66.995867,
        65.529409,
        68.260916
      ],
      "metadata": {},
      "peak_memory_mb": 11518.738436
    }
  },
  "{\"x\":\"bf16[32768,4096]\",\"labels\":\"i32[32768]\",\"w\":\"bf16[4096,151936]\",\"reduction\":\"mean\",\"return_residuals\":true}": {
    "{}": {
      "compile_time_ms": 421.2881049998032,
      "lower_time_ms": 13.532727999972849,
      "evaluation_times_ms": [
        70.50933400000001,
        69.877081,
        69.140989,
        68.940766,
        69.524251
      ],
      "metadata": {},
      "peak_memory_mb": 11566.907412
    }
  },
  "{\"x\":\"f32[32768,4096]\",\"labels\":\"i32[32768]\",\"w\":\"bf16[4096,151936]\",\"reduction\":\"mean\",\"return_residuals\":false}": {
    "{}": {
      "compile_time_ms": 369.25113400002374,
      "lower_time_ms": 21.683477999886236,
      "evaluation_times_ms": [
        130.532061,
        133.00571100000002,
        132.355841,
        140.568116,
        133.286844
      ],
      "metadata": {},
      "peak_memory_mb": 24219.090948
    }
  },
  "{\"x\":\"f32[32768,4096]\",\"labels\":\"i32[32768]\",\"w\":\"bf16[4096,151936]\",\"reduction\":\"mean\",\"return_residuals\":true}": {
    "{}": {
      "compile_time_ms": 288.34470799984047,
      "lower_time_ms": 12.61759399994844,
      "evaluation_times_ms": [
        132.221497,
        130.764769,
        133.30584299999998,
        142.356097,
        132.342072
      ],
      "metadata": {},
      "peak_memory_mb": 24219.222036
    }
  },
  "{\"x\":\"bf16[32768,4096]\",\"labels\":\"i32[32768]\",\"w\":\"bf16[4096,151936]\",\"reduction\":\"sum\",\"return_residuals\":false}": {
    "{}": {
      "compile_time_ms": 183.8757689997692,
      "lower_time_ms": 14.824586000031559,
      "evaluation_times_ms": [
        66.930998,
        65.946364,
        66.485432,
        67.30046800000001,
        67.02107699999999
      ],
      "metadata": {},
      "peak_memory_mb": 11518.738436
    }
  },
  "{\"x\":\"bf16[32768,4096]\",\"labels\":\"i32[32768]\",\"w\":\"bf16[4096,151936]\",\"reduction\":\"sum\",\"return_residuals\":true}": {
    "{}": {
      "compile_time_ms": 223.47250700022414,
      "lower_time_ms": 13.53352200021618,
      "evaluation_times_ms": [
        66.814257,
        68.812869,
        70.010621,
        68.12749699999999,
        69.00447
      ],
      "metadata": {},
      "peak_memory_mb": 11566.907412
    }
  },
  "{\"x\":\"f32[32768,4096]\",\"labels\":\"i32[32768]\",\"w\":\"bf16[4096,151936]\",\"reduction\":\"sum\",\"return_residuals\":false}": {
    "{}": {
      "compile_time_ms": 189.87013100013428,
      "lower_time_ms": 14.09701300008237,
      "evaluation_times_ms": [
        132.76385299999998,
        131.434103,
        130.583567,
        140.42913,
        133.288988
      ],
      "metadata": {},
      "peak_memory_mb": 24219.090948
    }
  },
  "{\"x\":\"bf16[16384,2880]\",\"labels\":\"i32[16384]\",\"w\":\"bf16[2880,201088]\",\"reduction\":\"sum\",\"return_residuals\":false}": {},
  "{\"x\":\"bf16[16384,2880]\",\"labels\":\"i32[16384]\",\"w\":\"bf16[2880,201088]\",\"reduction\":\"sum\",\"return_residuals\":true}": {},
  "{\"x\":\"f32[16384,2880]\",\"labels\":\"i32[16384]\",\"w\":\"bf16[2880,201088]\",\"reduction\":\"sum\",\"return_residuals\":false}": {},
  "{\"x\":\"f32[16384,2880]\",\"labels\":\"i32[16384]\",\"w\":\"bf16[2880,201088]\",\"reduction\":\"sum\",\"return_residuals\":true}": {},
  "{\"x\":\"bf16[32768,2880]\",\"labels\":\"i32[32768]\",\"w\":\"bf16[2880,201088]\",\"reduction\":\"mean\",\"return_residuals\":false}": {},
  "{\"x\":\"bf16[32768,2880]\",\"labels\":\"i32[32768]\",\"w\":\"bf16[2880,201088]\",\"reduction\":\"mean\",\"return_residuals\":true}": {},
  "{\"x\":\"f32[32768,2880]\",\"labels\":\"i32[32768]\",\"w\":\"bf16[2880,201088]\",\"reduction\":\"mean\",\"return_residuals\":false}": {},
  "{\"x\":\"bf16[1024,5120]\",\"labels\":\"i32[1024]\",\"w\":\"bf16[5120,151936]\",\"reduction\":\"mean\",\"return_residuals\":true}": {
    "{}": {
      "compile_time_ms": 1427.5208750041202,
      "lower_time_ms": 27.553269057534635,
      "evaluation_times_ms": [
        2.359269,
        2.363492,
        2.364868,
        2.361285,
        2.362629
      ],
      "metadata": {},
      "peak_memory_mb": 1911.035924
    }
  },
  "{\"x\":\"f32[1024,5120]\",\"labels\":\"i32[1024]\",\"w\":\"bf16[5120,151936]\",\"reduction\":\"mean\",\"return_residuals\":false}": {
    "{}": {
      "compile_time_ms": 2071.57706504222,
      "lower_time_ms": 20.51601803395897,
      "evaluation_times_ms": [
        5.8915630000000005,
        5.909642,
        5.915467,
        5.900202,
        5.90337
      ],
      "metadata": {},
      "peak_memory_mb": 5344.333828
    }
  },
  "{\"x\":\"f32[1024,5120]\",\"labels\":\"i32[1024]\",\"w\":\"bf16[5120,151936]\",\"reduction\":\"mean\",\"return_residuals\":true}": {
    "{}": {
      "compile_time_ms": 306.9740319624543,
      "lower_time_ms": 11.311240959912539,
      "evaluation_times_ms": [
        5.92737,
        5.9360100000000005,
        5.945289,
        5.940778,
        5.935498
      ],
      "metadata": {},
      "peak_memory_mb": 5344.33794
    }
  },
  "{\"x\":\"bf16[1024,5120]\",\"labels\":\"i32[1024]\",\"w\":\"bf16[5120,151936]\",\"reduction\":\"sum\",\"return_residuals\":false}": {
    "{}": {
      "compile_time_ms": 186.87820492777973,
      "lower_time_ms": 13.201349996961653,
      "evaluation_times_ms": [
        2.2680029999999998,
        2.271011,
        2.2697309999999997,
        2.271459,
        2.274179
      ],
      "metadata": {},
      "peak_memory_mb": 1911.03386
    }
  },
  "{\"x\":\"bf16[1024,5120]\",\"labels\":\"i32[1024]\",\"w\":\"bf16[5120,151936]\",\"reduction\":\"sum\",\"return_residuals\":true}": {
    "{}": {
      "compile_time_ms": 198.8696310436353,
      "lower_time_ms": 12.34086707700044,
      "evaluation_times_ms": [
        2.344451,
        2.345923,
        2.356578,
        2.3523870000000002,
        2.354851
      ],
      "metadata": {},
      "peak_memory_mb": 1911.035924
    }
  },
  "{\"x\":\"f32[1024,5120]\",\"labels\":\"i32[1024]\",\"w\":\"bf16[5120,151936]\",\"reduction\":\"sum\",\"return_residuals\":false}": {
    "{}": {
      "compile_time_ms": 171.73073801677674,
      "lower_time_ms": 12.838915921747684,
      "evaluation_times_ms": [
        5.880229,
        5.887044,
        5.889221,
        5.884357,
        5.879844
      ],
      "metadata": {},
      "peak_memory_mb": 5344.333828
    }
  },
  "{\"x\":\"f32[1024,5120]\",\"labels\":\"i32[1024]\",\"w\":\"bf16[5120,151936]\",\"reduction\":\"sum\",\"return_residuals\":true}": {
    "{}": {
      "compile_time_ms": 206.56305504962802,
      "lower_time_ms": 11.169276083819568,
      "evaluation_times_ms": [
        5.924259,
        5.933892,
        5.931779,
        5.928611,
        5.92314
      ],
      "metadata": {},
      "peak_memory_mb": 5344.33794
    }
  },
  "{\"x\":\"bf16[2048,5120]\",\"labels\":\"i32[2048]\",\"w\":\"bf16[5120,151936]\",\"reduction\":\"mean\",\"return_residuals\":false}": {
    "{}": {
      "compile_time_ms": 1480.685175047256,
      "lower_time_ms": 21.036076941527426,
      "evaluation_times_ms": [
        4.509825,
        4.522849,
        4.551042,
        4.559201,
        4.543553
      ],
      "metadata": {},
      "peak_memory_mb": 2232.688644
    }
  },
  "{\"x\":\"bf16[2048,5120]\",\"labels\":\"i32[2048]\",\"w\":\"bf16[5120,151936]\",\"reduction\":\"mean\",\"return_residuals\":true}": {
    "{}": {
      "compile_time_ms": 265.25885495357215,
      "lower_time_ms": 12.691123993135989,
      "evaluation_times_ms": [
        4.677377,
        4.676385,
        4.689985,
        4.732417,
        4.737665
      ],
      "metadata": {},
      "peak_memory_mb": 2232.692756
    }
  },
  "{\"x\":\"f32[2048,5120]\",\"labels\":\"i32[2048]\",\"w\":\"bf16[5120,151936]\",\"reduction\":\"mean\",\"return_residuals\":false}": {
    "{}": {
      "compile_time_ms": 2645.1783870579675,
      "lower_time_ms": 19.669384928420186,
      "evaluation_times_ms": [
        10.31901,
        10.397633,
        10.420736999999999,
        10.650081,
        10.615297
      ],
      "metadata": {},
      "peak_memory_mb": 5987.6393
    }
  },
  "{\"x\":\"f32[2048,5120]\",\"labels\":\"i32[2048]\",\"w\":\"bf16[5120,151936]\",\"reduction\":\"mean\",\"return_residuals\":true}": {
    "{}": {
      "compile_time_ms": 274.66604800429195,
      "lower_time_ms": 11.279285070486367,
      "evaluation_times_ms": [
        10.452608999999999,
        10.312929,
        10.275938,
        10.369057,
        10.369794
      ],
      "metadata": {},
      "peak_memory_mb": 5987.647508
    }
  },
  "{\"x\":\"bf16[2048,5120]\",\"labels\":\"i32[2048]\",\"w\":\"bf16[5120,151936]\",\"reduction\":\"sum\",\"return_residuals\":false}": {
    "{}": {
      "compile_time_ms": 164.95050000958145,
      "lower_time_ms": 13.082018005661666,
      "evaluation_times_ms": [
        4.521185,
        4.526689,
        4.531073,
        4.550208,
        4.53936
      ],
      "metadata": {},
      "peak_memory_mb": 2232.688644
    }
  },
  "{\"x\":\"bf16[2048,5120]\",\"labels\":\"i32[2048]\",\"w\":\"bf16[5120,151936]\",\"reduction\":\"sum\",\"return_residuals\":true}": {
    "{}": {
      "compile_time_ms": 210.77898098155856,
      "lower_time_ms": 12.301689013838768,
      "evaluation_times_ms": [
        4.676704,
        4.691776,
        4.692672,
        4.746111,
        4.760352
      ],
      "metadata": {},
      "peak_memory_mb": 2232.692756
    }
  },
  "{\"x\":\"f32[2048,5120]\",\"labels\":\"i32[2048]\",\"w\":\"bf16[5120,151936]\",\"reduction\":\"sum\",\"return_residuals\":false}": {},
  "{\"x\":\"f32[2048,5120]\",\"labels\":\"i32[2048]\",\"w\":\"bf16[5120,151936]\",\"reduction\":\"sum\",\"return_residuals\":true}": {
    "{}": {
      "compile_time_ms": 3151.603482999917,
      "lower_time_ms": 30.519544999947357,
      "evaluation_times_ms": [
        10.577145999999999,
        10.563866,
        10.587194,
        10.567067,
        10.567547
      ],
      "metadata": {},
      "peak_memory_mb": 5987.647508
    }
  },
  "{\"x\":\"bf16[4096,5120]\",\"labels\":\"i32[4096]\",\"w\":\"bf16[5120,151936]\",\"reduction\":\"mean\",\"return_residuals\":false}": {
    "{}": {
      "compile_time_ms": 2451.935904000038,
      "lower_time_ms": 23.213713000018288,
      "evaluation_times_ms": [
        9.084181,
        9.138614,
        9.15167,
        9.255476999999999,
        10.070837000000001
      ],
      "metadata": {},
      "peak_memory_mb": 2875.998212
    }
  },
  "{\"x\":\"bf16[4096,5120]\",\"labels\":\"i32[4096]\",\"w\":\"bf16[5120,151936]\",\"reduction\":\"mean\",\"return_residuals\":true}": {
    "{}": {
      "compile_time_ms": 410.7624210000722,
      "lower_time_ms": 12.86047899998266,
      "evaluation_times_ms": [
        9.409936,
        9.55096,
        9.55336,
        10.333551,
        10.197007
      ],
      "metadata": {},
      "peak_memory_mb": 2876.00642
    }
  },
  "{\"x\":\"f32[4096,5120]\",\"labels\":\"i32[4096]\",\"w\":\"bf16[5120,151936]\",\"reduction\":\"mean\",\"return_residuals\":false}": {
    "{}": {
      "compile_time_ms": 4433.178756000075,
      "lower_time_ms": 20.514603000037823,
      "evaluation_times_ms": [
        19.723826,
        21.080783,
        21.076623,
        20.946447,
        20.85547
      ],
      "metadata": {},
      "peak_memory_mb": 7274.250244
    }
  },
  "{\"x\":\"f32[4096,5120]\",\"labels\":\"i32[4096]\",\"w\":\"bf16[5120,151936]\",\"reduction\":\"mean\",\"return_residuals\":true}": {
    "{}": {
      "compile_time_ms": 411.05107800001406,
      "lower_time_ms": 11.857641999995394,
      "evaluation_times_ms": [
        19.746415,
        20.267597000000002,
        20.500684999999997,
        20.572141,
        20.143693
      ],
      "metadata": {},
      "peak_memory_mb": 7274.266644
    }
  },
  "{\"x\":\"bf16[4096,5120]\",\"labels\":\"i32[4096]\",\"w\":\"bf16[5120,151936]\",\"reduction\":\"sum\",\"return_residuals\":false}": {
    "{}": {
      "compile_time_ms": 171.6984820000107,
      "lower_time_ms": 13.78389799992874,
      "evaluation_times_ms": [
        9.071366000000001,
        9.202660999999999,
        9.696771,
        10.199651,
        10.253122
      ],
      "metadata": {},
      "peak_memory_mb": 2875.998212
    }
  },
  "{\"x\":\"bf16[4096,5120]\",\"labels\":\"i32[4096]\",\"w\":\"bf16[5120,151936]\",\"reduction\":\"sum\",\"return_residuals\":true}": {
    "{}": {
      "compile_time_ms": 208.69274400001814,
      "lower_time_ms": 12.802799000041887,
      "evaluation_times_ms": [
        9.423969999999999,
        9.569282,
        9.835072,
        10.010048000000001,
        10.260703
      ],
      "metadata": {},
      "peak_memory_mb": 2876.00642
    }
  },
  "{\"x\":\"f32[4096,5120]\",\"labels\":\"i32[4096]\",\"w\":\"bf16[5120,151936]\",\"reduction\":\"sum\",\"return_residuals\":false}": {
    "{}": {
      "compile_time_ms": 180.46819299991057,
      "lower_time_ms": 13.175430000046617,
      "evaluation_times_ms": [
        19.572538,
        20.081145,
        20.761206,
        20.841782,
        20.561559000000003
      ],
      "metadata": {},
      "peak_memory_mb": 7274.250244
    }
  },
  "{\"x\":\"f32[4096,5120]\",\"labels\":\"i32[4096]\",\"w\":\"bf16[5120,151936]\",\"reduction\":\"sum\",\"return_residuals\":true}": {
    "{}": {
      "compile_time_ms": 215.94043899995086,
      "lower_time_ms": 11.826874999997017,
      "evaluation_times_ms": [
        19.773238,
        19.90863,
        20.290485,
        21.074833,
        21.462671999999998
      ],
      "metadata": {},
      "peak_memory_mb": 7274.266644
    }
  },
  "{\"x\":\"bf16[8192,5120]\",\"labels\":\"i32[8192]\",\"w\":\"bf16[5120,151936]\",\"reduction\":\"mean\",\"return_residuals\":false}": {
    "{}": {
      "compile_time_ms": 4513.4879899999305,
      "lower_time_ms": 21.865112999989833,
      "evaluation_times_ms": [
        18.340794,
        20.691698000000002,
        20.392498,
        20.751153000000002,
        20.612657
      ],
      "metadata": {},
      "peak_memory_mb": 4162.617348
    }
  },
  "{\"x\":\"bf16[8192,5120]\",\"labels\":\"i32[8192]\",\"w\":\"bf16[5120,151936]\",\"reduction\":\"mean\",\"return_residuals\":true}": {
    "{}": {
      "compile_time_ms": 394.0217910000001,
      "lower_time_ms": 13.09775099991839,
      "evaluation_times_ms": [
        18.950131000000003,
        20.222479,
        20.223022,
        19.944239,
        20.539821
      ],
      "metadata": {},
      "peak_memory_mb": 4162.633748
    }
  },
  "{\"x\":\"f32[8192,5120]\",\"labels\":\"i32[8192]\",\"w\":\"bf16[5120,151936]\",\"reduction\":\"mean\",\"return_residuals\":false}": {
    "{}": {
      "compile_time_ms": 465.66342299996677,
      "lower_time_ms": 30.5110529999979,
      "evaluation_times_ms": [
        38.654718,
        40.282584,
        40.333143,
        41.850003,
        40.882037
      ],
      "metadata": {},
      "peak_memory_mb": 9847.472132
    }
  },
  "{\"x\":\"f32[8192,5120]\",\"labels\":\"i32[8192]\",\"w\":\"bf16[5120,151936]\",\"reduction\":\"mean\",\"return_residuals\":true}": {},
  "{\"x\":\"bf16[8192,5120]\",\"labels\":\"i32[8192]\",\"w\":\"bf16[5120,151936]\",\"reduction\":\"sum\",\"return_residuals\":false}": {
    "{}": {
      "compile_time_ms": 677.8835619998063,
      "lower_time_ms": 22.01843100010592,
      "evaluation_times_ms": [
        18.532987,
        18.648251,
        20.525037,
        20.361710000000002,
        19.856882
      ],
      "metadata": {},
      "peak_memory_mb": 4162.617348
    }
  },
  "{\"x\":\"bf16[8192,5120]\",\"labels\":\"i32[8192]\",\"w\":\"bf16[5120,151936]\",\"reduction\":\"sum\",\"return_residuals\":true}": {
    "{}": {
      "compile_time_ms": 280.4316020001352,
      "lower_time_ms": 12.924031999318686,
      "evaluation_times_ms": [
        19.175704,
        20.917483,
        20.673676999999998,
        21.241929000000003,
        20.787404
      ],
      "metadata": {},
      "peak_memory_mb": 4162.633748
    }
  },
  "{\"x\":\"f32[8192,5120]\",\"labels\":\"i32[8192]\",\"w\":\"bf16[5120,151936]\",\"reduction\":\"sum\",\"return_residuals\":false}": {},
  "{\"x\":\"f32[32768,4096]\",\"labels\":\"i32[32768]\",\"w\":\"bf16[4096,151936]\",\"reduction\":\"sum\",\"return_residuals\":true}": {
    "{}": {
      "compile_time_ms": 22479.297549999956,
      "lower_time_ms": 26.18874199970378,
      "evaluation_times_ms": [
        128.796765,
        134.320471,
        131.397352,
        142.223644,
        133.158898
      ],
      "metadata": {},
      "peak_memory_mb": 24219.222036
    }
  },
  "{\"x\":\"bf16[131072,4096]\",\"labels\":\"i32[131072]\",\"w\":\"bf16[4096,151936]\",\"reduction\":\"mean\",\"return_residuals\":false}": {},
  "{\"x\":\"bf16[131072,4096]\",\"labels\":\"i32[131072]\",\"w\":\"bf16[4096,151936]\",\"reduction\":\"mean\",\"return_residuals\":true}": {},
  "{\"x\":\"f32[131072,4096]\",\"labels\":\"i32[131072]\",\"w\":\"bf16[4096,151936]\",\"reduction\":\"mean\",\"return_residuals\":false}": {},
  "{\"x\":\"f32[131072,4096]\",\"labels\":\"i32[131072]\",\"w\":\"bf16[4096,151936]\",\"reduction\":\"mean\",\"return_residuals\":true}": {},
  "{\"x\":\"bf16[131072,4096]\",\"labels\":\"i32[131072]\",\"w\":\"bf16[4096,151936]\",\"reduction\":\"sum\",\"return_residuals\":false}": {},
  "{\"x\":\"bf16[131072,4096]\",\"labels\":\"i32[131072]\",\"w\":\"bf16[4096,151936]\",\"reduction\":\"sum\",\"return_residuals\":true}": {},
  "{\"x\":\"f32[131072,4096]\",\"labels\":\"i32[131072]\",\"w\":\"bf16[4096,151936]\",\"reduction\":\"sum\",\"return_residuals\":false}": {},
  "{\"x\":\"f32[131072,4096]\",\"labels\":\"i32[131072]\",\"w\":\"bf16[4096,151936]\",\"reduction\":\"sum\",\"return_residuals\":true}": {},
  "{\"x\":\"bf16[1024,2560]\",\"labels\":\"i32[1024]\",\"w\":\"bf16[2560,262144]\",\"reduction\":\"mean\",\"return_residuals\":false}": {
    "{}": {
      "compile_time_ms": 445.03297099981864,
      "lower_time_ms": 22.82442900013848,
      "evaluation_times_ms": [
        2.249218,
        2.25405,
        2.248707,
        2.250242,
        2.250307
      ],
      "metadata": {},
      "peak_memory_mb": 1917.849604
    }
  },
  "{\"x\":\"bf16[1024,2560]\",\"labels\":\"i32[1024]\",\"w\":\"bf16[2560,262144]\",\"reduction\":\"mean\",\"return_residuals\":true}": {
    "{}": {
      "compile_time_ms": 251.75476000003982,
      "lower_time_ms": 12.097485999674973,
      "evaluation_times_ms": [
        2.363938,
        2.3616349999999997,
        2.372483,
        2.370434,
        2.371267
      ],
      "metadata": {},
      "peak_memory_mb": 1917.851668
    }
  },
  "{\"x\":\"f32[1024,2560]\",\"labels\":\"i32[1024]\",\"w\":\"bf16[2560,262144]\",\"reduction\":\"mean\",\"return_residuals\":false}": {
    "{}": {
      "compile_time_ms": 364.8753959996611,
      "lower_time_ms": 20.11631799996394,
      "evaluation_times_ms": [
        6.09767,
        6.106085,
        6.101766,
        6.140581,
        6.091685
      ],
      "metadata": {},
      "peak_memory_mb": 5144.317956
    }
  },
  "{\"x\":\"f32[1024,2560]\",\"labels\":\"i32[1024]\",\"w\":\"bf16[2560,262144]\",\"reduction\":\"mean\",\"return_residuals\":true}": {
    "{}": {
      "compile_time_ms": 250.69852099977652,
      "lower_time_ms": 11.810083000000304,
      "evaluation_times_ms": [
        6.142245,
        6.121702,
        6.109894,
        6.104613,
        6.119654
      ],
      "metadata": {},
      "peak_memory_mb": 5144.322068
    }
  },
  "{\"x\":\"bf16[1024,2560]\",\"labels\":\"i32[1024]\",\"w\":\"bf16[2560,262144]\",\"reduction\":\"sum\",\"return_residuals\":false}": {
    "{}": {
      "compile_time_ms": 1378.34795699996,
      "lower_time_ms": 29.764756000076886,
      "evaluation_times_ms": [
        2.233912,
        2.2341990000000003,
        2.231159,
        2.241208,
        2.230743
      ],
      "metadata": {},
      "peak_memory_mb": 1917.849604
    }
  },
  "{\"x\":\"bf16[1024,2560]\",\"labels\":\"i32[1024]\",\"w\":\"bf16[2560,262144]\",\"reduction\":\"sum\",\"return_residuals\":true}": {
    "{}": {
      "compile_time_ms": 353.32320800011985,
      "lower_time_ms": 13.84791700002097,
      "evaluation_times_ms": [
        2.351832,
        2.347384,
        2.362104,
        2.351672,
        2.347255
      ],
      "metadata": {},
      "peak_memory_mb": 1917.851668
    }
  },
  "{\"x\":\"f32[1024,2560]\",\"labels\":\"i32[1024]\",\"w\":\"bf16[2560,262144]\",\"reduction\":\"sum\",\"return_residuals\":false}": {
    "{}": {
      "compile_time_ms": 1950.613364999981,
      "lower_time_ms": 21.0614610000448,
      "evaluation_times_ms": [
        6.116234,
        6.166442,
        6.116874,
        6.117098,
        6.098666
      ],
      "metadata": {},
      "peak_memory_mb": 5144.317956
    }
  },
  "{\"x\":\"f32[1024,2560]\",\"labels\":\"i32[1024]\",\"w\":\"bf16[2560,262144]\",\"reduction\":\"sum\",\"return_residuals\":true}": {
    "{}": {
      "compile_time_ms": 366.94746400007716,
      "lower_time_ms": 12.319809000018722,
      "evaluation_times_ms": [
        6.124555,
        6.139786,
        6.093323,
        6.072747,
        6.135499
      ],
      "metadata": {},
      "peak_memory_mb": 5144.322068
    }
  },
  "{\"x\":\"bf16[2048,2560]\",\"labels\":\"i32[2048]\",\"w\":\"bf16[2560,262144]\",\"reduction\":\"mean\",\"return_residuals\":false}": {
    "{}": {
      "compile_time_ms": 1478.5930259999986,
      "lower_time_ms": 23.069946999839885,
      "evaluation_times_ms": [
        4.331282,
        4.326161,
        4.339857,
        4.335024,
        4.347761
      ],
      "metadata": {},
      "peak_memory_mb": 2459.967492
    }
  },
  "{\"x\":\"bf16[2048,2560]\",\"labels\":\"i32[2048]\",\"w\":\"bf16[2560,262144]\",\"reduction\":\"mean\",\"return_residuals\":true}": {
    "{}": {
      "compile_time_ms": 229.27896500004863,
      "lower_time_ms": 12.86595400006263,
      "evaluation_times_ms": [
        4.561489,
        4.56184,
        4.558609,
        4.583888,
        4.595088
      ],
      "metadata": {},
      "peak_memory_mb": 2459.971604
    }
  },
  "{\"x\":\"f32[2048,2560]\",\"labels\":\"i32[2048]\",\"w\":\"bf16[2560,262144]\",\"reduction\":\"mean\",\"return_residuals\":false}": {
    "{}": {
      "compile_time_ms": 2529.8939399999654,
      "lower_time_ms": 21.043639000026815,
      "evaluation_times_ms": [
        10.951868,
        10.808476,
        10.837723,
        10.888667,
        11.260091
      ],
      "metadata": {},
      "peak_memory_mb": 6228.549636
    }
  },
  "{\"x\":\"f32[2048,2560]\",\"labels\":\"i32[2048]\",\"w\":\"bf16[2560,262144]\",\"reduction\":\"mean\",\"return_residuals\":true}": {
    "{}": {
      "compile_time_ms": 226.64542699999402,
      "lower_time_ms": 12.26508200011267,
      "evaluation_times_ms": [
        10.975164,
        10.91926,
        10.843836,
        11.122844,
        10.935068
      ],
      "metadata": {},
      "peak_memory_mb": 6228.557844
    }
  },
  "{\"x\":\"bf16[2048,2560]\",\"labels\":\"i32[2048]\",\"w\":\"bf16[2560,262144]\",\"reduction\":\"sum\",\"return_residuals\":false}": {
    "{}": {
      "compile_time_ms": 141.91433700011657,
      "lower_time_ms": 15.15159600012339,
      "evaluation_times_ms": [
        4.34757,
        4.334322,
        4.329906,
        4.340498,
        4.3353779999999995
      ],
      "metadata": {},
      "peak_memory_mb": 2459.967492
    }
  },
  "{\"x\":\"bf16[2048,2560]\",\"labels\":\"i32[2048]\",\"w\":\"bf16[2560,262144]\",\"reduction\":\"sum\",\"return_residuals\":true}": {
    "{}": {
      "compile_time_ms": 177.8224780000528,
      "lower_time_ms": 12.657095999884405,
      "evaluation_times_ms": [
        4.558929,
        4.560274,
        4.555954,
        4.56405,
        4.562545
      ],
      "metadata": {},
      "peak_memory_mb": 2459.971604
    }
  },
  "{\"x\":\"f32[2048,2560]\",\"labels\":\"i32[2048]\",\"w\":\"bf16[2560,262144]\",\"reduction\":\"sum\",\"return_residuals\":false}": {
    "{}": {
      "compile_time_ms": 148.67265900011262,
      "lower_time_ms": 13.795101999903636,
      "evaluation_times_ms": [
        10.916317,
        10.922589,
        10.936125,
        11.011388,
        10.981342
      ],
      "metadata": {},
      "peak_memory_mb": 6228.549636
    }
  },
  "{\"x\":\"f32[2048,2560]\",\"labels\":\"i32[2048]\",\"w\":\"bf16[2560,262144]\",\"reduction\":\"sum\",\"return_residuals\":true}": {
    "{}": {
      "compile_time_ms": 176.33852800008754,
      "lower_time_ms": 12.599646999888137,
      "evaluation_times_ms": [
        10.967549,
        10.868669,
        11.000446,
        11.104733,
        11.083549
      ],
      "metadata": {},
      "peak_memory_mb": 6228.557844
    }
  },
  "{\"x\":\"bf16[4096,2560]\",\"labels\":\"i32[4096]\",\"w\":\"bf16[2560,262144]\",\"reduction\":\"mean\",\"return_residuals\":false}": {
    "{}": {
      "compile_time_ms": 2005.7813979999537,
      "lower_time_ms": 22.379645999990316,
      "evaluation_times_ms": [
        8.92874,
        8.940484,
        8.943684,
        9.034148,
        9.303459
      ],
      "metadata": {},
      "peak_memory_mb": 3544.203268
    }
  },
  "{\"x\":\"bf16[4096,2560]\",\"labels\":\"i32[4096]\",\"w\":\"bf16[2560,262144]\",\"reduction\":\"mean\",\"return_residuals\":true}": {
    "{}": {
      "compile_time_ms": 2194.9086659997192,
      "lower_time_ms": 31.122103000143397,
      "evaluation_times_ms": [
        9.418769,
        9.48629,
        9.546897,
        9.546609,
        9.780688
      ],
      "metadata": {},
      "peak_memory_mb": 3544.211476
    }
  },
  "{\"x\":\"f32[4096,2560]\",\"labels\":\"i32[4096]\",\"w\":\"bf16[2560,262144]\",\"reduction\":\"mean\",\"return_residuals\":false}": {
    "{}": {
      "compile_time_ms": 4132.124637000288,
      "lower_time_ms": 23.149439999997412,
      "evaluation_times_ms": [
        20.744825,
        20.848824,
        21.603195,
        22.739771,
        21.965306
      ],
      "metadata": {},
      "peak_memory_mb": 8397.012996
    }
  },
  "{\"x\":\"f32[4096,2560]\",\"labels\":\"i32[4096]\",\"w\":\"bf16[2560,262144]\",\"reduction\":\"mean\",\"return_residuals\":true}": {
    "{}": {
      "compile_time_ms": 375.154276000103,
      "lower_time_ms": 12.703077999958623,
      "evaluation_times_ms": [
        20.715853,
        20.825964000000003,
        21.287631,
        22.746836000000002,
        22.270739
      ],
      "metadata": {},
      "peak_memory_mb": 8397.029396
    }
  },
  "{\"x\":\"bf16[4096,2560]\",\"labels\":\"i32[4096]\",\"w\":\"bf16[2560,262144]\",\"reduction\":\"sum\",\"return_residuals\":false}": {
    "{}": {
      "compile_time_ms": 325.33516100011184,
      "lower_time_ms": 15.086053000231914,
      "evaluation_times_ms": [
        8.959703,
        8.967927,
        8.991734,
        9.449145,
        9.461081
      ],
      "metadata": {},
      "peak_memory_mb": 3544.203268
    }
  },
  "{\"x\":\"bf16[4096,2560]\",\"labels\":\"i32[4096]\",\"w\":\"bf16[2560,262144]\",\"reduction\":\"sum\",\"return_residuals\":true}": {
    "{}": {
      "compile_time_ms": 192.63321300013558,
      "lower_time_ms": 829.3930370000453,
      "evaluation_times_ms": [
        9.407407,
        9.420175,
        9.533199999999999,
        9.537681,
        10.146486
      ],
      "metadata": {},
      "peak_memory_mb": 3544.211476
    }
  },
  "{\"x\":\"f32[4096,2560]\",\"labels\":\"i32[4096]\",\"w\":\"bf16[2560,262144]\",\"reduction\":\"sum\",\"return_residuals\":false}": {
    "{}": {
      "compile_time_ms": 165.83192200005215,
      "lower_time_ms": 14.430806999826018,
      "evaluation_times_ms": [
        20.748077,
        21.312564,
        21.33762,
        22.280191000000002,
        22.311583
      ],
      "metadata": {},
      "peak_memory_mb": 8397.012996
    }
  },
  "{\"x\":\"f32[4096,2560]\",\"labels\":\"i32[4096]\",\"w\":\"bf16[2560,262144]\",\"reduction\":\"sum\",\"return_residuals\":true}": {
    "{}": {
      "compile_time_ms": 198.81712500000503,
      "lower_time_ms": 12.635707999834267,
      "evaluation_times_ms": [
        20.725439,
        20.771904,
        22.568023999999998,
        22.209524000000002,
        21.79339
      ],
      "metadata": {},
      "peak_memory_mb": 8397.029396
    }
  },
  "{\"x\":\"bf16[16384,2560]\",\"labels\":\"i32[16384]\",\"w\":\"bf16[2560,262144]\",\"reduction\":\"mean\",\"return_residuals\":false}": {
    "{}": {
      "compile_time_ms": 7399.875642000097,
      "lower_time_ms": 23.14496999997573,
      "evaluation_times_ms": [
        34.92646,
        38.061777,
        38.038641,
        39.187844999999996,
        39.201572999999996
      ],
      "metadata": {},
      "peak_memory_mb": 10049.68346
    }
  },
  "{\"x\":\"bf16[16384,2560]\",\"labels\":\"i32[16384]\",\"w\":\"bf16[2560,262144]\",\"reduction\":\"mean\",\"return_residuals\":true}": {
    "{}": {
      "compile_time_ms": 367.31508999992,
      "lower_time_ms": 14.051687000119273,
      "evaluation_times_ms": [
        37.357729,
        40.619909,
        40.00732,
        38.645468,
        40.40736
      ],
      "metadata": {},
      "peak_memory_mb": 10083.270676
    }
  },
  "{\"x\":\"f32[16384,2560]\",\"labels\":\"i32[16384]\",\"w\":\"bf16[2560,262144]\",\"reduction\":\"mean\",\"return_residuals\":false}": {
    "{}": {
      "compile_time_ms": 12703.645966000295,
      "lower_time_ms": 21.240084000055504,
      "evaluation_times_ms": [
        86.401392,
        86.40692899999999,
        85.565147,
        85.92368300000001,
        90.503674
      ],
      "metadata": {},
      "peak_memory_mb": 21407.793156
    }
  },
  "{\"x\":\"f32[16384,2560]\",\"labels\":\"i32[16384]\",\"w\":\"bf16[2560,262144]\",\"reduction\":\"mean\",\"return_residuals\":true}": {
    "{}": {
      "compile_time_ms": 404.18712000018786,
      "lower_time_ms": 12.580131000049732,
      "evaluation_times_ms": [
        85.35596299999999,
        85.670917,
        84.22569299999999,
        86.869143,
        90.78455
      ],
      "metadata": {},
      "peak_memory_mb": 21407.858708
    }
  },
  "{\"x\":\"bf16[16384,2560]\",\"labels\":\"i32[16384]\",\"w\":\"bf16[2560,262144]\",\"reduction\":\"sum\",\"return_residuals\":false}": {
    "{}": {
      "compile_time_ms": 161.67866699970546,
      "lower_time_ms": 14.90645100011534,
      "evaluation_times_ms": [
        37.229483,
        38.756345,
        38.441615,
        38.112932,
        37.992417
      ],
      "metadata": {},
      "peak_memory_mb": 10049.68346
    }
  },
  "{\"x\":\"bf16[16384,2560]\",\"labels\":\"i32[16384]\",\"w\":\"bf16[2560,262144]\",\"reduction\":\"sum\",\"return_residuals\":true}": {
    "{}": {
      "compile_time_ms": 666.6229539999904,
      "lower_time_ms": 28.272199000014098,
      "evaluation_times_ms": [
        39.555147,
        39.730577,
        40.173744,
        39.868111,
        40.801944
      ],
      "metadata": {},
      "peak_memory_mb": 10083.270676
    }
  },
  "{\"x\":\"f32[16384,2560]\",\"labels\":\"i32[16384]\",\"w\":\"bf16[2560,262144]\",\"reduction\":\"sum\",\"return_residuals\":false}": {
    "{}": {
      "compile_time_ms": 514.2761929996595,
      "lower_time_ms": 27.577231000122993,
      "evaluation_times_ms": [
        84.350605,
        84.345325,
        84.087182,
        84.238573,
        86.972523
      ],
      "metadata": {},
      "peak_memory_mb": 21407.793156
    }
  },
  "{\"x\":\"f32[16384,2560]\",\"labels\":\"i32[16384]\",\"w\":\"bf16[2560,262144]\",\"reduction\":\"sum\",\"return_residuals\":true}": {
    "{}": {
      "compile_time_ms": 1247.6850879997983,
      "lower_time_ms": 13.231702000211953,
      "evaluation_times_ms": [
        85.987074,
        83.010214,
        83.87098,
        84.739779,
        86.04669
      ],
      "metadata": {},
      "peak_memory_mb": 21407.858708
    }
  },
  "{\"x\":\"bf16[32768,2560]\",\"labels\":\"i32[32768]\",\"w\":\"bf16[2560,262144]\",\"reduction\":\"mean\",\"return_residuals\":false}": {
    "{}": {
      "compile_time_ms": 508.28986199985593,
      "lower_time_ms": 23.22930499985887,
      "evaluation_times_ms": [
        75.71802100000001,
        76.676229,
        75.689733,
        77.578884,
        76.341669
      ],
      "metadata": {},
      "peak_memory_mb": 18757.189636
    }
  },
  "{\"x\":\"bf16[32768,2560]\",\"labels\":\"i32[32768]\",\"w\":\"bf16[2560,262144]\",\"reduction\":\"mean\",\"return_residuals\":true}": {
    "{}": {
      "compile_time_ms": 287.89210000013554,
      "lower_time_ms": 13.193508000313159,
      "evaluation_times_ms": [
        82.90863399999999,
        77.605632,
        81.06869999999999,
        82.88280999999999,
        80.855836
      ],
      "metadata": {},
      "peak_memory_mb": 18824.364052
    }
  },
  "{\"x\":\"f32[32768,2560]\",\"labels\":\"i32[32768]\",\"w\":\"bf16[2560,262144]\",\"reduction\":\"mean\",\"return_residuals\":false}": {},
  "{\"x\":\"f32[32768,2560]\",\"labels\":\"i32[32768]\",\"w\":\"bf16[2560,262144]\",\"reduction\":\"mean\",\"return_residuals\":true}": {},
  "{\"x\":\"bf16[32768,2560]\",\"labels\":\"i32[32768]\",\"w\":\"bf16[2560,262144]\",\"reduction\":\"sum\",\"return_residuals\":false}": {
    "{}": {
      "compile_time_ms": 441.26826199999414,
      "lower_time_ms": 21.54292099999111,
      "evaluation_times_ms": [
        74.474586,
        77.187034,
        75.558182,
        77.007789,
        75.933088
      ],
      "metadata": {},
      "peak_memory_mb": 18757.189636
    }
  },
  "{\"x\":\"bf16[32768,2560]\",\"labels\":\"i32[32768]\",\"w\":\"bf16[2560,262144]\",\"reduction\":\"sum\",\"return_residuals\":true}": {
    "{}": {
      "compile_time_ms": 249.2476560000796,
      "lower_time_ms": 13.29900800010364,
      "evaluation_times_ms": [
        79.174786,
        80.897819,
        80.907038,
        79.97886,
        84.058335
      ],
      "metadata": {},
      "peak_memory_mb": 18824.364052
    }
  },
  "{\"x\":\"f32[32768,2560]\",\"labels\":\"i32[32768]\",\"w\":\"bf16[2560,262144]\",\"reduction\":\"sum\",\"return_residuals\":false}": {},
  "{\"x\":\"f32[32768,2560]\",\"labels\":\"i32[32768]\",\"w\":\"bf16[2560,262144]\",\"reduction\":\"sum\",\"return_residuals\":true}": {},
  "{\"x\":\"bf16[131072,2560]\",\"labels\":\"i32[131072]\",\"w\":\"bf16[2560,262144]\",\"reduction\":\"mean\",\"return_residuals\":false}": {},
  "{\"x\":\"bf16[131072,2560]\",\"labels\":\"i32[131072]\",\"w\":\"bf16[2560,262144]\",\"reduction\":\"mean\",\"return_residuals\":true}": {},
  "{\"x\":\"f32[131072,2560]\",\"labels\":\"i32[131072]\",\"w\":\"bf16[2560,262144]\",\"reduction\":\"mean\",\"return_residuals\":false}": {},
  "{\"x\":\"f32[131072,2560]\",\"labels\":\"i32[131072]\",\"w\":\"bf16[2560,262144]\",\"reduction\":\"mean\",\"return_residuals\":true}": {},
  "{\"x\":\"bf16[131072,2560]\",\"labels\":\"i32[131072]\",\"w\":\"bf16[2560,262144]\",\"reduction\":\"sum\",\"return_residuals\":false}": {},
  "{\"x\":\"bf16[131072,2560]\",\"labels\":\"i32[131072]\",\"w\":\"bf16[2560,262144]\",\"reduction\":\"sum\",\"return_residuals\":true}": {},
  "{\"x\":\"f32[131072,2560]\",\"labels\":\"i32[131072]\",\"w\":\"bf16[2560,262144]\",\"reduction\":\"sum\",\"return_residuals\":false}": {},
  "{\"x\":\"f32[131072,2560]\",\"labels\":\"i32[131072]\",\"w\":\"bf16[2560,262144]\",\"reduction\":\"sum\",\"return_residuals\":true}": {},
  "{\"x\":\"bf16[1024,3840]\",\"labels\":\"i32[1024]\",\"w\":\"bf16[3840,262144]\",\"reduction\":\"mean\",\"return_residuals\":false}": {
    "{}": {
      "compile_time_ms": 1756.4758770004119,
      "lower_time_ms": 22.03161099987483,
      "evaluation_times_ms": [
        3.194343,
        3.1902470000000003,
        3.198408,
        3.202343,
        3.193576
      ],
      "metadata": {},
      "peak_memory_mb": 2560.1065
    }
  },
  "{\"x\":\"bf16[1024,3840]\",\"labels\":\"i32[1024]\",\"w\":\"bf16[3840,262144]\",\"reduction\":\"mean\",\"return_residuals\":true}": {
    "{}": {
      "compile_time_ms": 674.0414959999725,
      "lower_time_ms": 12.249110000084329,
      "evaluation_times_ms": [
        3.3711439999999997,
        3.38116,
        3.373032,
        3.361927,
        3.369704
      ],
      "metadata": {},
      "peak_memory_mb": 2560.106516
    }
  },
  "{\"x\":\"f32[1024,3840]\",\"labels\":\"i32[1024]\",\"w\":\"bf16[3840,262144]\",\"reduction\":\"mean\",\"return_residuals\":false}": {
    "{}": {
      "compile_time_ms": 2341.152535999754,
      "lower_time_ms": 20.136779000040406,
      "evaluation_times_ms": [
        7.9100660000000005,
        7.915762,
        7.918002,
        7.9020340000000004,
        7.9056500000000005
      ],
      "metadata": {},
      "peak_memory_mb": 7162.826756
    }
  },
  "{\"x\":\"f32[1024,3840]\",\"labels\":\"i32[1024]\",\"w\":\"bf16[3840,262144]\",\"reduction\":\"mean\",\"return_residuals\":true}": {
    "{}": {
      "compile_time_ms": 418.3776869999747,
      "lower_time_ms": 11.70769600003041,
      "evaluation_times_ms": [
        7.9001149999999996,
        7.90642,
        7.916467,
        7.917971,
        7.920499
      ],
      "metadata": {},
      "peak_memory_mb": 7162.830868
    }
  },
  "{\"x\":\"bf16[1024,3840]\",\"labels\":\"i32[1024]\",\"w\":\"bf16[3840,262144]\",\"reduction\":\"sum\",\"return_residuals\":false}": {
    "{}": {
      "compile_time_ms": 413.8873260003493,
      "lower_time_ms": 13.521502999992663,
      "evaluation_times_ms": [
        3.180231,
        3.18676,
        3.183528,
        3.1848400000000003,
        3.193865
      ],
      "metadata": {},
      "peak_memory_mb": 2560.1065
    }
  },
  "{\"x\":\"bf16[1024,3840]\",\"labels\":\"i32[1024]\",\"w\":\"bf16[3840,262144]\",\"reduction\":\"sum\",\"return_residuals\":true}": {
    "{}": {
      "compile_time_ms": 435.582243999761,
      "lower_time_ms": 12.876903000233142,
      "evaluation_times_ms": [
        3.359816,
        3.362344,
        3.370408,
        3.362121,
        3.36516
      ],
      "metadata": {},
      "peak_memory_mb": 2560.106516
    }
  },
  "{\"x\":\"f32[1024,3840]\",\"labels\":\"i32[1024]\",\"w\":\"bf16[3840,262144]\",\"reduction\":\"sum\",\"return_residuals\":false}": {
    "{}": {
      "compile_time_ms": 143.19134900006247,
      "lower_time_ms": 13.23532799960958,
      "evaluation_times_ms": [
        7.8957310000000005,
        7.898292,
        7.904019,
        7.904691,
        7.905298999999999
      ],
      "metadata": {},
      "peak_memory_mb": 7162.826756
    }
  },
  "{\"x\":\"f32[1024,3840]\",\"labels\":\"i32[1024]\",\"w\":\"bf16[3840,262144]\",\"reduction\":\"sum\",\"return_residuals\":true}": {
    "{}": {
      "compile_time_ms": 465.5531879999444,
      "lower_time_ms": 30.879137999932027,
      "evaluation_times_ms": [
        7.9578169999999995,
        7.966137000000001,
        7.972856,
        7.968473,
        7.976824000000001
      ],
      "metadata": {},
      "peak_memory_mb": 7162.830868
    }
  },
  "{\"x\":\"bf16[2048,3840]\",\"labels\":\"i32[2048]\",\"w\":\"bf16[3840,262144]\",\"reduction\":\"mean\",\"return_residuals\":false}": {
    "{}": {
      "compile_time_ms": 1748.510181903839,
      "lower_time_ms": 27.265205048024654,
      "evaluation_times_ms": [
        6.0970379999999995,
        6.109231,
        6.102318,
        6.112142,
        6.184559
      ],
      "metadata": {},
      "peak_memory_mb": 3136.299012
    }
  },
  "{\"x\":\"bf16[2048,3840]\",\"labels\":\"i32[2048]\",\"w\":\"bf16[3840,262144]\",\"reduction\":\"mean\",\"return_residuals\":true}": {
    "{}": {
      "compile_time_ms": 423.15648309886456,
      "lower_time_ms": 13.043323066085577,
      "evaluation_times_ms": [
        6.314221,
        6.332558,
        6.314477,
        6.326157,
        6.4638219999999995
      ],
      "metadata": {},
      "peak_memory_mb": 3136.303124
    }
  },
  "{\"x\":\"f32[2048,3840]\",\"labels\":\"i32[2048]\",\"w\":\"bf16[3840,262144]\",\"reduction\":\"mean\",\"return_residuals\":false}": {
    "{}": {
      "compile_time_ms": 3215.9608211368322,
      "lower_time_ms": 20.189024042338133,
      "evaluation_times_ms": [
        14.003034,
        14.077978,
        14.186106,
        14.514042,
        14.467002
      ],
      "metadata": {},
      "peak_memory_mb": 8252.301316
    }
  },
  "{\"x\":\"f32[2048,3840]\",\"labels\":\"i32[2048]\",\"w\":\"bf16[3840,262144]\",\"reduction\":\"mean\",\"return_residuals\":true}": {
    "{}": {
      "compile_time_ms": 441.961667034775,
      "lower_time_ms": 11.656663846224546,
      "evaluation_times_ms": [
        14.023163,
        14.050875,
        14.451803,
        14.34886,
        14.530205
      ],
      "metadata": {},
      "peak_memory_mb": 8252.309524
    }
  },
  "{\"x\":\"bf16[2048,3840]\",\"labels\":\"i32[2048]\",\"w\":\"bf16[3840,262144]\",\"reduction\":\"sum\",\"return_residuals\":false}": {
    "{}": {
      "compile_time_ms": 133.82006902247667,
      "lower_time_ms": 13.38689518161118,
      "evaluation_times_ms": [
        6.078315,
        6.086443,
        6.089803000000001,
        6.122315,
        6.1604909999999995
      ],
      "metadata": {},
      "peak_memory_mb": 3136.299012
    }
  },
  "{\"x\":\"bf16[2048,3840]\",\"labels\":\"i32[2048]\",\"w\":\"bf16[3840,262144]\",\"reduction\":\"sum\",\"return_residuals\":true}": {
    "{}": {
      "compile_time_ms": 167.88119496777654,
      "lower_time_ms": 12.5546520575881,
      "evaluation_times_ms": [
        6.3061549999999995,
        6.304843,
        6.354443,
        6.352843,
        6.367401999999999
      ],
      "metadata": {},
      "peak_memory_mb": 3136.303124
    }
  },
  "{\"x\":\"f32[2048,3840]\",\"labels\":\"i32[2048]\",\"w\":\"bf16[3840,262144]\",\"reduction\":\"sum\",\"return_residuals\":false}": {
    "{}": {
      "compile_time_ms": 146.81090507656336,
      "lower_time_ms": 12.856008019298315,
      "evaluation_times_ms": [
        14.028565,
        14.134197,
        14.14015,
        14.532949,
        14.05058
      ],
      "metadata": {},
      "peak_memory_mb": 8252.301316
    }
  },
  "{\"x\":\"f32[2048,3840]\",\"labels\":\"i32[2048]\",\"w\":\"bf16[3840,262144]\",\"reduction\":\"sum\",\"return_residuals\":true}": {
    "{}": {
      "compile_time_ms": 185.55382709018886,
      "lower_time_ms": 11.408432852476835,
      "evaluation_times_ms": [
        14.004276,
        14.006389,
        14.399251999999999,
        14.339925,
        14.320661
      ],
      "metadata": {},
      "peak_memory_mb": 8252.309524
    }
  },
  "{\"x\":\"bf16[4096,3840]\",\"labels\":\"i32[4096]\",\"w\":\"bf16[3840,262144]\",\"reduction\":\"mean\",\"return_residuals\":false}": {
    "{}": {
      "compile_time_ms": 3275.917729130015,
      "lower_time_ms": 21.535475039854646,
      "evaluation_times_ms": [
        12.118673000000001,
        12.136209,
        13.010514,
        12.990803,
        13.055282
      ],
      "metadata": {},
      "peak_memory_mb": 4225.777668
    }
  },
  "{\"x\":\"bf16[4096,3840]\",\"labels\":\"i32[4096]\",\"w\":\"bf16[3840,262144]\",\"reduction\":\"mean\",\"return_residuals\":true}": {
    "{}": {
      "compile_time_ms": 414.1788000706583,
      "lower_time_ms": 13.028231915086508,
      "evaluation_times_ms": [
        12.551347,
        13.069172,
        13.237236000000001,
        13.653844999999999,
        13.490197
      ],
      "metadata": {},
      "peak_memory_mb": 4225.785876
    }
  },
  "{\"x\":\"f32[4096,3840]\",\"labels\":\"i32[4096]\",\"w\":\"bf16[3840,262144]\",\"reduction\":\"mean\",\"return_residuals\":false}": {
    "{}": {
      "compile_time_ms": 5255.01922192052,
      "lower_time_ms": 19.688997184857726,
      "evaluation_times_ms": [
        26.609586,
        28.425525999999998,
        27.770291999999998,
        27.275348,
        28.754007
      ],
      "metadata": {},
      "peak_memory_mb": 10431.250436
    }
  },
  "{\"x\":\"f32[4096,3840]\",\"labels\":\"i32[4096]\",\"w\":\"bf16[3840,262144]\",\"reduction\":\"mean\",\"return_residuals\":true}": {
    "{}": {
      "compile_time_ms": 420.79250095412135,
      "lower_time_ms": 11.499223997816443,
      "evaluation_times_ms": [
        26.503793,
        27.600755000000003,
        27.896307,
        27.179218,
        29.338679
      ],
      "metadata": {},
      "peak_memory_mb": 10431.266836
    }
  },
  "{\"x\":\"bf16[4096,3840]\",\"labels\":\"i32[4096]\",\"w\":\"bf16[3840,262144]\",\"reduction\":\"sum\",\"return_residuals\":false}": {
    "{}": {
      "compile_time_ms": 135.59784810058773,
      "lower_time_ms": 13.490136014297605,
      "evaluation_times_ms": [
        12.096597,
        12.147509,
        12.614262,
        12.53631,
        12.768853
      ],
      "metadata": {},
      "peak_memory_mb": 4225.777668
    }
  },
  "{\"x\":\"bf16[4096,3840]\",\"labels\":\"i32[4096]\",\"w\":\"bf16[3840,262144]\",\"reduction\":\"sum\",\"return_residuals\":true}": {
    "{}": {
      "compile_time_ms": 2894.393011010834,
      "lower_time_ms": 26.449636003235355,
      "evaluation_times_ms": [
        12.582277,
        12.607045,
        12.909383,
        13.488968,
        13.826185
      ],
      "metadata": {},
      "peak_memory_mb": 4225.785876
    }
  },
  "{\"x\":\"f32[4096,3840]\",\"labels\":\"i32[4096]\",\"w\":\"bf16[3840,262144]\",\"reduction\":\"sum\",\"return_residuals\":false}": {
    "{}": {
      "compile_time_ms": 5386.301788996207,
      "lower_time_ms": 20.904119999613613,
      "evaluation_times_ms": [
        26.358861,
        26.898254,
        28.872787000000002,
        29.031796000000003,
        28.627539
      ],
      "metadata": {},
      "peak_memory_mb": 10431.250436
    }
  },
  "{\"x\":\"f32[4096,3840]\",\"labels\":\"i32[4096]\",\"w\":\"bf16[3840,262144]\",\"reduction\":\"sum\",\"return_residuals\":true}": {
    "{}": {
      "compile_time_ms": 234.7564530064119,
      "lower_time_ms": 11.673040004097857,
      "evaluation_times_ms": [
        26.469092,
        26.867396999999997,
        28.163432,
        28.120008,
        28.90481
      ],
      "metadata": {},
      "peak_memory_mb": 10431.266836
    }
  },
  "{\"x\":\"bf16[16384,3840]\",\"labels\":\"i32[16384]\",\"w\":\"bf16[3840,262144]\",\"reduction\":\"mean\",\"return_residuals\":false}": {
    "{}": {
      "compile_time_ms": 10718.835742998635,
      "lower_time_ms": 22.186217000125907,
      "evaluation_times_ms": [
        50.982000000000006,
        54.01388,
        53.358711,
        54.133209,
        53.517558
      ],
      "metadata": {},
      "peak_memory_mb": 10762.71514
    }
  },
  "{\"x\":\"bf16[16384,3840]\",\"labels\":\"i32[16384]\",\"w\":\"bf16[3840,262144]\",\"reduction\":\"mean\",\"return_residuals\":true}": {
    "{}": {
      "compile_time_ms": 252.22827401012182,
      "lower_time_ms": 12.48918499913998,
      "evaluation_times_ms": [
        53.358077,
        55.973924000000004,
        54.66976,
        56.544582,
        56.465314
      ],
      "metadata": {},
      "peak_memory_mb": 10796.302356
    }
  },
  "{\"x\":\"f32[16384,3840]\",\"labels\":\"i32[16384]\",\"w\":\"bf16[3840,262144]\",\"reduction\":\"mean\",\"return_residuals\":false}": {
    "{}": {
      "compile_time_ms": 96085.13686699735,
      "lower_time_ms": 20.41543900850229,
      "evaluation_times_ms": [
        164.979143,
        163.834308,
        192.20932,
        165.908233,
        165.60055200000002
      ],
      "metadata": {},
      "peak_memory_mb": 19478.544388
    }
  },
  "{\"x\":\"f32[16384,3840]\",\"labels\":\"i32[16384]\",\"w\":\"bf16[3840,262144]\",\"reduction\":\"mean\",\"return_residuals\":true}": {
    "{}": {
      "compile_time_ms": 323.57680301356595,
      "lower_time_ms": 11.762786001781933,
      "evaluation_times_ms": [
        170.09604,
        169.918631,
        192.11099800000002,
        171.76199499999998,
        171.638539
      ],
      "metadata": {},
      "peak_memory_mb": 19478.544404
    }
  },
  "{\"x\":\"bf16[16384,3840]\",\"labels\":\"i32[16384]\",\"w\":\"bf16[3840,262144]\",\"reduction\":\"sum\",\"return_residuals\":false}": {
    "{}": {
      "compile_time_ms": 140.69077800377272,
      "lower_time_ms": 14.291352999862283,
      "evaluation_times_ms": [
        48.996744,
        53.406256000000006,
        53.768497,
        52.854960000000005,
        53.684113999999994
      ],
      "metadata": {},
      "peak_memory_mb": 10762.71514
    }
  },
  "{\"x\":\"bf16[16384,3840]\",\"labels\":\"i32[16384]\",\"w\":\"bf16[3840,262144]\",\"reduction\":\"sum\",\"return_residuals\":true}": {
    "{}": {
      "compile_time_ms": 175.11815899342764,
      "lower_time_ms": 12.193226997624151,
      "evaluation_times_ms": [
        53.737257,
        54.425291,
        56.414927,
        56.209294,
        54.810411
      ],
      "metadata": {},
      "peak_memory_mb": 10796.302356
    }
  },
  "{\"x\":\"f32[16384,3840]\",\"labels\":\"i32[16384]\",\"w\":\"bf16[3840,262144]\",\"reduction\":\"sum\",\"return_residuals\":false}": {},
  "{\"x\":\"f32[16384,3840]\",\"labels\":\"i32[16384]\",\"w\":\"bf16[3840,262144]\",\"reduction\":\"sum\",\"return_residuals\":true}": {},
  "{\"x\":\"bf16[32768,3840]\",\"labels\":\"i32[32768]\",\"w\":\"bf16[3840,262144]\",\"reduction\":\"mean\",\"return_residuals\":false}": {},
  "{\"x\":\"bf16[32768,3840]\",\"labels\":\"i32[32768]\",\"w\":\"bf16[3840,262144]\",\"reduction\":\"mean\",\"return_residuals\":true}": {}
}
