{
  "{\"q\":\"bf16[32,4096,32,128]\",\"k\":\"bf16[32,4096,8,128]\",\"v\":\"bf16[32,4096,8,128]\",\"precision\":[[\"DEFAULT\",\"DEFAULT\"],[\"DEFAULT\",\"DEFAULT\"]],\"logits_dtype\":\"float32\",\"logits_scale\":0.08838834764831843,\"bias\":null,\"logits_soft_cap\":null,\"mask\":{\"bool_mask\":null,\"q_start\":null,\"q_end\":null,\"k_start\":null,\"k_end\":null,\"is_causal\":true},\"dropout_mask\":null,\"dropout_rate\":0.0,\"paging_info\":null,\"q_indices\":null,\"k_indices\":null,\"normalize_output\":true,\"return_residuals\":false}": {
    "{}": {
      "compile_time_ms": 2198.6904820078053,
      "lower_time_ms": 132.695693988353,
      "evaluation_times_ms": [
        80.999,
        81.007,
        80.998,
        80.986,
        81.011
      ],
      "metadata": {
        "peak_memory_mb": 69136.0
      }
    }
  },
  "{\"q\":\"bf16[32,4096,32,128]\",\"k\":\"bf16[32,4096,8,128]\",\"v\":\"bf16[32,4096,8,128]\",\"precision\":[\"BF16_BF16_F32\",\"BF16_BF16_F32\"],\"logits_dtype\":\"float32\",\"logits_scale\":0.08838834764831843,\"bias\":null,\"logits_soft_cap\":null,\"mask\":{\"bool_mask\":null,\"q_start\":null,\"q_end\":null,\"k_start\":null,\"k_end\":null,\"is_causal\":true},\"dropout_mask\":null,\"dropout_rate\":0.0,\"paging_info\":null,\"q_indices\":null,\"k_indices\":null,\"normalize_output\":true,\"return_residuals\":true}": {
    "{}": {
      "compile_time_ms": 3812.9427959793247,
      "lower_time_ms": 19.297053979244083,
      "evaluation_times_ms": [
        86.409,
        86.409,
        86.419,
        86.413,
        86.437
      ],
      "metadata": {
        "peak_memory_mb": 69152.00003051758
      }
    }
  },
  "{\"q\":\"bf16[512,1024,16,192]\",\"k\":\"bf16[512,1024,16,192]\",\"v\":\"bf16[512,1024,16,128]\",\"precision\":[[\"DEFAULT\",\"DEFAULT\"],[\"DEFAULT\",\"DEFAULT\"]],\"logits_dtype\":\"float32\",\"logits_scale\":0.07216878364870323,\"bias\":null,\"logits_soft_cap\":null,\"mask\":{\"bool_mask\":null,\"q_start\":null,\"q_end\":null,\"k_start\":null,\"k_end\":null,\"is_causal\":true},\"dropout_mask\":null,\"dropout_rate\":0.0,\"paging_info\":null,\"q_indices\":null,\"k_indices\":null,\"normalize_output\":true,\"return_residuals\":false}": {
    "{}": {
      "compile_time_ms": 2367.4957740004174,
      "lower_time_ms": 20.391669997479767,
      "evaluation_times_ms": [
        51.354,
        51.345,
        51.353,
        51.352,
        51.342
      ],
      "metadata": {
        "peak_memory_mb": 45057.0
      }
    }
  },
  "{\"q\":\"bf16[512,1024,16,192]\",\"k\":\"bf16[512,1024,16,192]\",\"v\":\"bf16[512,1024,16,128]\",\"precision\":[\"BF16_BF16_F32\",\"BF16_BF16_F32\"],\"logits_dtype\":\"float32\",\"logits_scale\":0.07216878364870323,\"bias\":null,\"logits_soft_cap\":null,\"mask\":{\"bool_mask\":null,\"q_start\":null,\"q_end\":null,\"k_start\":null,\"k_end\":null,\"is_causal\":true},\"dropout_mask\":null,\"dropout_rate\":0.0,\"paging_info\":null,\"q_indices\":null,\"k_indices\":null,\"normalize_output\":true,\"return_residuals\":true}": {
    "{}": {
      "compile_time_ms": 2374.5281960000284,
      "lower_time_ms": 19.29244596976787,
      "evaluation_times_ms": [
        51.3,
        51.305,
        51.307,
        51.304,
        51.309
      ],
      "metadata": {
        "peak_memory_mb": 45120.00003051758
      }
    }
  },
  "{\"q\":\"bf16[384,384,4,32]\",\"k\":\"bf16[384,384,4,32]\",\"v\":\"bf16[384,384,4,32]\",\"precision\":[[\"DEFAULT\",\"DEFAULT\"],[\"DEFAULT\",\"DEFAULT\"]],\"logits_dtype\":\"float32\",\"logits_scale\":0.17677669529663687,\"bias\":\"bf16[1,4,384,384]\",\"logits_soft_cap\":null,\"mask\":{\"bool_mask\":\"bool[384,1,1,384]\",\"q_start\":null,\"q_end\":null,\"k_start\":null,\"k_end\":null,\"is_causal\":false},\"dropout_mask\":null,\"dropout_rate\":0.0,\"paging_info\":null,\"q_indices\":null,\"k_indices\":null,\"normalize_output\":true,\"return_residuals\":false}": {
    "{}": {
      "compile_time_ms": 983.4141539759003,
      "lower_time_ms": 16.65764400968328,
      "evaluation_times_ms": [
        1.065,
        1.065,
        1.063,
        1.065,
        1.063
      ],
      "metadata": {
        "peak_memory_mb": 1009.265625
      }
    }
  },
  "{\"q\":\"bf16[384,384,4,32]\",\"k\":\"bf16[384,384,4,32]\",\"v\":\"bf16[384,384,4,32]\",\"precision\":[\"BF16_BF16_F32\",\"BF16_BF16_F32\"],\"logits_dtype\":\"float32\",\"logits_scale\":0.17677669529663687,\"bias\":\"bf16[1,4,384,384]\",\"logits_soft_cap\":null,\"mask\":{\"bool_mask\":\"bool[384,1,1,384]\",\"q_start\":null,\"q_end\":null,\"k_start\":null,\"k_end\":null,\"is_causal\":false},\"dropout_mask\":null,\"dropout_rate\":0.0,\"paging_info\":null,\"q_indices\":null,\"k_indices\":null,\"normalize_output\":true,\"return_residuals\":true}": {
    "{}": {
      "compile_time_ms": 994.9156740331091,
      "lower_time_ms": 15.421224001329392,
      "evaluation_times_ms": [
        1.067,
        1.063,
        1.063,
        1.062,
        1.064
      ],
      "metadata": {
        "peak_memory_mb": 1013.7656555175781
      }
    }
  },
  "{\"q\":\"bf16[384,384,4,64]\",\"k\":\"bf16[384,384,4,64]\",\"v\":\"bf16[384,384,4,64]\",\"precision\":[[\"DEFAULT\",\"DEFAULT\"],[\"DEFAULT\",\"DEFAULT\"]],\"logits_dtype\":\"float32\",\"logits_scale\":0.125,\"bias\":\"bf16[1,4,384,384]\",\"logits_soft_cap\":null,\"mask\":{\"bool_mask\":\"bool[384,1,1,384]\",\"q_start\":null,\"q_end\":null,\"k_start\":null,\"k_end\":null,\"is_causal\":false},\"dropout_mask\":null,\"dropout_rate\":0.0,\"paging_info\":null,\"q_indices\":null,\"k_indices\":null,\"normalize_output\":true,\"return_residuals\":false}": {
    "{}": {
      "compile_time_ms": 902.1348759997636,
      "lower_time_ms": 15.982317039743066,
      "evaluation_times_ms": [
        1.15,
        1.151,
        1.145,
        1.147,
        1.149
      ],
      "metadata": {
        "peak_memory_mb": 1153.265625
      }
    }
  },
  "{\"q\":\"bf16[384,384,4,64]\",\"k\":\"bf16[384,384,4,64]\",\"v\":\"bf16[384,384,4,64]\",\"precision\":[\"BF16_BF16_F32\",\"BF16_BF16_F32\"],\"logits_dtype\":\"float32\",\"logits_scale\":0.125,\"bias\":\"bf16[1,4,384,384]\",\"logits_soft_cap\":null,\"mask\":{\"bool_mask\":\"bool[384,1,1,384]\",\"q_start\":null,\"q_end\":null,\"k_start\":null,\"k_end\":null,\"is_causal\":false},\"dropout_mask\":null,\"dropout_rate\":0.0,\"paging_info\":null,\"q_indices\":null,\"k_indices\":null,\"normalize_output\":true,\"return_residuals\":true}": {
    "{}": {
      "compile_time_ms": 919.4156699813902,
      "lower_time_ms": 16.148447000887245,
      "evaluation_times_ms": [
        1.148,
        1.149,
        1.152,
        1.148,
        1.152
      ],
      "metadata": {
        "peak_memory_mb": 1157.7656555175781
      }
    }
  },
  "{\"q\":\"bf16[768,768,4,64]\",\"k\":\"bf16[768,768,4,64]\",\"v\":\"bf16[768,768,4,64]\",\"precision\":[[\"DEFAULT\",\"DEFAULT\"],[\"DEFAULT\",\"DEFAULT\"]],\"logits_dtype\":\"float32\",\"logits_scale\":0.125,\"bias\":\"bf16[1,4,768,768]\",\"logits_soft_cap\":null,\"mask\":{\"bool_mask\":\"bool[768,1,1,768]\",\"q_start\":null,\"q_end\":null,\"k_start\":null,\"k_end\":null,\"is_causal\":false},\"dropout_mask\":null,\"dropout_rate\":0.0,\"paging_info\":null,\"q_indices\":null,\"k_indices\":null,\"normalize_output\":true,\"return_residuals\":false}": {
    "{}": {
      "compile_time_ms": 2168.212785036303,
      "lower_time_ms": 117.47487803222612,
      "evaluation_times_ms": [
        9.63,
        9.639,
        9.636,
        9.631,
        9.645
      ],
      "metadata": {
        "peak_memory_mb": 8069.0625
      }
    }
  },
  "{\"q\":\"bf16[768,768,4,64]\",\"k\":\"bf16[768,768,4,64]\",\"v\":\"bf16[768,768,4,64]\",\"precision\":[\"BF16_BF16_F32\",\"BF16_BF16_F32\"],\"logits_dtype\":\"float32\",\"logits_scale\":0.125,\"bias\":\"bf16[1,4,768,768]\",\"logits_soft_cap\":null,\"mask\":{\"bool_mask\":\"bool[768,1,1,768]\",\"q_start\":null,\"q_end\":null,\"k_start\":null,\"k_end\":null,\"is_causal\":false},\"dropout_mask\":null,\"dropout_rate\":0.0,\"paging_info\":null,\"q_indices\":null,\"k_indices\":null,\"normalize_output\":true,\"return_residuals\":true}": {
    "{}": {
      "compile_time_ms": 1087.1317620039918,
      "lower_time_ms": 17.66989700263366,
      "evaluation_times_ms": [
        9.647,
        9.635,
        9.633,
        9.642,
        9.638
      ],
      "metadata": {
        "peak_memory_mb": 8087.062530517578
      }
    }
  },
  "{\"q\":\"bf16[32,512,32,64]\",\"k\":\"bf16[32,512,32,64]\",\"v\":\"bf16[32,512,32,64]\",\"precision\":[[\"DEFAULT\",\"DEFAULT\"],[\"DEFAULT\",\"DEFAULT\"]],\"logits_dtype\":\"float32\",\"logits_scale\":0.125,\"bias\":null,\"logits_soft_cap\":null,\"mask\":{\"bool_mask\":null,\"q_start\":null,\"q_end\":null,\"k_start\":null,\"k_end\":null,\"is_causal\":true},\"dropout_mask\":null,\"dropout_rate\":0.0,\"paging_info\":null,\"q_indices\":null,\"k_indices\":null,\"normalize_output\":true,\"return_residuals\":false}": {
    "{}": {
      "compile_time_ms": 823.7324840156361,
      "lower_time_ms": 16.617684974335134,
      "evaluation_times_ms": [
        1.213,
        1.215,
        1.219,
        1.217,
        1.214
      ],
      "metadata": {
        "peak_memory_mb": 1280.0
      }
    }
  },
  "{\"q\":\"bf16[32,512,32,64]\",\"k\":\"bf16[32,512,32,64]\",\"v\":\"bf16[32,512,32,64]\",\"precision\":[\"BF16_BF16_F32\",\"BF16_BF16_F32\"],\"logits_dtype\":\"float32\",\"logits_scale\":0.125,\"bias\":null,\"logits_soft_cap\":null,\"mask\":{\"bool_mask\":null,\"q_start\":null,\"q_end\":null,\"k_start\":null,\"k_end\":null,\"is_causal\":true},\"dropout_mask\":null,\"dropout_rate\":0.0,\"paging_info\":null,\"q_indices\":null,\"k_indices\":null,\"normalize_output\":true,\"return_residuals\":true}": {
    "{}": {
      "compile_time_ms": 830.1161080016755,
      "lower_time_ms": 15.232101024594158,
      "evaluation_times_ms": [
        1.221,
        1.22,
        1.22,
        1.219,
        1.221
      ],
      "metadata": {
        "peak_memory_mb": 1284.0000305175781
      }
    }
  },
  "{\"q\":\"f16[32,512,32,64]\",\"k\":\"f16[32,512,32,64]\",\"v\":\"f16[32,512,32,64]\",\"precision\":[\"BF16_BF16_F32\",\"BF16_BF16_F32\"],\"logits_dtype\":\"float32\",\"logits_scale\":0.125,\"bias\":null,\"logits_soft_cap\":null,\"mask\":{\"bool_mask\":null,\"q_start\":null,\"q_end\":null,\"k_start\":null,\"k_end\":null,\"is_causal\":true},\"dropout_mask\":null,\"dropout_rate\":0.0,\"paging_info\":null,\"q_indices\":null,\"k_indices\":null,\"normalize_output\":true,\"return_residuals\":false}": {
    "{}": {
      "compile_time_ms": 837.7851260011084,
      "lower_time_ms": 15.958355972543359,
      "evaluation_times_ms": [
        1.217,
        1.217,
        1.217,
        1.22,
        1.218
      ],
      "metadata": {
        "peak_memory_mb": 1280.0
      }
    }
  },
  "{\"q\":\"f16[32,512,32,64]\",\"k\":\"f16[32,512,32,64]\",\"v\":\"f16[32,512,32,64]\",\"precision\":[\"BF16_BF16_F32\",\"BF16_BF16_F32\"],\"logits_dtype\":\"float32\",\"logits_scale\":0.125,\"bias\":null,\"logits_soft_cap\":null,\"mask\":{\"bool_mask\":null,\"q_start\":null,\"q_end\":null,\"k_start\":null,\"k_end\":null,\"is_causal\":true},\"dropout_mask\":null,\"dropout_rate\":0.0,\"paging_info\":null,\"q_indices\":null,\"k_indices\":null,\"normalize_output\":true,\"return_residuals\":true}": {
    "{}": {
      "compile_time_ms": 822.9689699946903,
      "lower_time_ms": 15.128966013435274,
      "evaluation_times_ms": [
        1.218,
        1.217,
        1.219,
        1.219,
        1.218
      ],
      "metadata": {
        "peak_memory_mb": 1284.0000305175781
      }
    }
  },
  "{\"q\":\"bf16[32,512,32,64]\",\"k\":\"bf16[32,512,32,64]\",\"v\":\"bf16[32,512,32,64]\",\"precision\":[[\"DEFAULT\",\"DEFAULT\"],[\"DEFAULT\",\"DEFAULT\"]],\"logits_dtype\":\"float32\",\"logits_scale\":0.125,\"bias\":null,\"logits_soft_cap\":null,\"mask\":{\"bool_mask\":null,\"q_start\":null,\"q_end\":null,\"k_start\":null,\"k_end\":null,\"is_causal\":false},\"dropout_mask\":null,\"dropout_rate\":0.0,\"paging_info\":null,\"q_indices\":null,\"k_indices\":null,\"normalize_output\":true,\"return_residuals\":false}": {
    "{}": {
      "compile_time_ms": 566.6966660064645,
      "lower_time_ms": 13.810552016366273,
      "evaluation_times_ms": [
        1.068,
        1.065,
        1.069,
        1.067,
        1.067
      ],
      "metadata": {
        "peak_memory_mb": 1280.0
      }
    }
  },
  "{\"q\":\"bf16[32,512,32,64]\",\"k\":\"bf16[32,512,32,64]\",\"v\":\"bf16[32,512,32,64]\",\"precision\":[\"BF16_BF16_F32\",\"BF16_BF16_F32\"],\"logits_dtype\":\"float32\",\"logits_scale\":0.125,\"bias\":null,\"logits_soft_cap\":null,\"mask\":{\"bool_mask\":null,\"q_start\":null,\"q_end\":null,\"k_start\":null,\"k_end\":null,\"is_causal\":false},\"dropout_mask\":null,\"dropout_rate\":0.0,\"paging_info\":null,\"q_indices\":null,\"k_indices\":null,\"normalize_output\":true,\"return_residuals\":true}": {
    "{}": {
      "compile_time_ms": 560.6689549749717,
      "lower_time_ms": 13.531254953704774,
      "evaluation_times_ms": [
        1.069,
        1.07,
        1.068,
        1.067,
        1.069
      ],
      "metadata": {
        "peak_memory_mb": 1284.0000305175781
      }
    }
  },
  "{\"q\":\"f16[8,2048,8,256]\",\"k\":\"f16[8,2048,8,256]\",\"v\":\"f16[8,2048,8,256]\",\"precision\":[\"BF16_BF16_F32\",\"BF16_BF16_F32\"],\"logits_dtype\":\"float32\",\"logits_scale\":0.0625,\"bias\":null,\"logits_soft_cap\":null,\"mask\":{\"bool_mask\":null,\"q_start\":null,\"q_end\":null,\"k_start\":null,\"k_end\":null,\"is_causal\":false},\"dropout_mask\":null,\"dropout_rate\":0.0,\"paging_info\":null,\"q_indices\":null,\"k_indices\":null,\"normalize_output\":true,\"return_residuals\":false}": {
    "{}": {
      "compile_time_ms": 2358.690923952963,
      "lower_time_ms": 111.90943699330091,
      "evaluation_times_ms": [
        1.824,
        1.824,
        1.823,
        1.823,
        1.824
      ],
      "metadata": {
        "peak_memory_mb": 1344.0
      }
    }
  },
  "{\"q\":\"f16[8,2048,8,256]\",\"k\":\"f16[8,2048,8,256]\",\"v\":\"f16[8,2048,8,256]\",\"precision\":[\"BF16_BF16_F32\",\"BF16_BF16_F32\"],\"logits_dtype\":\"float32\",\"logits_scale\":0.0625,\"bias\":null,\"logits_soft_cap\":null,\"mask\":{\"bool_mask\":null,\"q_start\":null,\"q_end\":null,\"k_start\":null,\"k_end\":null,\"is_causal\":false},\"dropout_mask\":null,\"dropout_rate\":0.0,\"paging_info\":null,\"q_indices\":null,\"k_indices\":null,\"normalize_output\":true,\"return_residuals\":true}": {
    "{}": {
      "compile_time_ms": 1271.736903989222,
      "lower_time_ms": 14.092470984905958,
      "evaluation_times_ms": [
        1.823,
        1.823,
        1.825,
        1.822,
        1.825
      ],
      "metadata": {
        "peak_memory_mb": 1345.0000305175781
      }
    }
  },
  "{\"q\":\"bf16[4,4096,32,64]\",\"k\":\"bf16[4,4096,32,64]\",\"v\":\"bf16[4,4096,32,64]\",\"precision\":[[\"DEFAULT\",\"DEFAULT\"],[\"DEFAULT\",\"DEFAULT\"]],\"logits_dtype\":\"float32\",\"logits_scale\":0.125,\"bias\":null,\"logits_soft_cap\":null,\"mask\":{\"bool_mask\":null,\"q_start\":null,\"q_end\":null,\"k_start\":null,\"k_end\":null,\"is_causal\":true},\"dropout_mask\":null,\"dropout_rate\":0.0,\"paging_info\":null,\"q_indices\":null,\"k_indices\":null,\"normalize_output\":true,\"return_residuals\":false}": {
    "{}": {
      "compile_time_ms": 2198.1824170215987,
      "lower_time_ms": 17.20649900380522,
      "evaluation_times_ms": [
        9.386,
        9.39,
        9.382,
        9.386,
        9.381
      ],
      "metadata": {
        "peak_memory_mb": 8448.0
      }
    }
  },
  "{\"q\":\"bf16[4,4096,32,64]\",\"k\":\"bf16[4,4096,32,64]\",\"v\":\"bf16[4,4096,32,64]\",\"precision\":[\"BF16_BF16_F32\",\"BF16_BF16_F32\"],\"logits_dtype\":\"float32\",\"logits_scale\":0.125,\"bias\":null,\"logits_soft_cap\":null,\"mask\":{\"bool_mask\":null,\"q_start\":null,\"q_end\":null,\"k_start\":null,\"k_end\":null,\"is_causal\":true},\"dropout_mask\":null,\"dropout_rate\":0.0,\"paging_info\":null,\"q_indices\":null,\"k_indices\":null,\"normalize_output\":true,\"return_residuals\":true}": {
    "{}": {
      "compile_time_ms": 2181.8526679999195,
      "lower_time_ms": 15.23123896913603,
      "evaluation_times_ms": [
        9.378,
        9.381,
        9.383,
        9.383,
        9.383
      ],
      "metadata": {
        "peak_memory_mb": 8452.000030517578
      }
    }
  },
  "{\"q\":\"f16[4,4096,32,64]\",\"k\":\"f16[4,4096,32,64]\",\"v\":\"f16[4,4096,32,64]\",\"precision\":[\"BF16_BF16_F32\",\"BF16_BF16_F32\"],\"logits_dtype\":\"float32\",\"logits_scale\":0.125,\"bias\":null,\"logits_soft_cap\":null,\"mask\":{\"bool_mask\":null,\"q_start\":null,\"q_end\":null,\"k_start\":null,\"k_end\":null,\"is_causal\":true},\"dropout_mask\":null,\"dropout_rate\":0.0,\"paging_info\":null,\"q_indices\":null,\"k_indices\":null,\"normalize_output\":true,\"return_residuals\":false}": {
    "{}": {
      "compile_time_ms": 2171.494502981659,
      "lower_time_ms": 15.696040994953364,
      "evaluation_times_ms": [
        9.423,
        9.413,
        9.425,
        9.418,
        9.412
      ],
      "metadata": {
        "peak_memory_mb": 8448.0
      }
    }
  },
  "{\"q\":\"f16[4,4096,32,64]\",\"k\":\"f16[4,4096,32,64]\",\"v\":\"f16[4,4096,32,64]\",\"precision\":[\"BF16_BF16_F32\",\"BF16_BF16_F32\"],\"logits_dtype\":\"float32\",\"logits_scale\":0.125,\"bias\":null,\"logits_soft_cap\":null,\"mask\":{\"bool_mask\":null,\"q_start\":null,\"q_end\":null,\"k_start\":null,\"k_end\":null,\"is_causal\":true},\"dropout_mask\":null,\"dropout_rate\":0.0,\"paging_info\":null,\"q_indices\":null,\"k_indices\":null,\"normalize_output\":true,\"return_residuals\":true}": {
    "{}": {
      "compile_time_ms": 2136.5049660089426,
      "lower_time_ms": 15.182478993665427,
      "evaluation_times_ms": [
        9.427,
        9.427,
        9.418,
        9.411,
        9.427
      ],
      "metadata": {
        "peak_memory_mb": 8452.000030517578
      }
    }
  },
  "{\"q\":\"bf16[4,4096,32,64]\",\"k\":\"bf16[4,4096,32,64]\",\"v\":\"bf16[4,4096,32,64]\",\"precision\":[[\"DEFAULT\",\"DEFAULT\"],[\"DEFAULT\",\"DEFAULT\"]],\"logits_dtype\":\"float32\",\"logits_scale\":0.125,\"bias\":null,\"logits_soft_cap\":null,\"mask\":{\"bool_mask\":null,\"q_start\":null,\"q_end\":null,\"k_start\":null,\"k_end\":null,\"is_causal\":false},\"dropout_mask\":null,\"dropout_rate\":0.0,\"paging_info\":null,\"q_indices\":null,\"k_indices\":null,\"normalize_output\":true,\"return_residuals\":false}": {
    "{}": {
      "compile_time_ms": 903.7689490360208,
      "lower_time_ms": 13.433901011012495,
      "evaluation_times_ms": [
        7.96,
        7.954,
        7.958,
        7.949,
        7.96
      ],
      "metadata": {
        "peak_memory_mb": 8448.0
      }
    }
  },
  "{\"q\":\"bf16[4,4096,32,64]\",\"k\":\"bf16[4,4096,32,64]\",\"v\":\"bf16[4,4096,32,64]\",\"precision\":[\"BF16_BF16_F32\",\"BF16_BF16_F32\"],\"logits_dtype\":\"float32\",\"logits_scale\":0.125,\"bias\":null,\"logits_soft_cap\":null,\"mask\":{\"bool_mask\":null,\"q_start\":null,\"q_end\":null,\"k_start\":null,\"k_end\":null,\"is_causal\":false},\"dropout_mask\":null,\"dropout_rate\":0.0,\"paging_info\":null,\"q_indices\":null,\"k_indices\":null,\"normalize_output\":true,\"return_residuals\":true}": {
    "{}": {
      "compile_time_ms": 905.3554349811748,
      "lower_time_ms": 13.622330967336893,
      "evaluation_times_ms": [
        7.957,
        7.958,
        7.959,
        7.961,
        7.957
      ],
      "metadata": {
        "peak_memory_mb": 8452.000030517578
      }
    }
  },
  "{\"q\":\"f16[4,4096,32,64]\",\"k\":\"f16[4,4096,32,64]\",\"v\":\"f16[4,4096,32,64]\",\"precision\":[\"BF16_BF16_F32\",\"BF16_BF16_F32\"],\"logits_dtype\":\"float32\",\"logits_scale\":0.125,\"bias\":null,\"logits_soft_cap\":null,\"mask\":{\"bool_mask\":null,\"q_start\":null,\"q_end\":null,\"k_start\":null,\"k_end\":null,\"is_causal\":false},\"dropout_mask\":null,\"dropout_rate\":0.0,\"paging_info\":null,\"q_indices\":null,\"k_indices\":null,\"normalize_output\":true,\"return_residuals\":false}": {
    "{}": {
      "compile_time_ms": 1957.5821689795703,
      "lower_time_ms": 116.45414703525603,
      "evaluation_times_ms": [
        7.954,
        7.947,
        7.956,
        7.954,
        7.958
      ],
      "metadata": {
        "peak_memory_mb": 8448.0
      }
    }
  },
  "{\"q\":\"f16[4,4096,32,64]\",\"k\":\"f16[4,4096,32,64]\",\"v\":\"f16[4,4096,32,64]\",\"precision\":[\"BF16_BF16_F32\",\"BF16_BF16_F32\"],\"logits_dtype\":\"float32\",\"logits_scale\":0.125,\"bias\":null,\"logits_soft_cap\":null,\"mask\":{\"bool_mask\":null,\"q_start\":null,\"q_end\":null,\"k_start\":null,\"k_end\":null,\"is_causal\":false},\"dropout_mask\":null,\"dropout_rate\":0.0,\"paging_info\":null,\"q_indices\":null,\"k_indices\":null,\"normalize_output\":true,\"return_residuals\":true}": {
    "{}": {
      "compile_time_ms": 881.3078539678827,
      "lower_time_ms": 14.097336039412767,
      "evaluation_times_ms": [
        7.953,
        7.958,
        7.954,
        7.953,
        7.949
      ],
      "metadata": {
        "peak_memory_mb": 8452.000030517578
      }
    }
  },
  "{\"q\":\"bf16[4,4096,16,128]\",\"k\":\"bf16[4,4096,16,128]\",\"v\":\"bf16[4,4096,16,128]\",\"precision\":[[\"DEFAULT\",\"DEFAULT\"],[\"DEFAULT\",\"DEFAULT\"]],\"logits_dtype\":\"float32\",\"logits_scale\":0.08838834764831843,\"bias\":null,\"logits_soft_cap\":null,\"mask\":{\"bool_mask\":null,\"q_start\":null,\"q_end\":null,\"k_start\":null,\"k_end\":null,\"is_causal\":true},\"dropout_mask\":null,\"dropout_rate\":0.0,\"paging_info\":null,\"q_indices\":null,\"k_indices\":null,\"normalize_output\":true,\"return_residuals\":false}": {
    "{}": {
      "compile_time_ms": 1393.2532769977115,
      "lower_time_ms": 18.827529973350465,
      "evaluation_times_ms": [
        4.568,
        4.573,
        4.57,
        4.571,
        4.57
      ],
      "metadata": {
        "peak_memory_mb": 4416.0
      }
    }
  },
  "{\"q\":\"bf16[4,4096,16,128]\",\"k\":\"bf16[4,4096,16,128]\",\"v\":\"bf16[4,4096,16,128]\",\"precision\":[\"BF16_BF16_F32\",\"BF16_BF16_F32\"],\"logits_dtype\":\"float32\",\"logits_scale\":0.08838834764831843,\"bias\":null,\"logits_soft_cap\":null,\"mask\":{\"bool_mask\":null,\"q_start\":null,\"q_end\":null,\"k_start\":null,\"k_end\":null,\"is_causal\":true},\"dropout_mask\":null,\"dropout_rate\":0.0,\"paging_info\":null,\"q_indices\":null,\"k_indices\":null,\"normalize_output\":true,\"return_residuals\":true}": {
    "{}": {
      "compile_time_ms": 1396.3342159986496,
      "lower_time_ms": 16.501245030667633,
      "evaluation_times_ms": [
        4.567,
        4.565,
        4.568,
        4.566,
        4.567
      ],
      "metadata": {
        "peak_memory_mb": 4418.000030517578
      }
    }
  },
  "{\"q\":\"f16[4,4096,16,128]\",\"k\":\"f16[4,4096,16,128]\",\"v\":\"f16[4,4096,16,128]\",\"precision\":[\"BF16_BF16_F32\",\"BF16_BF16_F32\"],\"logits_dtype\":\"float32\",\"logits_scale\":0.08838834764831843,\"bias\":null,\"logits_soft_cap\":null,\"mask\":{\"bool_mask\":null,\"q_start\":null,\"q_end\":null,\"k_start\":null,\"k_end\":null,\"is_causal\":true},\"dropout_mask\":null,\"dropout_rate\":0.0,\"paging_info\":null,\"q_indices\":null,\"k_indices\":null,\"normalize_output\":true,\"return_residuals\":false}": {
    "{}": {
      "compile_time_ms": 1403.8614599849097,
      "lower_time_ms": 15.514680999331176,
      "evaluation_times_ms": [
        4.692,
        4.693,
        4.694,
        4.692,
        4.693
      ],
      "metadata": {
        "peak_memory_mb": 4416.0
      }
    }
  },
  "{\"q\":\"f16[4,4096,16,128]\",\"k\":\"f16[4,4096,16,128]\",\"v\":\"f16[4,4096,16,128]\",\"precision\":[\"BF16_BF16_F32\",\"BF16_BF16_F32\"],\"logits_dtype\":\"float32\",\"logits_scale\":0.08838834764831843,\"bias\":null,\"logits_soft_cap\":null,\"mask\":{\"bool_mask\":null,\"q_start\":null,\"q_end\":null,\"k_start\":null,\"k_end\":null,\"is_causal\":true},\"dropout_mask\":null,\"dropout_rate\":0.0,\"paging_info\":null,\"q_indices\":null,\"k_indices\":null,\"normalize_output\":true,\"return_residuals\":true}": {
    "{}": {
      "compile_time_ms": 1413.7988329748623,
      "lower_time_ms": 16.770794987678528,
      "evaluation_times_ms": [
        4.691,
        4.695,
        4.688,
        4.691,
        4.691
      ],
      "metadata": {
        "peak_memory_mb": 4418.000030517578
      }
    }
  },
  "{\"q\":\"bf16[4,4096,16,128]\",\"k\":\"bf16[4,4096,16,128]\",\"v\":\"bf16[4,4096,16,128]\",\"precision\":[[\"DEFAULT\",\"DEFAULT\"],[\"DEFAULT\",\"DEFAULT\"]],\"logits_dtype\":\"float32\",\"logits_scale\":0.08838834764831843,\"bias\":null,\"logits_soft_cap\":null,\"mask\":{\"bool_mask\":null,\"q_start\":null,\"q_end\":null,\"k_start\":null,\"k_end\":null,\"is_causal\":false},\"dropout_mask\":null,\"dropout_rate\":0.0,\"paging_info\":null,\"q_indices\":null,\"k_indices\":null,\"normalize_output\":true,\"return_residuals\":false}": {
    "{}": {
      "compile_time_ms": 1052.14415298542,
      "lower_time_ms": 13.492764031980187,
      "evaluation_times_ms": [
        4.447,
        4.442,
        4.444,
        4.445,
        4.447
      ],
      "metadata": {
        "peak_memory_mb": 4416.0
      }
    }
  },
  "{\"q\":\"bf16[4,4096,16,128]\",\"k\":\"bf16[4,4096,16,128]\",\"v\":\"bf16[4,4096,16,128]\",\"precision\":[\"BF16_BF16_F32\",\"BF16_BF16_F32\"],\"logits_dtype\":\"float32\",\"logits_scale\":0.08838834764831843,\"bias\":null,\"logits_soft_cap\":null,\"mask\":{\"bool_mask\":null,\"q_start\":null,\"q_end\":null,\"k_start\":null,\"k_end\":null,\"is_causal\":false},\"dropout_mask\":null,\"dropout_rate\":0.0,\"paging_info\":null,\"q_indices\":null,\"k_indices\":null,\"normalize_output\":true,\"return_residuals\":true}": {
    "{}": {
      "compile_time_ms": 1053.4239240223542,
      "lower_time_ms": 14.484087005257607,
      "evaluation_times_ms": [
        4.448,
        4.445,
        4.449,
        4.45,
        4.448
      ],
      "metadata": {
        "peak_memory_mb": 4418.000030517578
      }
    }
  },
  "{\"q\":\"f16[4,4096,16,128]\",\"k\":\"f16[4,4096,16,128]\",\"v\":\"f16[4,4096,16,128]\",\"precision\":[\"BF16_BF16_F32\",\"BF16_BF16_F32\"],\"logits_dtype\":\"float32\",\"logits_scale\":0.08838834764831843,\"bias\":null,\"logits_soft_cap\":null,\"mask\":{\"bool_mask\":null,\"q_start\":null,\"q_end\":null,\"k_start\":null,\"k_end\":null,\"is_causal\":false},\"dropout_mask\":null,\"dropout_rate\":0.0,\"paging_info\":null,\"q_indices\":null,\"k_indices\":null,\"normalize_output\":true,\"return_residuals\":false}": {
    "{}": {
      "compile_time_ms": 2148.311351018492,
      "lower_time_ms": 120.74825295712799,
      "evaluation_times_ms": [
        4.568,
        4.57,
        4.566,
        4.567,
        4.57
      ],
      "metadata": {
        "peak_memory_mb": 4416.0
      }
    }
  },
  "{\"q\":\"f16[4,4096,16,128]\",\"k\":\"f16[4,4096,16,128]\",\"v\":\"f16[4,4096,16,128]\",\"precision\":[\"BF16_BF16_F32\",\"BF16_BF16_F32\"],\"logits_dtype\":\"float32\",\"logits_scale\":0.08838834764831843,\"bias\":null,\"logits_soft_cap\":null,\"mask\":{\"bool_mask\":null,\"q_start\":null,\"q_end\":null,\"k_start\":null,\"k_end\":null,\"is_causal\":false},\"dropout_mask\":null,\"dropout_rate\":0.0,\"paging_info\":null,\"q_indices\":null,\"k_indices\":null,\"normalize_output\":true,\"return_residuals\":true}": {
    "{}": {
      "compile_time_ms": 1045.4968770500273,
      "lower_time_ms": 14.409358962439,
      "evaluation_times_ms": [
        4.564,
        4.569,
        4.566,
        4.568,
        4.567
      ],
      "metadata": {
        "peak_memory_mb": 4418.000030517578
      }
    }
  },
  "{\"q\":\"bf16[4,4096,8,256]\",\"k\":\"bf16[4,4096,8,256]\",\"v\":\"bf16[4,4096,8,256]\",\"precision\":[[\"DEFAULT\",\"DEFAULT\"],[\"DEFAULT\",\"DEFAULT\"]],\"logits_dtype\":\"float32\",\"logits_scale\":0.0625,\"bias\":null,\"logits_soft_cap\":null,\"mask\":{\"bool_mask\":null,\"q_start\":null,\"q_end\":null,\"k_start\":null,\"k_end\":null,\"is_causal\":true},\"dropout_mask\":null,\"dropout_rate\":0.0,\"paging_info\":null,\"q_indices\":null,\"k_indices\":null,\"normalize_output\":true,\"return_residuals\":false}": {
    "{}": {
      "compile_time_ms": 1677.936063031666,
      "lower_time_ms": 18.998496001586318,
      "evaluation_times_ms": [
        2.805,
        2.803,
        2.806,
        2.807,
        2.805
      ],
      "metadata": {
        "peak_memory_mb": 2368.0
      }
    }
  },
  "{\"q\":\"bf16[4,4096,8,256]\",\"k\":\"bf16[4,4096,8,256]\",\"v\":\"bf16[4,4096,8,256]\",\"precision\":[\"BF16_BF16_F32\",\"BF16_BF16_F32\"],\"logits_dtype\":\"float32\",\"logits_scale\":0.0625,\"bias\":null,\"logits_soft_cap\":null,\"mask\":{\"bool_mask\":null,\"q_start\":null,\"q_end\":null,\"k_start\":null,\"k_end\":null,\"is_causal\":true},\"dropout_mask\":null,\"dropout_rate\":0.0,\"paging_info\":null,\"q_indices\":null,\"k_indices\":null,\"normalize_output\":true,\"return_residuals\":true}": {
    "{}": {
      "compile_time_ms": 1680.7627670350485,
      "lower_time_ms": 16.41536405077204,
      "evaluation_times_ms": [
        2.786,
        2.788,
        2.787,
        2.79,
        2.788
      ],
      "metadata": {
        "peak_memory_mb": 2369.000030517578
      }
    }
  },
  "{\"q\":\"f16[4,4096,8,256]\",\"k\":\"f16[4,4096,8,256]\",\"v\":\"f16[4,4096,8,256]\",\"precision\":[\"BF16_BF16_F32\",\"BF16_BF16_F32\"],\"logits_dtype\":\"float32\",\"logits_scale\":0.0625,\"bias\":null,\"logits_soft_cap\":null,\"mask\":{\"bool_mask\":null,\"q_start\":null,\"q_end\":null,\"k_start\":null,\"k_end\":null,\"is_causal\":true},\"dropout_mask\":null,\"dropout_rate\":0.0,\"paging_info\":null,\"q_indices\":null,\"k_indices\":null,\"normalize_output\":true,\"return_residuals\":false}": {
    "{}": {
      "compile_time_ms": 1667.4916799529456,
      "lower_time_ms": 16.508047992829233,
      "evaluation_times_ms": [
        2.954,
        2.949,
        2.951,
        2.956,
        2.953
      ],
      "metadata": {
        "peak_memory_mb": 2368.0
      }
    }
  },
  "{\"q\":\"f16[4,4096,8,256]\",\"k\":\"f16[4,4096,8,256]\",\"v\":\"f16[4,4096,8,256]\",\"precision\":[\"BF16_BF16_F32\",\"BF16_BF16_F32\"],\"logits_dtype\":\"float32\",\"logits_scale\":0.0625,\"bias\":null,\"logits_soft_cap\":null,\"mask\":{\"bool_mask\":null,\"q_start\":null,\"q_end\":null,\"k_start\":null,\"k_end\":null,\"is_causal\":true},\"dropout_mask\":null,\"dropout_rate\":0.0,\"paging_info\":null,\"q_indices\":null,\"k_indices\":null,\"normalize_output\":true,\"return_residuals\":true}": {
    "{}": {
      "compile_time_ms": 1671.8024259898812,
      "lower_time_ms": 15.819924999959767,
      "evaluation_times_ms": [
        2.952,
        2.95,
        2.953,
        2.951,
        2.953
      ],
      "metadata": {
        "peak_memory_mb": 2369.000030517578
      }
    }
  },
  "{\"q\":\"bf16[4,4096,8,256]\",\"k\":\"bf16[4,4096,8,256]\",\"v\":\"bf16[4,4096,8,256]\",\"precision\":[[\"DEFAULT\",\"DEFAULT\"],[\"DEFAULT\",\"DEFAULT\"]],\"logits_dtype\":\"float32\",\"logits_scale\":0.0625,\"bias\":null,\"logits_soft_cap\":null,\"mask\":{\"bool_mask\":null,\"q_start\":null,\"q_end\":null,\"k_start\":null,\"k_end\":null,\"is_causal\":false},\"dropout_mask\":null,\"dropout_rate\":0.0,\"paging_info\":null,\"q_indices\":null,\"k_indices\":null,\"normalize_output\":true,\"return_residuals\":false}": {
    "{}": {
      "compile_time_ms": 1372.030497994274,
      "lower_time_ms": 13.666066981386393,
      "evaluation_times_ms": [
        2.673,
        2.672,
        2.675,
        2.672,
        2.673
      ],
      "metadata": {
        "peak_memory_mb": 2368.0
      }
    }
  },
  "{\"q\":\"bf16[4,4096,8,256]\",\"k\":\"bf16[4,4096,8,256]\",\"v\":\"bf16[4,4096,8,256]\",\"precision\":[\"BF16_BF16_F32\",\"BF16_BF16_F32\"],\"logits_dtype\":\"float32\",\"logits_scale\":0.0625,\"bias\":null,\"logits_soft_cap\":null,\"mask\":{\"bool_mask\":null,\"q_start\":null,\"q_end\":null,\"k_start\":null,\"k_end\":null,\"is_causal\":false},\"dropout_mask\":null,\"dropout_rate\":0.0,\"paging_info\":null,\"q_indices\":null,\"k_indices\":null,\"normalize_output\":true,\"return_residuals\":true}": {
    "{}": {
      "compile_time_ms": 1373.3277620049194,
      "lower_time_ms": 13.696447014808655,
      "evaluation_times_ms": [
        2.683,
        2.68,
        2.681,
        2.683,
        2.682
      ],
      "metadata": {
        "peak_memory_mb": 2369.000030517578
      }
    }
  },
  "{\"q\":\"f16[4,4096,8,256]\",\"k\":\"f16[4,4096,8,256]\",\"v\":\"f16[4,4096,8,256]\",\"precision\":[\"BF16_BF16_F32\",\"BF16_BF16_F32\"],\"logits_dtype\":\"float32\",\"logits_scale\":0.0625,\"bias\":null,\"logits_soft_cap\":null,\"mask\":{\"bool_mask\":null,\"q_start\":null,\"q_end\":null,\"k_start\":null,\"k_end\":null,\"is_causal\":false},\"dropout_mask\":null,\"dropout_rate\":0.0,\"paging_info\":null,\"q_indices\":null,\"k_indices\":null,\"normalize_output\":true,\"return_residuals\":false}": {
    "{}": {
      "compile_time_ms": 2457.8807079815306,
      "lower_time_ms": 108.8496139855124,
      "evaluation_times_ms": [
        2.851,
        2.848,
        2.845,
        2.849,
        2.85
      ],
      "metadata": {
        "peak_memory_mb": 2368.0
      }
    }
  },
  "{\"q\":\"f16[4,4096,8,256]\",\"k\":\"f16[4,4096,8,256]\",\"v\":\"f16[4,4096,8,256]\",\"precision\":[\"BF16_BF16_F32\",\"BF16_BF16_F32\"],\"logits_dtype\":\"float32\",\"logits_scale\":0.0625,\"bias\":null,\"logits_soft_cap\":null,\"mask\":{\"bool_mask\":null,\"q_start\":null,\"q_end\":null,\"k_start\":null,\"k_end\":null,\"is_causal\":false},\"dropout_mask\":null,\"dropout_rate\":0.0,\"paging_info\":null,\"q_indices\":null,\"k_indices\":null,\"normalize_output\":true,\"return_residuals\":true}": {
    "{}": {
      "compile_time_ms": 1385.993944015354,
      "lower_time_ms": 15.247203991748393,
      "evaluation_times_ms": [
        2.846,
        2.845,
        2.846,
        2.85,
        2.85
      ],
      "metadata": {
        "peak_memory_mb": 2369.000030517578
      }
    }
  },
  "{\"q\":\"bf16[2,8192,32,64]\",\"k\":\"bf16[2,8192,32,64]\",\"v\":\"bf16[2,8192,32,64]\",\"precision\":[[\"DEFAULT\",\"DEFAULT\"],[\"DEFAULT\",\"DEFAULT\"]],\"logits_dtype\":\"float32\",\"logits_scale\":0.125,\"bias\":null,\"logits_soft_cap\":null,\"mask\":{\"bool_mask\":null,\"q_start\":null,\"q_end\":null,\"k_start\":null,\"k_end\":null,\"is_causal\":true},\"dropout_mask\":null,\"dropout_rate\":0.0,\"paging_info\":null,\"q_indices\":null,\"k_indices\":null,\"normalize_output\":true,\"return_residuals\":false}": {
    "{}": {
      "compile_time_ms": 1695.6729409866966,
      "lower_time_ms": 17.442630021832883,
      "evaluation_times_ms": [
        19.03,
        19.02,
        19.017,
        19.024,
        19.01
      ],
      "metadata": {
        "peak_memory_mb": 16704.0
      }
    }
  },
  "{\"q\":\"bf16[2,8192,32,64]\",\"k\":\"bf16[2,8192,32,64]\",\"v\":\"bf16[2,8192,32,64]\",\"precision\":[\"BF16_BF16_F32\",\"BF16_BF16_F32\"],\"logits_dtype\":\"float32\",\"logits_scale\":0.125,\"bias\":null,\"logits_soft_cap\":null,\"mask\":{\"bool_mask\":null,\"q_start\":null,\"q_end\":null,\"k_start\":null,\"k_end\":null,\"is_causal\":true},\"dropout_mask\":null,\"dropout_rate\":0.0,\"paging_info\":null,\"q_indices\":null,\"k_indices\":null,\"normalize_output\":true,\"return_residuals\":true}": {
    "{}": {
      "compile_time_ms": 1689.4155479967594,
      "lower_time_ms": 15.23398800054565,
      "evaluation_times_ms": [
        19.031,
        19.015,
        19.027,
        19.024,
        19.017
      ],
      "metadata": {
        "peak_memory_mb": 16708.000030517578
      }
    }
  },
  "{\"q\":\"f16[2,8192,32,64]\",\"k\":\"f16[2,8192,32,64]\",\"v\":\"f16[2,8192,32,64]\",\"precision\":[\"BF16_BF16_F32\",\"BF16_BF16_F32\"],\"logits_dtype\":\"float32\",\"logits_scale\":0.125,\"bias\":null,\"logits_soft_cap\":null,\"mask\":{\"bool_mask\":null,\"q_start\":null,\"q_end\":null,\"k_start\":null,\"k_end\":null,\"is_causal\":true},\"dropout_mask\":null,\"dropout_rate\":0.0,\"paging_info\":null,\"q_indices\":null,\"k_indices\":null,\"normalize_output\":true,\"return_residuals\":false}": {
    "{}": {
      "compile_time_ms": 1673.0575709952973,
      "lower_time_ms": 16.2123289774172,
      "evaluation_times_ms": [
        19.028,
        19.029,
        19.02,
        19.027,
        19.034
      ],
      "metadata": {
        "peak_memory_mb": 16704.0
      }
    }
  },
  "{\"q\":\"f16[2,8192,32,64]\",\"k\":\"f16[2,8192,32,64]\",\"v\":\"f16[2,8192,32,64]\",\"precision\":[\"BF16_BF16_F32\",\"BF16_BF16_F32\"],\"logits_dtype\":\"float32\",\"logits_scale\":0.125,\"bias\":null,\"logits_soft_cap\":null,\"mask\":{\"bool_mask\":null,\"q_start\":null,\"q_end\":null,\"k_start\":null,\"k_end\":null,\"is_causal\":true},\"dropout_mask\":null,\"dropout_rate\":0.0,\"paging_info\":null,\"q_indices\":null,\"k_indices\":null,\"normalize_output\":true,\"return_residuals\":true}": {
    "{}": {
      "compile_time_ms": 1674.960519943852,
      "lower_time_ms": 15.71701600914821,
      "evaluation_times_ms": [
        19.051,
        19.029,
        19.019,
        19.021,
        19.037
      ],
      "metadata": {
        "peak_memory_mb": 16708.000030517578
      }
    }
  },
  "{\"q\":\"bf16[2,8192,32,64]\",\"k\":\"bf16[2,8192,32,64]\",\"v\":\"bf16[2,8192,32,64]\",\"precision\":[[\"DEFAULT\",\"DEFAULT\"],[\"DEFAULT\",\"DEFAULT\"]],\"logits_dtype\":\"float32\",\"logits_scale\":0.125,\"bias\":null,\"logits_soft_cap\":null,\"mask\":{\"bool_mask\":null,\"q_start\":null,\"q_end\":null,\"k_start\":null,\"k_end\":null,\"is_causal\":false},\"dropout_mask\":null,\"dropout_rate\":0.0,\"paging_info\":null,\"q_indices\":null,\"k_indices\":null,\"normalize_output\":true,\"return_residuals\":false}": {
    "{}": {
      "compile_time_ms": 1064.774139027577,
      "lower_time_ms": 14.101881009992212,
      "evaluation_times_ms": [
        16.024,
        16.014,
        16.026,
        16.015,
        16.016
      ],
      "metadata": {
        "peak_memory_mb": 16640.0
      }
    }
  },
  "{\"q\":\"bf16[2,8192,32,64]\",\"k\":\"bf16[2,8192,32,64]\",\"v\":\"bf16[2,8192,32,64]\",\"precision\":[\"BF16_BF16_F32\",\"BF16_BF16_F32\"],\"logits_dtype\":\"float32\",\"logits_scale\":0.125,\"bias\":null,\"logits_soft_cap\":null,\"mask\":{\"bool_mask\":null,\"q_start\":null,\"q_end\":null,\"k_start\":null,\"k_end\":null,\"is_causal\":false},\"dropout_mask\":null,\"dropout_rate\":0.0,\"paging_info\":null,\"q_indices\":null,\"k_indices\":null,\"normalize_output\":true,\"return_residuals\":true}": {
    "{}": {
      "compile_time_ms": 1061.3956360029988,
      "lower_time_ms": 13.46787897637114,
      "evaluation_times_ms": [
        16.024,
        16.007,
        16.014,
        16.016,
        16.025
      ],
      "metadata": {
        "peak_memory_mb": 16644.000030517578
      }
    }
  },
  "{\"q\":\"f16[2,8192,32,64]\",\"k\":\"f16[2,8192,32,64]\",\"v\":\"f16[2,8192,32,64]\",\"precision\":[\"BF16_BF16_F32\",\"BF16_BF16_F32\"],\"logits_dtype\":\"float32\",\"logits_scale\":0.125,\"bias\":null,\"logits_soft_cap\":null,\"mask\":{\"bool_mask\":null,\"q_start\":null,\"q_end\":null,\"k_start\":null,\"k_end\":null,\"is_causal\":false},\"dropout_mask\":null,\"dropout_rate\":0.0,\"paging_info\":null,\"q_indices\":null,\"k_indices\":null,\"normalize_output\":true,\"return_residuals\":false}": {
    "{}": {
      "compile_time_ms": 2106.982871016953,
      "lower_time_ms": 111.83008702937514,
      "evaluation_times_ms": [
        16.022,
        16.015,
        16.012,
        16.022,
        16.02
      ],
      "metadata": {
        "peak_memory_mb": 16640.0
      }
    }
  },
  "{\"q\":\"f16[2,8192,32,64]\",\"k\":\"f16[2,8192,32,64]\",\"v\":\"f16[2,8192,32,64]\",\"precision\":[\"BF16_BF16_F32\",\"BF16_BF16_F32\"],\"logits_dtype\":\"float32\",\"logits_scale\":0.125,\"bias\":null,\"logits_soft_cap\":null,\"mask\":{\"bool_mask\":null,\"q_start\":null,\"q_end\":null,\"k_start\":null,\"k_end\":null,\"is_causal\":false},\"dropout_mask\":null,\"dropout_rate\":0.0,\"paging_info\":null,\"q_indices\":null,\"k_indices\":null,\"normalize_output\":true,\"return_residuals\":true}": {
    "{}": {
      "compile_time_ms": 1039.5897320122458,
      "lower_time_ms": 13.991682964842767,
      "evaluation_times_ms": [
        16.023,
        16.009,
        16.018,
        16.015,
        16.026
      ],
      "metadata": {
        "peak_memory_mb": 16644.000030517578
      }
    }
  },
  "{\"q\":\"bf16[2,8192,16,128]\",\"k\":\"bf16[2,8192,16,128]\",\"v\":\"bf16[2,8192,16,128]\",\"precision\":[[\"DEFAULT\",\"DEFAULT\"],[\"DEFAULT\",\"DEFAULT\"]],\"logits_dtype\":\"float32\",\"logits_scale\":0.08838834764831843,\"bias\":null,\"logits_soft_cap\":null,\"mask\":{\"bool_mask\":null,\"q_start\":null,\"q_end\":null,\"k_start\":null,\"k_end\":null,\"is_causal\":true},\"dropout_mask\":null,\"dropout_rate\":0.0,\"paging_info\":null,\"q_indices\":null,\"k_indices\":null,\"normalize_output\":true,\"return_residuals\":false}": {
    "{}": {
      "compile_time_ms": 1522.6409679744393,
      "lower_time_ms": 18.94684898434207,
      "evaluation_times_ms": [
        9.712,
        9.713,
        9.724,
        9.714,
        9.72
      ],
      "metadata": {
        "peak_memory_mb": 8512.0
      }
    }
  },
  "{\"q\":\"bf16[2,8192,16,128]\",\"k\":\"bf16[2,8192,16,128]\",\"v\":\"bf16[2,8192,16,128]\",\"precision\":[\"BF16_BF16_F32\",\"BF16_BF16_F32\"],\"logits_dtype\":\"float32\",\"logits_scale\":0.08838834764831843,\"bias\":null,\"logits_soft_cap\":null,\"mask\":{\"bool_mask\":null,\"q_start\":null,\"q_end\":null,\"k_start\":null,\"k_end\":null,\"is_causal\":true},\"dropout_mask\":null,\"dropout_rate\":0.0,\"paging_info\":null,\"q_indices\":null,\"k_indices\":null,\"normalize_output\":true,\"return_residuals\":true}": {
    "{}": {
      "compile_time_ms": 1517.8134810412303,
      "lower_time_ms": 16.442633990664035,
      "evaluation_times_ms": [
        9.711,
        9.72,
        9.71,
        9.708,
        9.71
      ],
      "metadata": {
        "peak_memory_mb": 8514.000030517578
      }
    }
  },
  "{\"q\":\"f16[2,8192,16,128]\",\"k\":\"f16[2,8192,16,128]\",\"v\":\"f16[2,8192,16,128]\",\"precision\":[\"BF16_BF16_F32\",\"BF16_BF16_F32\"],\"logits_dtype\":\"float32\",\"logits_scale\":0.08838834764831843,\"bias\":null,\"logits_soft_cap\":null,\"mask\":{\"bool_mask\":null,\"q_start\":null,\"q_end\":null,\"k_start\":null,\"k_end\":null,\"is_causal\":true},\"dropout_mask\":null,\"dropout_rate\":0.0,\"paging_info\":null,\"q_indices\":null,\"k_indices\":null,\"normalize_output\":true,\"return_residuals\":false}": {
    "{}": {
      "compile_time_ms": 1512.273395957891,
      "lower_time_ms": 15.770389989484102,
      "evaluation_times_ms": [
        9.836,
        9.838,
        9.835,
        9.839,
        9.841
      ],
      "metadata": {
        "peak_memory_mb": 8576.0
      }
    }
  },
  "{\"q\":\"f16[2,8192,16,128]\",\"k\":\"f16[2,8192,16,128]\",\"v\":\"f16[2,8192,16,128]\",\"precision\":[\"BF16_BF16_F32\",\"BF16_BF16_F32\"],\"logits_dtype\":\"float32\",\"logits_scale\":0.08838834764831843,\"bias\":null,\"logits_soft_cap\":null,\"mask\":{\"bool_mask\":null,\"q_start\":null,\"q_end\":null,\"k_start\":null,\"k_end\":null,\"is_causal\":true},\"dropout_mask\":null,\"dropout_rate\":0.0,\"paging_info\":null,\"q_indices\":null,\"k_indices\":null,\"normalize_output\":true,\"return_residuals\":true}": {
    "{}": {
      "compile_time_ms": 1522.0883149886504,
      "lower_time_ms": 15.875030949246138,
      "evaluation_times_ms": [
        9.838,
        9.833,
        9.84,
        9.835,
        9.84
      ],
      "metadata": {
        "peak_memory_mb": 8578.000030517578
      }
    }
  },
  "{\"q\":\"bf16[2,8192,16,128]\",\"k\":\"bf16[2,8192,16,128]\",\"v\":\"bf16[2,8192,16,128]\",\"precision\":[[\"DEFAULT\",\"DEFAULT\"],[\"DEFAULT\",\"DEFAULT\"]],\"logits_dtype\":\"float32\",\"logits_scale\":0.08838834764831843,\"bias\":null,\"logits_soft_cap\":null,\"mask\":{\"bool_mask\":null,\"q_start\":null,\"q_end\":null,\"k_start\":null,\"k_end\":null,\"is_causal\":false},\"dropout_mask\":null,\"dropout_rate\":0.0,\"paging_info\":null,\"q_indices\":null,\"k_indices\":null,\"normalize_output\":true,\"return_residuals\":false}": {
    "{}": {
      "compile_time_ms": 1095.7351279794239,
      "lower_time_ms": 14.109114010352641,
      "evaluation_times_ms": [
        8.822,
        8.829,
        8.824,
        8.825,
        8.825
      ],
      "metadata": {
        "peak_memory_mb": 8512.0
      }
    }
  },
  "{\"q\":\"bf16[2,8192,16,128]\",\"k\":\"bf16[2,8192,16,128]\",\"v\":\"bf16[2,8192,16,128]\",\"precision\":[\"BF16_BF16_F32\",\"BF16_BF16_F32\"],\"logits_dtype\":\"float32\",\"logits_scale\":0.08838834764831843,\"bias\":null,\"logits_soft_cap\":null,\"mask\":{\"bool_mask\":null,\"q_start\":null,\"q_end\":null,\"k_start\":null,\"k_end\":null,\"is_causal\":false},\"dropout_mask\":null,\"dropout_rate\":0.0,\"paging_info\":null,\"q_indices\":null,\"k_indices\":null,\"normalize_output\":true,\"return_residuals\":true}": {
    "{}": {
      "compile_time_ms": 1098.8035089685582,
      "lower_time_ms": 13.590077986009419,
      "evaluation_times_ms": [
        8.817,
        8.818,
        8.825,
        8.82,
        8.827
      ],
      "metadata": {
        "peak_memory_mb": 8514.000030517578
      }
    }
  },
  "{\"q\":\"f16[2,8192,16,128]\",\"k\":\"f16[2,8192,16,128]\",\"v\":\"f16[2,8192,16,128]\",\"precision\":[\"BF16_BF16_F32\",\"BF16_BF16_F32\"],\"logits_dtype\":\"float32\",\"logits_scale\":0.08838834764831843,\"bias\":null,\"logits_soft_cap\":null,\"mask\":{\"bool_mask\":null,\"q_start\":null,\"q_end\":null,\"k_start\":null,\"k_end\":null,\"is_causal\":false},\"dropout_mask\":null,\"dropout_rate\":0.0,\"paging_info\":null,\"q_indices\":null,\"k_indices\":null,\"normalize_output\":true,\"return_residuals\":false}": {
    "{}": {
      "compile_time_ms": 2186.3401959999464,
      "lower_time_ms": 113.07404097169638,
      "evaluation_times_ms": [
        8.945,
        8.941,
        8.946,
        8.945,
        8.944
      ],
      "metadata": {
        "peak_memory_mb": 8512.0
      }
    }
  },
  "{\"q\":\"f16[2,8192,16,128]\",\"k\":\"f16[2,8192,16,128]\",\"v\":\"f16[2,8192,16,128]\",\"precision\":[\"BF16_BF16_F32\",\"BF16_BF16_F32\"],\"logits_dtype\":\"float32\",\"logits_scale\":0.08838834764831843,\"bias\":null,\"logits_soft_cap\":null,\"mask\":{\"bool_mask\":null,\"q_start\":null,\"q_end\":null,\"k_start\":null,\"k_end\":null,\"is_causal\":false},\"dropout_mask\":null,\"dropout_rate\":0.0,\"paging_info\":null,\"q_indices\":null,\"k_indices\":null,\"normalize_output\":true,\"return_residuals\":true}": {
    "{}": {
      "compile_time_ms": 1104.2148980195634,
      "lower_time_ms": 14.233722991775721,
      "evaluation_times_ms": [
        8.946,
        8.946,
        8.942,
        8.948,
        8.94
      ],
      "metadata": {
        "peak_memory_mb": 8514.000030517578
      }
    }
  },
  "{\"q\":\"bf16[2,8192,8,256]\",\"k\":\"bf16[2,8192,8,256]\",\"v\":\"bf16[2,8192,8,256]\",\"precision\":[[\"DEFAULT\",\"DEFAULT\"],[\"DEFAULT\",\"DEFAULT\"]],\"logits_dtype\":\"float32\",\"logits_scale\":0.0625,\"bias\":null,\"logits_soft_cap\":null,\"mask\":{\"bool_mask\":null,\"q_start\":null,\"q_end\":null,\"k_start\":null,\"k_end\":null,\"is_causal\":true},\"dropout_mask\":null,\"dropout_rate\":0.0,\"paging_info\":null,\"q_indices\":null,\"k_indices\":null,\"normalize_output\":true,\"return_residuals\":false}": {
    "{}": {
      "compile_time_ms": 1787.7943850471638,
      "lower_time_ms": 18.02903600037098,
      "evaluation_times_ms": [
        5.599,
        5.597,
        5.596,
        5.596,
        5.599
      ],
      "metadata": {
        "peak_memory_mb": 4416.0
      }
    }
  },
  "{\"q\":\"bf16[2,8192,8,256]\",\"k\":\"bf16[2,8192,8,256]\",\"v\":\"bf16[2,8192,8,256]\",\"precision\":[\"BF16_BF16_F32\",\"BF16_BF16_F32\"],\"logits_dtype\":\"float32\",\"logits_scale\":0.0625,\"bias\":null,\"logits_soft_cap\":null,\"mask\":{\"bool_mask\":null,\"q_start\":null,\"q_end\":null,\"k_start\":null,\"k_end\":null,\"is_causal\":true},\"dropout_mask\":null,\"dropout_rate\":0.0,\"paging_info\":null,\"q_indices\":null,\"k_indices\":null,\"normalize_output\":true,\"return_residuals\":true}": {
    "{}": {
      "compile_time_ms": 1784.3930789967999,
      "lower_time_ms": 15.227281022816896,
      "evaluation_times_ms": [
        5.584,
        5.588,
        5.595,
        5.586,
        5.59
      ],
      "metadata": {
        "peak_memory_mb": 4417.000030517578
      }
    }
  },
  "{\"q\":\"f16[2,8192,8,256]\",\"k\":\"f16[2,8192,8,256]\",\"v\":\"f16[2,8192,8,256]\",\"precision\":[\"BF16_BF16_F32\",\"BF16_BF16_F32\"],\"logits_dtype\":\"float32\",\"logits_scale\":0.0625,\"bias\":null,\"logits_soft_cap\":null,\"mask\":{\"bool_mask\":null,\"q_start\":null,\"q_end\":null,\"k_start\":null,\"k_end\":null,\"is_causal\":true},\"dropout_mask\":null,\"dropout_rate\":0.0,\"paging_info\":null,\"q_indices\":null,\"k_indices\":null,\"normalize_output\":true,\"return_residuals\":false}": {
    "{}": {
      "compile_time_ms": 1804.8484910395928,
      "lower_time_ms": 17.44659000542015,
      "evaluation_times_ms": [
        5.712,
        5.705,
        5.707,
        5.708,
        5.703
      ],
      "metadata": {
        "peak_memory_mb": 4480.0
      }
    }
  },
  "{\"q\":\"f16[2,8192,8,256]\",\"k\":\"f16[2,8192,8,256]\",\"v\":\"f16[2,8192,8,256]\",\"precision\":[\"BF16_BF16_F32\",\"BF16_BF16_F32\"],\"logits_dtype\":\"float32\",\"logits_scale\":0.0625,\"bias\":null,\"logits_soft_cap\":null,\"mask\":{\"bool_mask\":null,\"q_start\":null,\"q_end\":null,\"k_start\":null,\"k_end\":null,\"is_causal\":true},\"dropout_mask\":null,\"dropout_rate\":0.0,\"paging_info\":null,\"q_indices\":null,\"k_indices\":null,\"normalize_output\":true,\"return_residuals\":true}": {
    "{}": {
      "compile_time_ms": 1811.0678360098973,
      "lower_time_ms": 16.444250009953976,
      "evaluation_times_ms": [
        5.705,
        5.7,
        5.712,
        5.707,
        5.71
      ],
      "metadata": {
        "peak_memory_mb": 4481.000030517578
      }
    }
  },
  "{\"q\":\"bf16[2,8192,8,256]\",\"k\":\"bf16[2,8192,8,256]\",\"v\":\"bf16[2,8192,8,256]\",\"precision\":[[\"DEFAULT\",\"DEFAULT\"],[\"DEFAULT\",\"DEFAULT\"]],\"logits_dtype\":\"float32\",\"logits_scale\":0.0625,\"bias\":null,\"logits_soft_cap\":null,\"mask\":{\"bool_mask\":null,\"q_start\":null,\"q_end\":null,\"k_start\":null,\"k_end\":null,\"is_causal\":false},\"dropout_mask\":null,\"dropout_rate\":0.0,\"paging_info\":null,\"q_indices\":null,\"k_indices\":null,\"normalize_output\":true,\"return_residuals\":false}": {
    "{}": {
      "compile_time_ms": 1472.4141629994847,
      "lower_time_ms": 14.071533980313689,
      "evaluation_times_ms": [
        5.255,
        5.267,
        5.264,
        5.27,
        5.263
      ],
      "metadata": {
        "peak_memory_mb": 4416.0
      }
    }
  },
  "{\"q\":\"bf16[2,8192,8,256]\",\"k\":\"bf16[2,8192,8,256]\",\"v\":\"bf16[2,8192,8,256]\",\"precision\":[\"BF16_BF16_F32\",\"BF16_BF16_F32\"],\"logits_dtype\":\"float32\",\"logits_scale\":0.0625,\"bias\":null,\"logits_soft_cap\":null,\"mask\":{\"bool_mask\":null,\"q_start\":null,\"q_end\":null,\"k_start\":null,\"k_end\":null,\"is_causal\":false},\"dropout_mask\":null,\"dropout_rate\":0.0,\"paging_info\":null,\"q_indices\":null,\"k_indices\":null,\"normalize_output\":true,\"return_residuals\":true}": {
    "{}": {
      "compile_time_ms": 1471.727018011734,
      "lower_time_ms": 14.706093003042042,
      "evaluation_times_ms": [
        5.266,
        5.27,
        5.269,
        5.265,
        5.265
      ],
      "metadata": {
        "peak_memory_mb": 4417.000030517578
      }
    }
  },
  "{\"q\":\"f16[2,8192,8,256]\",\"k\":\"f16[2,8192,8,256]\",\"v\":\"f16[2,8192,8,256]\",\"precision\":[\"BF16_BF16_F32\",\"BF16_BF16_F32\"],\"logits_dtype\":\"float32\",\"logits_scale\":0.0625,\"bias\":null,\"logits_soft_cap\":null,\"mask\":{\"bool_mask\":null,\"q_start\":null,\"q_end\":null,\"k_start\":null,\"k_end\":null,\"is_causal\":false},\"dropout_mask\":null,\"dropout_rate\":0.0,\"paging_info\":null,\"q_indices\":null,\"k_indices\":null,\"normalize_output\":true,\"return_residuals\":false}": {
    "{}": {
      "compile_time_ms": 2577.957757981494,
      "lower_time_ms": 108.43555204337463,
      "evaluation_times_ms": [
        5.382,
        5.38,
        5.379,
        5.383,
        5.385
      ],
      "metadata": {
        "peak_memory_mb": 4416.0
      }
    }
  },
  "{\"q\":\"f16[2,8192,8,256]\",\"k\":\"f16[2,8192,8,256]\",\"v\":\"f16[2,8192,8,256]\",\"precision\":[\"BF16_BF16_F32\",\"BF16_BF16_F32\"],\"logits_dtype\":\"float32\",\"logits_scale\":0.0625,\"bias\":null,\"logits_soft_cap\":null,\"mask\":{\"bool_mask\":null,\"q_start\":null,\"q_end\":null,\"k_start\":null,\"k_end\":null,\"is_causal\":false},\"dropout_mask\":null,\"dropout_rate\":0.0,\"paging_info\":null,\"q_indices\":null,\"k_indices\":null,\"normalize_output\":true,\"return_residuals\":true}": {
    "{}": {
      "compile_time_ms": 1473.3891020296142,
      "lower_time_ms": 14.78766999207437,
      "evaluation_times_ms": [
        5.383,
        5.377,
        5.386,
        5.381,
        5.378
      ],
      "metadata": {
        "peak_memory_mb": 4417.000030517578
      }
    }
  },
  "{\"q\":\"bf16[1,16384,32,64]\",\"k\":\"bf16[1,16384,32,64]\",\"v\":\"bf16[1,16384,32,64]\",\"precision\":[[\"DEFAULT\",\"DEFAULT\"],[\"DEFAULT\",\"DEFAULT\"]],\"logits_dtype\":\"float32\",\"logits_scale\":0.125,\"bias\":null,\"logits_soft_cap\":null,\"mask\":{\"bool_mask\":null,\"q_start\":null,\"q_end\":null,\"k_start\":null,\"k_end\":null,\"is_causal\":true},\"dropout_mask\":null,\"dropout_rate\":0.0,\"paging_info\":null,\"q_indices\":null,\"k_indices\":null,\"normalize_output\":true,\"return_residuals\":false}": {
    "{}": {
      "compile_time_ms": 1604.6598759712651,
      "lower_time_ms": 18.16836599027738,
      "evaluation_times_ms": [
        37.838,
        37.841,
        37.834,
        37.825,
        37.832
      ],
      "metadata": {
        "peak_memory_mb": 33280.0
      }
    }
  },
  "{\"q\":\"bf16[1,16384,32,64]\",\"k\":\"bf16[1,16384,32,64]\",\"v\":\"bf16[1,16384,32,64]\",\"precision\":[\"BF16_BF16_F32\",\"BF16_BF16_F32\"],\"logits_dtype\":\"float32\",\"logits_scale\":0.125,\"bias\":null,\"logits_soft_cap\":null,\"mask\":{\"bool_mask\":null,\"q_start\":null,\"q_end\":null,\"k_start\":null,\"k_end\":null,\"is_causal\":true},\"dropout_mask\":null,\"dropout_rate\":0.0,\"paging_info\":null,\"q_indices\":null,\"k_indices\":null,\"normalize_output\":true,\"return_residuals\":true}": {
    "{}": {
      "compile_time_ms": 1599.3689929600805,
      "lower_time_ms": 15.27134096249938,
      "evaluation_times_ms": [
        37.811,
        37.833,
        37.824,
        37.818,
        37.809
      ],
      "metadata": {
        "peak_memory_mb": 33284.00003051758
      }
    }
  },
  "{\"q\":\"f16[1,16384,32,64]\",\"k\":\"f16[1,16384,32,64]\",\"v\":\"f16[1,16384,32,64]\",\"precision\":[\"BF16_BF16_F32\",\"BF16_BF16_F32\"],\"logits_dtype\":\"float32\",\"logits_scale\":0.125,\"bias\":null,\"logits_soft_cap\":null,\"mask\":{\"bool_mask\":null,\"q_start\":null,\"q_end\":null,\"k_start\":null,\"k_end\":null,\"is_causal\":true},\"dropout_mask\":null,\"dropout_rate\":0.0,\"paging_info\":null,\"q_indices\":null,\"k_indices\":null,\"normalize_output\":true,\"return_residuals\":false}": {
    "{}": {
      "compile_time_ms": 1574.3124549626373,
      "lower_time_ms": 15.60720696579665,
      "evaluation_times_ms": [
        37.808,
        37.808,
        37.808,
        37.818,
        37.801
      ],
      "metadata": {
        "peak_memory_mb": 33280.0
      }
    }
  },
  "{\"q\":\"f16[1,16384,32,64]\",\"k\":\"f16[1,16384,32,64]\",\"v\":\"f16[1,16384,32,64]\",\"precision\":[\"BF16_BF16_F32\",\"BF16_BF16_F32\"],\"logits_dtype\":\"float32\",\"logits_scale\":0.125,\"bias\":null,\"logits_soft_cap\":null,\"mask\":{\"bool_mask\":null,\"q_start\":null,\"q_end\":null,\"k_start\":null,\"k_end\":null,\"is_causal\":true},\"dropout_mask\":null,\"dropout_rate\":0.0,\"paging_info\":null,\"q_indices\":null,\"k_indices\":null,\"normalize_output\":true,\"return_residuals\":true}": {
    "{}": {
      "compile_time_ms": 1573.4615150140598,
      "lower_time_ms": 15.442755015101284,
      "evaluation_times_ms": [
        37.81,
        37.813,
        37.807,
        37.796,
        37.815
      ],
      "metadata": {
        "peak_memory_mb": 33284.00003051758
      }
    }
  },
  "{\"q\":\"bf16[1,16384,32,64]\",\"k\":\"bf16[1,16384,32,64]\",\"v\":\"bf16[1,16384,32,64]\",\"precision\":[[\"DEFAULT\",\"DEFAULT\"],[\"DEFAULT\",\"DEFAULT\"]],\"logits_dtype\":\"float32\",\"logits_scale\":0.125,\"bias\":null,\"logits_soft_cap\":null,\"mask\":{\"bool_mask\":null,\"q_start\":null,\"q_end\":null,\"k_start\":null,\"k_end\":null,\"is_causal\":false},\"dropout_mask\":null,\"dropout_rate\":0.0,\"paging_info\":null,\"q_indices\":null,\"k_indices\":null,\"normalize_output\":true,\"return_residuals\":false}": {
    "{}": {
      "compile_time_ms": 995.3289729892276,
      "lower_time_ms": 13.424088014289737,
      "evaluation_times_ms": [
        32.275,
        32.264,
        32.265,
        32.27,
        32.263
      ],
      "metadata": {
        "peak_memory_mb": 33024.0
      }
    }
  },
  "{\"q\":\"bf16[1,16384,32,64]\",\"k\":\"bf16[1,16384,32,64]\",\"v\":\"bf16[1,16384,32,64]\",\"precision\":[\"BF16_BF16_F32\",\"BF16_BF16_F32\"],\"logits_dtype\":\"float32\",\"logits_scale\":0.125,\"bias\":null,\"logits_soft_cap\":null,\"mask\":{\"bool_mask\":null,\"q_start\":null,\"q_end\":null,\"k_start\":null,\"k_end\":null,\"is_causal\":false},\"dropout_mask\":null,\"dropout_rate\":0.0,\"paging_info\":null,\"q_indices\":null,\"k_indices\":null,\"normalize_output\":true,\"return_residuals\":true}": {
    "{}": {
      "compile_time_ms": 999.4751280173659,
      "lower_time_ms": 13.562504027504474,
      "evaluation_times_ms": [
        32.264,
        32.266,
        32.261,
        32.263,
        32.269
      ],
      "metadata": {
        "peak_memory_mb": 33028.00003051758
      }
    }
  },
  "{\"q\":\"f16[1,16384,32,64]\",\"k\":\"f16[1,16384,32,64]\",\"v\":\"f16[1,16384,32,64]\",\"precision\":[\"BF16_BF16_F32\",\"BF16_BF16_F32\"],\"logits_dtype\":\"float32\",\"logits_scale\":0.125,\"bias\":null,\"logits_soft_cap\":null,\"mask\":{\"bool_mask\":null,\"q_start\":null,\"q_end\":null,\"k_start\":null,\"k_end\":null,\"is_causal\":false},\"dropout_mask\":null,\"dropout_rate\":0.0,\"paging_info\":null,\"q_indices\":null,\"k_indices\":null,\"normalize_output\":true,\"return_residuals\":false}": {
    "{}": {
      "compile_time_ms": 2054.2949329828843,
      "lower_time_ms": 106.20059195207432,
      "evaluation_times_ms": [
        32.256,
        32.242,
        32.25,
        32.251,
        32.25
      ],
      "metadata": {
        "peak_memory_mb": 33024.0
      }
    }
  },
  "{\"q\":\"f16[1,16384,32,64]\",\"k\":\"f16[1,16384,32,64]\",\"v\":\"f16[1,16384,32,64]\",\"precision\":[\"BF16_BF16_F32\",\"BF16_BF16_F32\"],\"logits_dtype\":\"float32\",\"logits_scale\":0.125,\"bias\":null,\"logits_soft_cap\":null,\"mask\":{\"bool_mask\":null,\"q_start\":null,\"q_end\":null,\"k_start\":null,\"k_end\":null,\"is_causal\":false},\"dropout_mask\":null,\"dropout_rate\":0.0,\"paging_info\":null,\"q_indices\":null,\"k_indices\":null,\"normalize_output\":true,\"return_residuals\":true}": {
    "{}": {
      "compile_time_ms": 977.5755640002899,
      "lower_time_ms": 16.08136697905138,
      "evaluation_times_ms": [
        32.248,
        32.259,
        32.251,
        32.248,
        32.247
      ],
      "metadata": {
        "peak_memory_mb": 33028.00003051758
      }
    }
  },
  "{\"q\":\"bf16[1,16384,16,128]\",\"k\":\"bf16[1,16384,16,128]\",\"v\":\"bf16[1,16384,16,128]\",\"precision\":[[\"DEFAULT\",\"DEFAULT\"],[\"DEFAULT\",\"DEFAULT\"]],\"logits_dtype\":\"float32\",\"logits_scale\":0.08838834764831843,\"bias\":null,\"logits_soft_cap\":null,\"mask\":{\"bool_mask\":null,\"q_start\":null,\"q_end\":null,\"k_start\":null,\"k_end\":null,\"is_causal\":true},\"dropout_mask\":null,\"dropout_rate\":0.0,\"paging_info\":null,\"q_indices\":null,\"k_indices\":null,\"normalize_output\":true,\"return_residuals\":false}": {
    "{}": {
      "compile_time_ms": 1461.8896770407446,
      "lower_time_ms": 19.538407970685512,
      "evaluation_times_ms": [
        18.649,
        18.649,
        18.649,
        18.649,
        18.643
      ],
      "metadata": {
        "peak_memory_mb": 16960.0
      }
    }
  },
  "{\"q\":\"bf16[1,16384,16,128]\",\"k\":\"bf16[1,16384,16,128]\",\"v\":\"bf16[1,16384,16,128]\",\"precision\":[\"BF16_BF16_F32\",\"BF16_BF16_F32\"],\"logits_dtype\":\"float32\",\"logits_scale\":0.08838834764831843,\"bias\":null,\"logits_soft_cap\":null,\"mask\":{\"bool_mask\":null,\"q_start\":null,\"q_end\":null,\"k_start\":null,\"k_end\":null,\"is_causal\":true},\"dropout_mask\":null,\"dropout_rate\":0.0,\"paging_info\":null,\"q_indices\":null,\"k_indices\":null,\"normalize_output\":true,\"return_residuals\":true}": {
    "{}": {
      "compile_time_ms": 1460.800205997657,
      "lower_time_ms": 15.208899043500423,
      "evaluation_times_ms": [
        18.65,
        18.644,
        18.649,
        18.651,
        18.639
      ],
      "metadata": {
        "peak_memory_mb": 16962.000030517578
      }
    }
  },
  "{\"q\":\"f16[1,16384,16,128]\",\"k\":\"f16[1,16384,16,128]\",\"v\":\"f16[1,16384,16,128]\",\"precision\":[\"BF16_BF16_F32\",\"BF16_BF16_F32\"],\"logits_dtype\":\"float32\",\"logits_scale\":0.08838834764831843,\"bias\":null,\"logits_soft_cap\":null,\"mask\":{\"bool_mask\":null,\"q_start\":null,\"q_end\":null,\"k_start\":null,\"k_end\":null,\"is_causal\":true},\"dropout_mask\":null,\"dropout_rate\":0.0,\"paging_info\":null,\"q_indices\":null,\"k_indices\":null,\"normalize_output\":true,\"return_residuals\":false}": {
    "{}": {
      "compile_time_ms": 1470.3084399807267,
      "lower_time_ms": 15.387568972073495,
      "evaluation_times_ms": [
        18.767,
        18.767,
        18.76,
        18.759,
        18.767
      ],
      "metadata": {
        "peak_memory_mb": 16960.0
      }
    }
  },
  "{\"q\":\"f16[1,16384,16,128]\",\"k\":\"f16[1,16384,16,128]\",\"v\":\"f16[1,16384,16,128]\",\"precision\":[\"BF16_BF16_F32\",\"BF16_BF16_F32\"],\"logits_dtype\":\"float32\",\"logits_scale\":0.08838834764831843,\"bias\":null,\"logits_soft_cap\":null,\"mask\":{\"bool_mask\":null,\"q_start\":null,\"q_end\":null,\"k_start\":null,\"k_end\":null,\"is_causal\":true},\"dropout_mask\":null,\"dropout_rate\":0.0,\"paging_info\":null,\"q_indices\":null,\"k_indices\":null,\"normalize_output\":true,\"return_residuals\":true}": {
    "{}": {
      "compile_time_ms": 1472.1766660222784,
      "lower_time_ms": 15.124100027605891,
      "evaluation_times_ms": [
        18.767,
        18.767,
        18.771,
        18.771,
        18.764
      ],
      "metadata": {
        "peak_memory_mb": 16962.000030517578
      }
    }
  },
  "{\"q\":\"bf16[1,16384,16,128]\",\"k\":\"bf16[1,16384,16,128]\",\"v\":\"bf16[1,16384,16,128]\",\"precision\":[[\"DEFAULT\",\"DEFAULT\"],[\"DEFAULT\",\"DEFAULT\"]],\"logits_dtype\":\"float32\",\"logits_scale\":0.08838834764831843,\"bias\":null,\"logits_soft_cap\":null,\"mask\":{\"bool_mask\":null,\"q_start\":null,\"q_end\":null,\"k_start\":null,\"k_end\":null,\"is_causal\":false},\"dropout_mask\":null,\"dropout_rate\":0.0,\"paging_info\":null,\"q_indices\":null,\"k_indices\":null,\"normalize_output\":true,\"return_residuals\":false}": {
    "{}": {
      "compile_time_ms": 1157.4215320288204,
      "lower_time_ms": 13.437202956993133,
      "evaluation_times_ms": [
        17.751,
        17.756,
        17.739,
        17.753,
        17.765
      ],
      "metadata": {
        "peak_memory_mb": 16704.0
      }
    }
  },
  "{\"q\":\"bf16[1,16384,16,128]\",\"k\":\"bf16[1,16384,16,128]\",\"v\":\"bf16[1,16384,16,128]\",\"precision\":[\"BF16_BF16_F32\",\"BF16_BF16_F32\"],\"logits_dtype\":\"float32\",\"logits_scale\":0.08838834764831843,\"bias\":null,\"logits_soft_cap\":null,\"mask\":{\"bool_mask\":null,\"q_start\":null,\"q_end\":null,\"k_start\":null,\"k_end\":null,\"is_causal\":false},\"dropout_mask\":null,\"dropout_rate\":0.0,\"paging_info\":null,\"q_indices\":null,\"k_indices\":null,\"normalize_output\":true,\"return_residuals\":true}": {
    "{}": {
      "compile_time_ms": 1160.8179719769396,
      "lower_time_ms": 14.395893027540296,
      "evaluation_times_ms": [
        17.775,
        17.787,
        17.773,
        17.78,
        17.779
      ],
      "metadata": {
        "peak_memory_mb": 16706.000030517578
      }
    }
  },
  "{\"q\":\"f16[1,16384,16,128]\",\"k\":\"f16[1,16384,16,128]\",\"v\":\"f16[1,16384,16,128]\",\"precision\":[\"BF16_BF16_F32\",\"BF16_BF16_F32\"],\"logits_dtype\":\"float32\",\"logits_scale\":0.08838834764831843,\"bias\":null,\"logits_soft_cap\":null,\"mask\":{\"bool_mask\":null,\"q_start\":null,\"q_end\":null,\"k_start\":null,\"k_end\":null,\"is_causal\":false},\"dropout_mask\":null,\"dropout_rate\":0.0,\"paging_info\":null,\"q_indices\":null,\"k_indices\":null,\"normalize_output\":true,\"return_residuals\":false}": {
    "{}": {
      "compile_time_ms": 2443.009605980478,
      "lower_time_ms": 109.12795300828293,
      "evaluation_times_ms": [
        17.873,
        17.867,
        17.864,
        17.868,
        17.867
      ],
      "metadata": {
        "peak_memory_mb": 16704.0
      }
    }
  },
  "{\"q\":\"f16[1,16384,16,128]\",\"k\":\"f16[1,16384,16,128]\",\"v\":\"f16[1,16384,16,128]\",\"precision\":[\"BF16_BF16_F32\",\"BF16_BF16_F32\"],\"logits_dtype\":\"float32\",\"logits_scale\":0.08838834764831843,\"bias\":null,\"logits_soft_cap\":null,\"mask\":{\"bool_mask\":null,\"q_start\":null,\"q_end\":null,\"k_start\":null,\"k_end\":null,\"is_causal\":false},\"dropout_mask\":null,\"dropout_rate\":0.0,\"paging_info\":null,\"q_indices\":null,\"k_indices\":null,\"normalize_output\":true,\"return_residuals\":true}": {
    "{}": {
      "compile_time_ms": 1391.7133290087804,
      "lower_time_ms": 16.41303300857544,
      "evaluation_times_ms": [
        17.859,
        17.868,
        17.866,
        17.87,
        17.88
      ],
      "metadata": {
        "peak_memory_mb": 16706.000030517578
      }
    }
  },
  "{\"q\":\"bf16[1,16384,8,256]\",\"k\":\"bf16[1,16384,8,256]\",\"v\":\"bf16[1,16384,8,256]\",\"precision\":[[\"DEFAULT\",\"DEFAULT\"],[\"DEFAULT\",\"DEFAULT\"]],\"logits_dtype\":\"float32\",\"logits_scale\":0.0625,\"bias\":null,\"logits_soft_cap\":null,\"mask\":{\"bool_mask\":null,\"q_start\":null,\"q_end\":null,\"k_start\":null,\"k_end\":null,\"is_causal\":true},\"dropout_mask\":null,\"dropout_rate\":0.0,\"paging_info\":null,\"q_indices\":null,\"k_indices\":null,\"normalize_output\":true,\"return_residuals\":false}": {
    "{}": {
      "compile_time_ms": 1688.8784189941362,
      "lower_time_ms": 18.864042009226978,
      "evaluation_times_ms": [
        11.103,
        11.101,
        11.106,
        11.106,
        11.101
      ],
      "metadata": {
        "peak_memory_mb": 8768.0
      }
    }
  },
  "{\"q\":\"bf16[1,16384,8,256]\",\"k\":\"bf16[1,16384,8,256]\",\"v\":\"bf16[1,16384,8,256]\",\"precision\":[\"BF16_BF16_F32\",\"BF16_BF16_F32\"],\"logits_dtype\":\"float32\",\"logits_scale\":0.0625,\"bias\":null,\"logits_soft_cap\":null,\"mask\":{\"bool_mask\":null,\"q_start\":null,\"q_end\":null,\"k_start\":null,\"k_end\":null,\"is_causal\":true},\"dropout_mask\":null,\"dropout_rate\":0.0,\"paging_info\":null,\"q_indices\":null,\"k_indices\":null,\"normalize_output\":true,\"return_residuals\":true}": {
    "{}": {
      "compile_time_ms": 1696.723386994563,
      "lower_time_ms": 16.266280959825963,
      "evaluation_times_ms": [
        11.089,
        11.086,
        11.086,
        11.094,
        11.084
      ],
      "metadata": {
        "peak_memory_mb": 8769.000030517578
      }
    }
  },
  "{\"q\":\"f16[1,16384,8,256]\",\"k\":\"f16[1,16384,8,256]\",\"v\":\"f16[1,16384,8,256]\",\"precision\":[\"BF16_BF16_F32\",\"BF16_BF16_F32\"],\"logits_dtype\":\"float32\",\"logits_scale\":0.0625,\"bias\":null,\"logits_soft_cap\":null,\"mask\":{\"bool_mask\":null,\"q_start\":null,\"q_end\":null,\"k_start\":null,\"k_end\":null,\"is_causal\":true},\"dropout_mask\":null,\"dropout_rate\":0.0,\"paging_info\":null,\"q_indices\":null,\"k_indices\":null,\"normalize_output\":true,\"return_residuals\":false}": {
    "{}": {
      "compile_time_ms": 1690.9939880133606,
      "lower_time_ms": 15.773031977005303,
      "evaluation_times_ms": [
        11.229,
        11.226,
        11.226,
        11.228,
        11.224
      ],
      "metadata": {
        "peak_memory_mb": 8768.0
      }
    }
  },
  "{\"q\":\"f16[1,16384,8,256]\",\"k\":\"f16[1,16384,8,256]\",\"v\":\"f16[1,16384,8,256]\",\"precision\":[\"BF16_BF16_F32\",\"BF16_BF16_F32\"],\"logits_dtype\":\"float32\",\"logits_scale\":0.0625,\"bias\":null,\"logits_soft_cap\":null,\"mask\":{\"bool_mask\":null,\"q_start\":null,\"q_end\":null,\"k_start\":null,\"k_end\":null,\"is_causal\":true},\"dropout_mask\":null,\"dropout_rate\":0.0,\"paging_info\":null,\"q_indices\":null,\"k_indices\":null,\"normalize_output\":true,\"return_residuals\":true}": {
    "{}": {
      "compile_time_ms": 1701.5163879841566,
      "lower_time_ms": 15.532586025074124,
      "evaluation_times_ms": [
        11.225,
        11.222,
        11.229,
        11.217,
        11.228
      ],
      "metadata": {
        "peak_memory_mb": 8769.000030517578
      }
    }
  },
  "{\"q\":\"bf16[1,16384,8,256]\",\"k\":\"bf16[1,16384,8,256]\",\"v\":\"bf16[1,16384,8,256]\",\"precision\":[[\"DEFAULT\",\"DEFAULT\"],[\"DEFAULT\",\"DEFAULT\"]],\"logits_dtype\":\"float32\",\"logits_scale\":0.0625,\"bias\":null,\"logits_soft_cap\":null,\"mask\":{\"bool_mask\":null,\"q_start\":null,\"q_end\":null,\"k_start\":null,\"k_end\":null,\"is_causal\":false},\"dropout_mask\":null,\"dropout_rate\":0.0,\"paging_info\":null,\"q_indices\":null,\"k_indices\":null,\"normalize_output\":true,\"return_residuals\":false}": {
    "{}": {
      "compile_time_ms": 1403.7822290556505,
      "lower_time_ms": 14.21125401975587,
      "evaluation_times_ms": [
        10.37,
        10.373,
        10.371,
        10.36,
        10.363
      ],
      "metadata": {
        "peak_memory_mb": 8512.0
      }
    }
  },
  "{\"q\":\"bf16[1,16384,8,256]\",\"k\":\"bf16[1,16384,8,256]\",\"v\":\"bf16[1,16384,8,256]\",\"precision\":[\"BF16_BF16_F32\",\"BF16_BF16_F32\"],\"logits_dtype\":\"float32\",\"logits_scale\":0.0625,\"bias\":null,\"logits_soft_cap\":null,\"mask\":{\"bool_mask\":null,\"q_start\":null,\"q_end\":null,\"k_start\":null,\"k_end\":null,\"is_causal\":false},\"dropout_mask\":null,\"dropout_rate\":0.0,\"paging_info\":null,\"q_indices\":null,\"k_indices\":null,\"normalize_output\":true,\"return_residuals\":true}": {
    "{}": {
      "compile_time_ms": 1405.7596380007453,
      "lower_time_ms": 14.371917000971735,
      "evaluation_times_ms": [
        10.388,
        10.396,
        10.381,
        10.38,
        10.39
      ],
      "metadata": {
        "peak_memory_mb": 8513.000030517578
      }
    }
  },
  "{\"q\":\"f16[1,16384,8,256]\",\"k\":\"f16[1,16384,8,256]\",\"v\":\"f16[1,16384,8,256]\",\"precision\":[\"BF16_BF16_F32\",\"BF16_BF16_F32\"],\"logits_dtype\":\"float32\",\"logits_scale\":0.0625,\"bias\":null,\"logits_soft_cap\":null,\"mask\":{\"bool_mask\":null,\"q_start\":null,\"q_end\":null,\"k_start\":null,\"k_end\":null,\"is_causal\":false},\"dropout_mask\":null,\"dropout_rate\":0.0,\"paging_info\":null,\"q_indices\":null,\"k_indices\":null,\"normalize_output\":true,\"return_residuals\":false}": {
    "{}": {
      "compile_time_ms": 2648.3885779744014,
      "lower_time_ms": 117.47401300817728,
      "evaluation_times_ms": [
        10.489,
        10.489,
        10.488,
        10.498,
        10.492
      ],
      "metadata": {
        "peak_memory_mb": 8512.0
      }
    }
  },
  "{\"q\":\"f16[1,16384,8,256]\",\"k\":\"f16[1,16384,8,256]\",\"v\":\"f16[1,16384,8,256]\",\"precision\":[\"BF16_BF16_F32\",\"BF16_BF16_F32\"],\"logits_dtype\":\"float32\",\"logits_scale\":0.0625,\"bias\":null,\"logits_soft_cap\":null,\"mask\":{\"bool_mask\":null,\"q_start\":null,\"q_end\":null,\"k_start\":null,\"k_end\":null,\"is_causal\":false},\"dropout_mask\":null,\"dropout_rate\":0.0,\"paging_info\":null,\"q_indices\":null,\"k_indices\":null,\"normalize_output\":true,\"return_residuals\":true}": {
    "{}": {
      "compile_time_ms": 1552.4412600207143,
      "lower_time_ms": 16.27624302636832,
      "evaluation_times_ms": [
        10.505,
        10.499,
        10.498,
        10.5,
        10.496
      ],
      "metadata": {
        "peak_memory_mb": 8513.000030517578
      }
    }
  },
  "{\"q\":\"bf16[32,512,4,16]\",\"k\":\"bf16[32,512,4,16]\",\"v\":\"bf16[32,512,4,16]\",\"precision\":[\"BF16_BF16_F32\",\"BF16_BF16_F32\"],\"logits_dtype\":\"float32\",\"logits_scale\":0.25,\"bias\":\"bf16[1,4,512,512]\",\"logits_soft_cap\":null,\"mask\":{\"bool_mask\":\"bool[32,1,1,512]\",\"q_start\":null,\"q_end\":null,\"k_start\":null,\"k_end\":null,\"is_causal\":false},\"dropout_mask\":null,\"dropout_rate\":0.0,\"paging_info\":null,\"q_indices\":null,\"k_indices\":null,\"normalize_output\":true,\"return_residuals\":false}": {
    "{}": {
      "compile_time_ms": 963.3666269946843,
      "lower_time_ms": 22.72724499925971,
      "evaluation_times_ms": [
        0.165,
        0.165,
        0.166,
        0.166,
        0.166
      ],
      "metadata": {
        "peak_memory_mb": 138.015625
      }
    }
  },
  "{\"q\":\"bf16[1,32,512,4,32]\",\"k\":\"bf16[1,32,512,4,32]\",\"v\":\"bf16[1,32,512,4,32]\",\"precision\":[\"BF16_BF16_F32\",\"BF16_BF16_F32\"],\"logits_dtype\":\"float32\",\"logits_scale\":0.17677669529663687,\"bias\":\"bf16[1,1,4,512,512]\",\"logits_soft_cap\":null,\"mask\":{\"bool_mask\":\"bool[32,1,1,512]\",\"q_start\":null,\"q_end\":null,\"k_start\":null,\"k_end\":null,\"is_causal\":false},\"dropout_mask\":null,\"dropout_rate\":0.0,\"paging_info\":null,\"q_indices\":null,\"k_indices\":null,\"normalize_output\":true,\"return_residuals\":false}": {
    "{}": {
      "compile_time_ms": 893.8540620147251,
      "lower_time_ms": 21.154690999537706,
      "evaluation_times_ms": [
        0.168,
        0.167,
        0.168,
        0.169,
        0.168
      ],
      "metadata": {
        "peak_memory_mb": 146.015625
      }
    }
  },
  "{\"q\":\"bf16[32,512,4,32]\",\"k\":\"bf16[32,512,4,32]\",\"v\":\"bf16[32,512,4,32]\",\"precision\":[\"BF16_BF16_F32\",\"BF16_BF16_F32\"],\"logits_dtype\":\"float32\",\"logits_scale\":0.17677669529663687,\"bias\":\"bf16[1,4,512,512]\",\"logits_soft_cap\":null,\"mask\":{\"bool_mask\":\"bool[32,1,1,512]\",\"q_start\":null,\"q_end\":null,\"k_start\":null,\"k_end\":null,\"is_causal\":false},\"dropout_mask\":null,\"dropout_rate\":0.0,\"paging_info\":null,\"q_indices\":null,\"k_indices\":null,\"normalize_output\":true,\"return_residuals\":false}": {
    "{}": {
      "compile_time_ms": 953.5615350469016,
      "lower_time_ms": 16.546325001399964,
      "evaluation_times_ms": [
        0.17,
        0.17,
        0.169,
        0.17,
        0.169
      ],
      "metadata": {
        "peak_memory_mb": 146.015625
      }
    }
  },
  "{\"q\":\"bf16[32,768,4,16]\",\"k\":\"bf16[32,768,4,16]\",\"v\":\"bf16[32,768,4,16]\",\"precision\":[\"BF16_BF16_F32\",\"BF16_BF16_F32\"],\"logits_dtype\":\"float32\",\"logits_scale\":0.25,\"bias\":\"bf16[1,4,768,768]\",\"logits_soft_cap\":null,\"mask\":{\"bool_mask\":\"bool[32,1,1,768]\",\"q_start\":null,\"q_end\":null,\"k_start\":null,\"k_end\":null,\"is_causal\":false},\"dropout_mask\":null,\"dropout_rate\":0.0,\"paging_info\":null,\"q_indices\":null,\"k_indices\":null,\"normalize_output\":true,\"return_residuals\":false}": {
    "{}": {
      "compile_time_ms": 1054.581361997407,
      "lower_time_ms": 21.93721296498552,
      "evaluation_times_ms": [
        0.362,
        0.362,
        0.361,
        0.359,
        0.361
      ],
      "metadata": {
        "peak_memory_mb": 304.5234375
      }
    }
  },
  "{\"q\":\"bf16[1,32,768,4,32]\",\"k\":\"bf16[1,32,768,4,32]\",\"v\":\"bf16[1,32,768,4,32]\",\"precision\":[\"BF16_BF16_F32\",\"BF16_BF16_F32\"],\"logits_dtype\":\"float32\",\"logits_scale\":0.17677669529663687,\"bias\":\"bf16[1,1,4,768,768]\",\"logits_soft_cap\":null,\"mask\":{\"bool_mask\":\"bool[32,1,1,768]\",\"q_start\":null,\"q_end\":null,\"k_start\":null,\"k_end\":null,\"is_causal\":false},\"dropout_mask\":null,\"dropout_rate\":0.0,\"paging_info\":null,\"q_indices\":null,\"k_indices\":null,\"normalize_output\":true,\"return_residuals\":false}": {
    "{}": {
      "compile_time_ms": 941.7147280182689,
      "lower_time_ms": 21.441656979732215,
      "evaluation_times_ms": [
        0.353,
        0.355,
        0.354,
        0.354,
        0.355
      ],
      "metadata": {
        "peak_memory_mb": 316.5234375
      }
    }
  },
  "{\"q\":\"bf16[32,768,4,32]\",\"k\":\"bf16[32,768,4,32]\",\"v\":\"bf16[32,768,4,32]\",\"precision\":[\"BF16_BF16_F32\",\"BF16_BF16_F32\"],\"logits_dtype\":\"float32\",\"logits_scale\":0.17677669529663687,\"bias\":\"bf16[1,4,768,768]\",\"logits_soft_cap\":null,\"mask\":{\"bool_mask\":\"bool[32,1,1,768]\",\"q_start\":null,\"q_end\":null,\"k_start\":null,\"k_end\":null,\"is_causal\":false},\"dropout_mask\":null,\"dropout_rate\":0.0,\"paging_info\":null,\"q_indices\":null,\"k_indices\":null,\"normalize_output\":true,\"return_residuals\":false}": {
    "{}": {
      "compile_time_ms": 1488.0248089903034,
      "lower_time_ms": 16.723430948331952,
      "evaluation_times_ms": [
        0.356,
        0.355,
        0.355,
        0.356,
        0.356
      ],
      "metadata": {
        "peak_memory_mb": 316.5234375
      }
    }
  },
  "{\"q\":\"f16[32,512,32,64]\",\"k\":\"f16[32,512,32,64]\",\"v\":\"f16[32,512,32,64]\",\"precision\":[\"BF16_BF16_F32\",\"BF16_BF16_F32\"],\"logits_dtype\":\"float32\",\"logits_scale\":0.125,\"bias\":null,\"logits_soft_cap\":null,\"mask\":{\"bool_mask\":null,\"q_start\":null,\"q_end\":null,\"k_start\":null,\"k_end\":null,\"is_causal\":false},\"dropout_mask\":null,\"dropout_rate\":0.0,\"paging_info\":null,\"q_indices\":null,\"k_indices\":null,\"normalize_output\":true,\"return_residuals\":false}": {
    "{}": {
      "compile_time_ms": 1662.044785975013,
      "lower_time_ms": 121.99870502809063,
      "evaluation_times_ms": [
        1.074,
        1.075,
        1.073,
        1.073,
        1.074
      ],
      "metadata": {
        "peak_memory_mb": 1280.0
      }
    }
  },
  "{\"q\":\"f16[32,512,32,64]\",\"k\":\"f16[32,512,32,64]\",\"v\":\"f16[32,512,32,64]\",\"precision\":[\"BF16_BF16_F32\",\"BF16_BF16_F32\"],\"logits_dtype\":\"float32\",\"logits_scale\":0.125,\"bias\":null,\"logits_soft_cap\":null,\"mask\":{\"bool_mask\":null,\"q_start\":null,\"q_end\":null,\"k_start\":null,\"k_end\":null,\"is_causal\":false},\"dropout_mask\":null,\"dropout_rate\":0.0,\"paging_info\":null,\"q_indices\":null,\"k_indices\":null,\"normalize_output\":true,\"return_residuals\":true}": {
    "{}": {
      "compile_time_ms": 570.1223509968258,
      "lower_time_ms": 14.006243029143661,
      "evaluation_times_ms": [
        1.076,
        1.075,
        1.078,
        1.076,
        1.076
      ],
      "metadata": {
        "peak_memory_mb": 1284.0000305175781
      }
    }
  },
  "{\"q\":\"bf16[32,512,16,128]\",\"k\":\"bf16[32,512,16,128]\",\"v\":\"bf16[32,512,16,128]\",\"precision\":[[\"DEFAULT\",\"DEFAULT\"],[\"DEFAULT\",\"DEFAULT\"]],\"logits_dtype\":\"float32\",\"logits_scale\":0.08838834764831843,\"bias\":null,\"logits_soft_cap\":null,\"mask\":{\"bool_mask\":null,\"q_start\":null,\"q_end\":null,\"k_start\":null,\"k_end\":null,\"is_causal\":true},\"dropout_mask\":null,\"dropout_rate\":0.0,\"paging_info\":null,\"q_indices\":null,\"k_indices\":null,\"normalize_output\":true,\"return_residuals\":false}": {
    "{}": {
      "compile_time_ms": 961.6062590503134,
      "lower_time_ms": 17.902752966620028,
      "evaluation_times_ms": [
        0.707,
        0.709,
        0.708,
        0.708,
        0.708
      ],
      "metadata": {
        "peak_memory_mb": 832.0
      }
    }
  },
  "{\"q\":\"bf16[32,512,16,128]\",\"k\":\"bf16[32,512,16,128]\",\"v\":\"bf16[32,512,16,128]\",\"precision\":[\"BF16_BF16_F32\",\"BF16_BF16_F32\"],\"logits_dtype\":\"float32\",\"logits_scale\":0.08838834764831843,\"bias\":null,\"logits_soft_cap\":null,\"mask\":{\"bool_mask\":null,\"q_start\":null,\"q_end\":null,\"k_start\":null,\"k_end\":null,\"is_causal\":true},\"dropout_mask\":null,\"dropout_rate\":0.0,\"paging_info\":null,\"q_indices\":null,\"k_indices\":null,\"normalize_output\":true,\"return_residuals\":true}": {
    "{}": {
      "compile_time_ms": 962.5132850487716,
      "lower_time_ms": 16.483538027387112,
      "evaluation_times_ms": [
        0.708,
        0.706,
        0.706,
        0.705,
        0.707
      ],
      "metadata": {
        "peak_memory_mb": 834.0000305175781
      }
    }
  },
  "{\"q\":\"f16[32,512,16,128]\",\"k\":\"f16[32,512,16,128]\",\"v\":\"f16[32,512,16,128]\",\"precision\":[\"BF16_BF16_F32\",\"BF16_BF16_F32\"],\"logits_dtype\":\"float32\",\"logits_scale\":0.08838834764831843,\"bias\":null,\"logits_soft_cap\":null,\"mask\":{\"bool_mask\":null,\"q_start\":null,\"q_end\":null,\"k_start\":null,\"k_end\":null,\"is_causal\":true},\"dropout_mask\":null,\"dropout_rate\":0.0,\"paging_info\":null,\"q_indices\":null,\"k_indices\":null,\"normalize_output\":true,\"return_residuals\":false}": {
    "{}": {
      "compile_time_ms": 975.2228269935586,
      "lower_time_ms": 15.905733976978809,
      "evaluation_times_ms": [
        0.834,
        0.833,
        0.834,
        0.833,
        0.833
      ],
      "metadata": {
        "peak_memory_mb": 832.0
      }
    }
  },
  "{\"q\":\"f16[32,512,16,128]\",\"k\":\"f16[32,512,16,128]\",\"v\":\"f16[32,512,16,128]\",\"precision\":[\"BF16_BF16_F32\",\"BF16_BF16_F32\"],\"logits_dtype\":\"float32\",\"logits_scale\":0.08838834764831843,\"bias\":null,\"logits_soft_cap\":null,\"mask\":{\"bool_mask\":null,\"q_start\":null,\"q_end\":null,\"k_start\":null,\"k_end\":null,\"is_causal\":true},\"dropout_mask\":null,\"dropout_rate\":0.0,\"paging_info\":null,\"q_indices\":null,\"k_indices\":null,\"normalize_output\":true,\"return_residuals\":true}": {
    "{}": {
      "compile_time_ms": 971.0975349880755,
      "lower_time_ms": 16.221203957684338,
      "evaluation_times_ms": [
        0.83,
        0.834,
        0.832,
        0.835,
        0.836
      ],
      "metadata": {
        "peak_memory_mb": 834.0000305175781
      }
    }
  },
  "{\"q\":\"bf16[32,512,16,128]\",\"k\":\"bf16[32,512,16,128]\",\"v\":\"bf16[32,512,16,128]\",\"precision\":[[\"DEFAULT\",\"DEFAULT\"],[\"DEFAULT\",\"DEFAULT\"]],\"logits_dtype\":\"float32\",\"logits_scale\":0.08838834764831843,\"bias\":null,\"logits_soft_cap\":null,\"mask\":{\"bool_mask\":null,\"q_start\":null,\"q_end\":null,\"k_start\":null,\"k_end\":null,\"is_causal\":false},\"dropout_mask\":null,\"dropout_rate\":0.0,\"paging_info\":null,\"q_indices\":null,\"k_indices\":null,\"normalize_output\":true,\"return_residuals\":false}": {
    "{}": {
      "compile_time_ms": 745.8099789801054,
      "lower_time_ms": 14.81569098541513,
      "evaluation_times_ms": [
        0.684,
        0.684,
        0.685,
        0.684,
        0.686
      ],
      "metadata": {
        "peak_memory_mb": 832.0
      }
    }
  },
  "{\"q\":\"bf16[32,512,16,128]\",\"k\":\"bf16[32,512,16,128]\",\"v\":\"bf16[32,512,16,128]\",\"precision\":[\"BF16_BF16_F32\",\"BF16_BF16_F32\"],\"logits_dtype\":\"float32\",\"logits_scale\":0.08838834764831843,\"bias\":null,\"logits_soft_cap\":null,\"mask\":{\"bool_mask\":null,\"q_start\":null,\"q_end\":null,\"k_start\":null,\"k_end\":null,\"is_causal\":false},\"dropout_mask\":null,\"dropout_rate\":0.0,\"paging_info\":null,\"q_indices\":null,\"k_indices\":null,\"normalize_output\":true,\"return_residuals\":true}": {
    "{}": {
      "compile_time_ms": 751.2137209996581,
      "lower_time_ms": 14.911192003637552,
      "evaluation_times_ms": [
        0.683,
        0.682,
        0.682,
        0.683,
        0.682
      ],
      "metadata": {
        "peak_memory_mb": 834.0000305175781
      }
    }
  },
  "{\"q\":\"bf16[32,1024,4,16]\",\"k\":\"bf16[32,1024,4,16]\",\"v\":\"bf16[32,1024,4,16]\",\"precision\":[\"BF16_BF16_F32\",\"BF16_BF16_F32\"],\"logits_dtype\":\"float32\",\"logits_scale\":0.25,\"bias\":\"bf16[1,4,1024,1024]\",\"logits_soft_cap\":null,\"mask\":{\"bool_mask\":\"bool[32,1,1,1024]\",\"q_start\":null,\"q_end\":null,\"k_start\":null,\"k_end\":null,\"is_causal\":false},\"dropout_mask\":null,\"dropout_rate\":0.0,\"paging_info\":null,\"q_indices\":null,\"k_indices\":null,\"normalize_output\":true,\"return_residuals\":false}": {
    "{}": {
      "compile_time_ms": 2080.6652799947187,
      "lower_time_ms": 114.65285700978711,
      "evaluation_times_ms": [
        0.662,
        0.664,
        0.661,
        0.661,
        0.663
      ],
      "metadata": {
        "peak_memory_mb": 536.03125
      }
    }
  },
  "{\"q\":\"bf16[1,32,1024,4,32]\",\"k\":\"bf16[1,32,1024,4,32]\",\"v\":\"bf16[1,32,1024,4,32]\",\"precision\":[\"BF16_BF16_F32\",\"BF16_BF16_F32\"],\"logits_dtype\":\"float32\",\"logits_scale\":0.17677669529663687,\"bias\":\"bf16[1,1,4,1024,1024]\",\"logits_soft_cap\":null,\"mask\":{\"bool_mask\":\"bool[32,1,1,1024]\",\"q_start\":null,\"q_end\":null,\"k_start\":null,\"k_end\":null,\"is_causal\":false},\"dropout_mask\":null,\"dropout_rate\":0.0,\"paging_info\":null,\"q_indices\":null,\"k_indices\":null,\"normalize_output\":true,\"return_residuals\":false}": {
    "{}": {
      "compile_time_ms": 953.9551479974762,
      "lower_time_ms": 21.262756956275553,
      "evaluation_times_ms": [
        0.675,
        0.673,
        0.675,
        0.674,
        0.674
      ],
      "metadata": {
        "peak_memory_mb": 552.03125
      }
    }
  },
  "{\"q\":\"bf16[32,1024,4,32]\",\"k\":\"bf16[32,1024,4,32]\",\"v\":\"bf16[32,1024,4,32]\",\"precision\":[\"BF16_BF16_F32\",\"BF16_BF16_F32\"],\"logits_dtype\":\"float32\",\"logits_scale\":0.17677669529663687,\"bias\":\"bf16[1,4,1024,1024]\",\"logits_soft_cap\":null,\"mask\":{\"bool_mask\":\"bool[32,1,1,1024]\",\"q_start\":null,\"q_end\":null,\"k_start\":null,\"k_end\":null,\"is_causal\":false},\"dropout_mask\":null,\"dropout_rate\":0.0,\"paging_info\":null,\"q_indices\":null,\"k_indices\":null,\"normalize_output\":true,\"return_residuals\":false}": {
    "{}": {
      "compile_time_ms": 1034.2268740059808,
      "lower_time_ms": 16.459111007861793,
      "evaluation_times_ms": [
        0.674,
        0.671,
        0.673,
        0.672,
        0.673
      ],
      "metadata": {
        "peak_memory_mb": 552.03125
      }
    }
  },
  "{\"q\":\"bf16[32,1280,4,16]\",\"k\":\"bf16[32,1280,4,16]\",\"v\":\"bf16[32,1280,4,16]\",\"precision\":[\"BF16_BF16_F32\",\"BF16_BF16_F32\"],\"logits_dtype\":\"float32\",\"logits_scale\":0.25,\"bias\":\"bf16[1,4,1280,1280]\",\"logits_soft_cap\":null,\"mask\":{\"bool_mask\":\"bool[32,1,1,1280]\",\"q_start\":null,\"q_end\":null,\"k_start\":null,\"k_end\":null,\"is_causal\":false},\"dropout_mask\":null,\"dropout_rate\":0.0,\"paging_info\":null,\"q_indices\":null,\"k_indices\":null,\"normalize_output\":true,\"return_residuals\":false}": {
    "{}": {
      "compile_time_ms": 1057.1372610284016,
      "lower_time_ms": 21.102457016240805,
      "evaluation_times_ms": [
        0.805,
        0.804,
        0.806,
        0.805,
        0.804
      ],
      "metadata": {
        "peak_memory_mb": 832.5390625
      }
    }
  },
  "{\"q\":\"bf16[1,32,1280,4,32]\",\"k\":\"bf16[1,32,1280,4,32]\",\"v\":\"bf16[1,32,1280,4,32]\",\"precision\":[\"BF16_BF16_F32\",\"BF16_BF16_F32\"],\"logits_dtype\":\"float32\",\"logits_scale\":0.17677669529663687,\"bias\":\"bf16[1,1,4,1280,1280]\",\"logits_soft_cap\":null,\"mask\":{\"bool_mask\":\"bool[32,1,1,1280]\",\"q_start\":null,\"q_end\":null,\"k_start\":null,\"k_end\":null,\"is_causal\":false},\"dropout_mask\":null,\"dropout_rate\":0.0,\"paging_info\":null,\"q_indices\":null,\"k_indices\":null,\"normalize_output\":true,\"return_residuals\":false}": {
    "{}": {
      "compile_time_ms": 835.0412499858066,
      "lower_time_ms": 22.066941019147635,
      "evaluation_times_ms": [
        0.877,
        0.877,
        0.878,
        0.877,
        0.878
      ],
      "metadata": {
        "peak_memory_mb": 877.5390625
      }
    }
  },
  "{\"q\":\"bf16[32,1280,4,32]\",\"k\":\"bf16[32,1280,4,32]\",\"v\":\"bf16[32,1280,4,32]\",\"precision\":[\"BF16_BF16_F32\",\"BF16_BF16_F32\"],\"logits_dtype\":\"float32\",\"logits_scale\":0.17677669529663687,\"bias\":\"bf16[1,4,1280,1280]\",\"logits_soft_cap\":null,\"mask\":{\"bool_mask\":\"bool[32,1,1,1280]\",\"q_start\":null,\"q_end\":null,\"k_start\":null,\"k_end\":null,\"is_causal\":false},\"dropout_mask\":null,\"dropout_rate\":0.0,\"paging_info\":null,\"q_indices\":null,\"k_indices\":null,\"normalize_output\":true,\"return_residuals\":false}": {
    "{}": {
      "compile_time_ms": 844.0297640045173,
      "lower_time_ms": 16.588197962846607,
      "evaluation_times_ms": [
        0.877,
        0.878,
        0.876,
        0.878,
        0.877
      ],
      "metadata": {
        "peak_memory_mb": 877.5390625
      }
    }
  },
  "{\"q\":\"bf16[32,1536,4,16]\",\"k\":\"bf16[32,1536,4,16]\",\"v\":\"bf16[32,1536,4,16]\",\"precision\":[\"BF16_BF16_F32\",\"BF16_BF16_F32\"],\"logits_dtype\":\"float32\",\"logits_scale\":0.25,\"bias\":\"bf16[1,4,1536,1536]\",\"logits_soft_cap\":null,\"mask\":{\"bool_mask\":\"bool[32,1,1,1536]\",\"q_start\":null,\"q_end\":null,\"k_start\":null,\"k_end\":null,\"is_causal\":false},\"dropout_mask\":null,\"dropout_rate\":0.0,\"paging_info\":null,\"q_indices\":null,\"k_indices\":null,\"normalize_output\":true,\"return_residuals\":false}": {
    "{}": {
      "compile_time_ms": 923.0016100336798,
      "lower_time_ms": 22.05904299626127,
      "evaluation_times_ms": [
        1.185,
        1.187,
        1.185,
        1.187,
        1.186
      ],
      "metadata": {
        "peak_memory_mb": 1230.046875
      }
    }
  },
  "{\"q\":\"bf16[1,32,1536,4,32]\",\"k\":\"bf16[1,32,1536,4,32]\",\"v\":\"bf16[1,32,1536,4,32]\",\"precision\":[\"BF16_BF16_F32\",\"BF16_BF16_F32\"],\"logits_dtype\":\"float32\",\"logits_scale\":0.17677669529663687,\"bias\":\"bf16[1,1,4,1536,1536]\",\"logits_soft_cap\":null,\"mask\":{\"bool_mask\":\"bool[32,1,1,1536]\",\"q_start\":null,\"q_end\":null,\"k_start\":null,\"k_end\":null,\"is_causal\":false},\"dropout_mask\":null,\"dropout_rate\":0.0,\"paging_info\":null,\"q_indices\":null,\"k_indices\":null,\"normalize_output\":true,\"return_residuals\":false}": {
    "{}": {
      "compile_time_ms": 770.9113809978589,
      "lower_time_ms": 21.972810965962708,
      "evaluation_times_ms": [
        1.346,
        1.348,
        1.346,
        1.346,
        1.345
      ],
      "metadata": {
        "peak_memory_mb": 1254.046875
      }
    }
  },
  "{\"q\":\"bf16[32,1536,4,32]\",\"k\":\"bf16[32,1536,4,32]\",\"v\":\"bf16[32,1536,4,32]\",\"precision\":[\"BF16_BF16_F32\",\"BF16_BF16_F32\"],\"logits_dtype\":\"float32\",\"logits_scale\":0.17677669529663687,\"bias\":\"bf16[1,4,1536,1536]\",\"logits_soft_cap\":null,\"mask\":{\"bool_mask\":\"bool[32,1,1,1536]\",\"q_start\":null,\"q_end\":null,\"k_start\":null,\"k_end\":null,\"is_causal\":false},\"dropout_mask\":null,\"dropout_rate\":0.0,\"paging_info\":null,\"q_indices\":null,\"k_indices\":null,\"normalize_output\":true,\"return_residuals\":false}": {
    "{}": {
      "compile_time_ms": 2102.6891639921814,
      "lower_time_ms": 118.49908804288134,
      "evaluation_times_ms": [
        1.243,
        1.243,
        1.246,
        1.242,
        1.241
      ],
      "metadata": {
        "peak_memory_mb": 1254.046875
      }
    }
  },
  "{\"q\":\"bf16[128,1792,4,16]\",\"k\":\"bf16[128,1792,4,16]\",\"v\":\"bf16[128,1792,4,16]\",\"precision\":[\"BF16_BF16_F32\",\"BF16_BF16_F32\"],\"logits_dtype\":\"float32\",\"logits_scale\":0.25,\"bias\":\"bf16[1,4,1792,1792]\",\"logits_soft_cap\":null,\"mask\":{\"bool_mask\":\"bool[128,1,1,1792]\",\"q_start\":null,\"q_end\":null,\"k_start\":null,\"k_end\":null,\"is_causal\":false},\"dropout_mask\":null,\"dropout_rate\":0.0,\"paging_info\":null,\"q_indices\":null,\"k_indices\":null,\"normalize_output\":true,\"return_residuals\":false}": {
    "{}": {
      "compile_time_ms": 1149.4481300469488,
      "lower_time_ms": 22.59208698524162,
      "evaluation_times_ms": [
        7.857,
        7.865,
        7.858,
        7.857,
        7.861
      ],
      "metadata": {
        "peak_memory_mb": 6461.21875
      }
    }
  },
  "{\"q\":\"bf16[1,128,1792,4,32]\",\"k\":\"bf16[1,128,1792,4,32]\",\"v\":\"bf16[1,128,1792,4,32]\",\"precision\":[\"BF16_BF16_F32\",\"BF16_BF16_F32\"],\"logits_dtype\":\"float32\",\"logits_scale\":0.17677669529663687,\"bias\":\"bf16[1,1,4,1792,1792]\",\"logits_soft_cap\":null,\"mask\":{\"bool_mask\":\"bool[128,1,1,1792]\",\"q_start\":null,\"q_end\":null,\"k_start\":null,\"k_end\":null,\"is_causal\":false},\"dropout_mask\":null,\"dropout_rate\":0.0,\"paging_info\":null,\"q_indices\":null,\"k_indices\":null,\"normalize_output\":true,\"return_residuals\":false}": {
    "{}": {
      "compile_time_ms": 1115.4836330097169,
      "lower_time_ms": 21.528161014430225,
      "evaluation_times_ms": [
        8.169,
        8.169,
        8.175,
        8.169,
        8.168
      ],
      "metadata": {
        "peak_memory_mb": 6569.71875
      }
    }
  },
  "{\"q\":\"bf16[128,1792,4,32]\",\"k\":\"bf16[128,1792,4,32]\",\"v\":\"bf16[128,1792,4,32]\",\"precision\":[\"BF16_BF16_F32\",\"BF16_BF16_F32\"],\"logits_dtype\":\"float32\",\"logits_scale\":0.17677669529663687,\"bias\":\"bf16[1,4,1792,1792]\",\"logits_soft_cap\":null,\"mask\":{\"bool_mask\":\"bool[128,1,1,1792]\",\"q_start\":null,\"q_end\":null,\"k_start\":null,\"k_end\":null,\"is_causal\":false},\"dropout_mask\":null,\"dropout_rate\":0.0,\"paging_info\":null,\"q_indices\":null,\"k_indices\":null,\"normalize_output\":true,\"return_residuals\":false}": {
    "{}": {
      "compile_time_ms": 1116.2767880014144,
      "lower_time_ms": 16.595166991464794,
      "evaluation_times_ms": [
        8.175,
        8.168,
        8.173,
        8.168,
        8.172
      ],
      "metadata": {
        "peak_memory_mb": 6569.71875
      }
    }
  },
  "{\"q\":\"bf16[128,2048,4,16]\",\"k\":\"bf16[128,2048,4,16]\",\"v\":\"bf16[128,2048,4,16]\",\"precision\":[\"BF16_BF16_F32\",\"BF16_BF16_F32\"],\"logits_dtype\":\"float32\",\"logits_scale\":0.25,\"bias\":\"bf16[1,4,2048,2048]\",\"logits_soft_cap\":null,\"mask\":{\"bool_mask\":\"bool[128,1,1,2048]\",\"q_start\":null,\"q_end\":null,\"k_start\":null,\"k_end\":null,\"is_causal\":false},\"dropout_mask\":null,\"dropout_rate\":0.0,\"paging_info\":null,\"q_indices\":null,\"k_indices\":null,\"normalize_output\":true,\"return_residuals\":false}": {
    "{}": {
      "compile_time_ms": 1137.6704450231045,
      "lower_time_ms": 22.850478999316692,
      "evaluation_times_ms": [
        10.97,
        10.967,
        10.966,
        10.975,
        10.966
      ],
      "metadata": {
        "peak_memory_mb": 8424.5
      }
    }
  },
  "{\"q\":\"bf16[1,128,2048,4,32]\",\"k\":\"bf16[1,128,2048,4,32]\",\"v\":\"bf16[1,128,2048,4,32]\",\"precision\":[\"BF16_BF16_F32\",\"BF16_BF16_F32\"],\"logits_dtype\":\"float32\",\"logits_scale\":0.17677669529663687,\"bias\":\"bf16[1,1,4,2048,2048]\",\"logits_soft_cap\":null,\"mask\":{\"bool_mask\":\"bool[128,1,1,2048]\",\"q_start\":null,\"q_end\":null,\"k_start\":null,\"k_end\":null,\"is_causal\":false},\"dropout_mask\":null,\"dropout_rate\":0.0,\"paging_info\":null,\"q_indices\":null,\"k_indices\":null,\"normalize_output\":true,\"return_residuals\":false}": {
    "{}": {
      "compile_time_ms": 1088.4484080015682,
      "lower_time_ms": 22.21467299386859,
      "evaluation_times_ms": [
        11.272,
        11.27,
        11.272,
        11.261,
        11.266
      ],
      "metadata": {
        "peak_memory_mb": 8544.25
      }
    }
  },
  "{\"q\":\"bf16[128,2048,4,32]\",\"k\":\"bf16[128,2048,4,32]\",\"v\":\"bf16[128,2048,4,32]\",\"precision\":[\"BF16_BF16_F32\",\"BF16_BF16_F32\"],\"logits_dtype\":\"float32\",\"logits_scale\":0.17677669529663687,\"bias\":\"bf16[1,4,2048,2048]\",\"logits_soft_cap\":null,\"mask\":{\"bool_mask\":\"bool[128,1,1,2048]\",\"q_start\":null,\"q_end\":null,\"k_start\":null,\"k_end\":null,\"is_causal\":false},\"dropout_mask\":null,\"dropout_rate\":0.0,\"paging_info\":null,\"q_indices\":null,\"k_indices\":null,\"normalize_output\":true,\"return_residuals\":false}": {
    "{}": {
      "compile_time_ms": 1076.1710449587554,
      "lower_time_ms": 16.698628023732454,
      "evaluation_times_ms": [
        11.265,
        11.281,
        11.274,
        11.28,
        11.273
      ],
      "metadata": {
        "peak_memory_mb": 8544.25
      }
    }
  },
  "{\"q\":\"bf16[128,2304,4,16]\",\"k\":\"bf16[128,2304,4,16]\",\"v\":\"bf16[128,2304,4,16]\",\"precision\":[\"BF16_BF16_F32\",\"BF16_BF16_F32\"],\"logits_dtype\":\"float32\",\"logits_scale\":0.25,\"bias\":\"bf16[1,4,2304,2304]\",\"logits_soft_cap\":null,\"mask\":{\"bool_mask\":\"bool[128,1,1,2304]\",\"q_start\":null,\"q_end\":null,\"k_start\":null,\"k_end\":null,\"is_causal\":false},\"dropout_mask\":null,\"dropout_rate\":0.0,\"paging_info\":null,\"q_indices\":null,\"k_indices\":null,\"normalize_output\":true,\"return_residuals\":false}": {
    "{}": {
      "compile_time_ms": 1053.3094819984399,
      "lower_time_ms": 22.826295054983348,
      "evaluation_times_ms": [
        11.526,
        11.518,
        11.527,
        11.524,
        11.53
      ],
      "metadata": {
        "peak_memory_mb": 10633.78125
      }
    }
  },
  "{\"q\":\"bf16[1,128,2304,4,32]\",\"k\":\"bf16[1,128,2304,4,32]\",\"v\":\"bf16[1,128,2304,4,32]\",\"precision\":[\"BF16_BF16_F32\",\"BF16_BF16_F32\"],\"logits_dtype\":\"float32\",\"logits_scale\":0.17677669529663687,\"bias\":\"bf16[1,1,4,2304,2304]\",\"logits_soft_cap\":null,\"mask\":{\"bool_mask\":\"bool[128,1,1,2304]\",\"q_start\":null,\"q_end\":null,\"k_start\":null,\"k_end\":null,\"is_causal\":false},\"dropout_mask\":null,\"dropout_rate\":0.0,\"paging_info\":null,\"q_indices\":null,\"k_indices\":null,\"normalize_output\":true,\"return_residuals\":false}": {
    "{}": {
      "compile_time_ms": 2090.1015989948064,
      "lower_time_ms": 121.5292860288173,
      "evaluation_times_ms": [
        12.395,
        12.398,
        12.394,
        12.395,
        12.395
      ],
      "metadata": {
        "peak_memory_mb": 10777.78125
      }
    }
  },
  "{\"q\":\"bf16[128,2304,4,32]\",\"k\":\"bf16[128,2304,4,32]\",\"v\":\"bf16[128,2304,4,32]\",\"precision\":[\"BF16_BF16_F32\",\"BF16_BF16_F32\"],\"logits_dtype\":\"float32\",\"logits_scale\":0.17677669529663687,\"bias\":\"bf16[1,4,2304,2304]\",\"logits_soft_cap\":null,\"mask\":{\"bool_mask\":\"bool[128,1,1,2304]\",\"q_start\":null,\"q_end\":null,\"k_start\":null,\"k_end\":null,\"is_causal\":false},\"dropout_mask\":null,\"dropout_rate\":0.0,\"paging_info\":null,\"q_indices\":null,\"k_indices\":null,\"normalize_output\":true,\"return_residuals\":false}": {
    "{}": {
      "compile_time_ms": 1015.5394439934753,
      "lower_time_ms": 22.697156004142016,
      "evaluation_times_ms": [
        12.388,
        12.389,
        12.389,
        12.406,
        12.408
      ],
      "metadata": {
        "peak_memory_mb": 10777.78125
      }
    }
  },
  "{\"q\":\"bf16[128,2560,4,16]\",\"k\":\"bf16[128,2560,4,16]\",\"v\":\"bf16[128,2560,4,16]\",\"precision\":[\"BF16_BF16_F32\",\"BF16_BF16_F32\"],\"logits_dtype\":\"float32\",\"logits_scale\":0.25,\"bias\":\"bf16[1,4,2560,2560]\",\"logits_soft_cap\":null,\"mask\":{\"bool_mask\":\"bool[128,1,1,2560]\",\"q_start\":null,\"q_end\":null,\"k_start\":null,\"k_end\":null,\"is_causal\":false},\"dropout_mask\":null,\"dropout_rate\":0.0,\"paging_info\":null,\"q_indices\":null,\"k_indices\":null,\"normalize_output\":true,\"return_residuals\":false}": {
    "{}": {
      "compile_time_ms": 1056.9109430070966,
      "lower_time_ms": 22.07911800360307,
      "evaluation_times_ms": [
        14.083,
        14.074,
        14.081,
        14.075,
        14.08
      ],
      "metadata": {
        "peak_memory_mb": 13110.3125
      }
    }
  },
  "{\"q\":\"bf16[1,128,2560,4,32]\",\"k\":\"bf16[1,128,2560,4,32]\",\"v\":\"bf16[1,128,2560,4,32]\",\"precision\":[\"BF16_BF16_F32\",\"BF16_BF16_F32\"],\"logits_dtype\":\"float32\",\"logits_scale\":0.17677669529663687,\"bias\":\"bf16[1,1,4,2560,2560]\",\"logits_soft_cap\":null,\"mask\":{\"bool_mask\":\"bool[128,1,1,2560]\",\"q_start\":null,\"q_end\":null,\"k_start\":null,\"k_end\":null,\"is_causal\":false},\"dropout_mask\":null,\"dropout_rate\":0.0,\"paging_info\":null,\"q_indices\":null,\"k_indices\":null,\"normalize_output\":true,\"return_residuals\":false}": {
    "{}": {
      "compile_time_ms": 1019.9476480484009,
      "lower_time_ms": 22.786432993598282,
      "evaluation_times_ms": [
        14.517,
        14.511,
        14.521,
        14.516,
        14.509
      ],
      "metadata": {
        "peak_memory_mb": 13270.3125
      }
    }
  },
  "{\"q\":\"bf16[128,2560,4,32]\",\"k\":\"bf16[128,2560,4,32]\",\"v\":\"bf16[128,2560,4,32]\",\"precision\":[\"BF16_BF16_F32\",\"BF16_BF16_F32\"],\"logits_dtype\":\"float32\",\"logits_scale\":0.17677669529663687,\"bias\":\"bf16[1,4,2560,2560]\",\"logits_soft_cap\":null,\"mask\":{\"bool_mask\":\"bool[128,1,1,2560]\",\"q_start\":null,\"q_end\":null,\"k_start\":null,\"k_end\":null,\"is_causal\":false},\"dropout_mask\":null,\"dropout_rate\":0.0,\"paging_info\":null,\"q_indices\":null,\"k_indices\":null,\"normalize_output\":true,\"return_residuals\":false}": {
    "{}": {
      "compile_time_ms": 1026.4280010014772,
      "lower_time_ms": 17.183110991027206,
      "evaluation_times_ms": [
        14.518,
        14.512,
        14.522,
        14.519,
        14.527
      ],
      "metadata": {
        "peak_memory_mb": 13270.3125
      }
    }
  },
  "{\"q\":\"bf16[128,2816,4,16]\",\"k\":\"bf16[128,2816,4,16]\",\"v\":\"bf16[128,2816,4,16]\",\"precision\":[\"BF16_BF16_F32\",\"BF16_BF16_F32\"],\"logits_dtype\":\"float32\",\"logits_scale\":0.25,\"bias\":\"bf16[1,4,2816,2816]\",\"logits_soft_cap\":null,\"mask\":{\"bool_mask\":\"bool[128,1,1,2816]\",\"q_start\":null,\"q_end\":null,\"k_start\":null,\"k_end\":null,\"is_causal\":false},\"dropout_mask\":null,\"dropout_rate\":0.0,\"paging_info\":null,\"q_indices\":null,\"k_indices\":null,\"normalize_output\":true,\"return_residuals\":false}": {
    "{}": {
      "compile_time_ms": 1345.1414160081185,
      "lower_time_ms": 22.240159974899143,
      "evaluation_times_ms": [
        20.138,
        20.128,
        20.13,
        20.126,
        20.129
      ],
      "metadata": {
        "peak_memory_mb": 15845.84375
      }
    }
  },
  "{\"q\":\"bf16[1,128,2816,4,32]\",\"k\":\"bf16[1,128,2816,4,32]\",\"v\":\"bf16[1,128,2816,4,32]\",\"precision\":[\"BF16_BF16_F32\",\"BF16_BF16_F32\"],\"logits_dtype\":\"float32\",\"logits_scale\":0.17677669529663687,\"bias\":\"bf16[1,1,4,2816,2816]\",\"logits_soft_cap\":null,\"mask\":{\"bool_mask\":\"bool[128,1,1,2816]\",\"q_start\":null,\"q_end\":null,\"k_start\":null,\"k_end\":null,\"is_causal\":false},\"dropout_mask\":null,\"dropout_rate\":0.0,\"paging_info\":null,\"q_indices\":null,\"k_indices\":null,\"normalize_output\":true,\"return_residuals\":false}": {
    "{}": {
      "compile_time_ms": 1341.0745200235397,
      "lower_time_ms": 22.209640010260046,
      "evaluation_times_ms": [
        20.916,
        20.904,
        20.906,
        20.905,
        20.907
      ],
      "metadata": {
        "peak_memory_mb": 16021.84375
      }
    }
  },
  "{\"q\":\"bf16[128,2816,4,32]\",\"k\":\"bf16[128,2816,4,32]\",\"v\":\"bf16[128,2816,4,32]\",\"precision\":[\"BF16_BF16_F32\",\"BF16_BF16_F32\"],\"logits_dtype\":\"float32\",\"logits_scale\":0.17677669529663687,\"bias\":\"bf16[1,4,2816,2816]\",\"logits_soft_cap\":null,\"mask\":{\"bool_mask\":\"bool[128,1,1,2816]\",\"q_start\":null,\"q_end\":null,\"k_start\":null,\"k_end\":null,\"is_causal\":false},\"dropout_mask\":null,\"dropout_rate\":0.0,\"paging_info\":null,\"q_indices\":null,\"k_indices\":null,\"normalize_output\":true,\"return_residuals\":false}": {
    "{}": {
      "compile_time_ms": 1336.6531250067055,
      "lower_time_ms": 17.939954006578773,
      "evaluation_times_ms": [
        20.913,
        20.915,
        20.905,
        20.912,
        20.9
      ],
      "metadata": {
        "peak_memory_mb": 16021.84375
      }
    }
  },
  "{\"q\":\"bf16[128,3072,4,16]\",\"k\":\"bf16[128,3072,4,16]\",\"v\":\"bf16[128,3072,4,16]\",\"precision\":[\"BF16_BF16_F32\",\"BF16_BF16_F32\"],\"logits_dtype\":\"float32\",\"logits_scale\":0.25,\"bias\":\"bf16[1,4,3072,3072]\",\"logits_soft_cap\":null,\"mask\":{\"bool_mask\":\"bool[128,1,1,3072]\",\"q_start\":null,\"q_end\":null,\"k_start\":null,\"k_end\":null,\"is_causal\":false},\"dropout_mask\":null,\"dropout_rate\":0.0,\"paging_info\":null,\"q_indices\":null,\"k_indices\":null,\"normalize_output\":true,\"return_residuals\":false}": {
    "{}": {
      "compile_time_ms": 2502.108618034981,
      "lower_time_ms": 121.96612497791648,
      "evaluation_times_ms": [
        26.055,
        26.054,
        26.072,
        26.068,
        26.058
      ],
      "metadata": {
        "peak_memory_mb": 18840.375
      }
    }
  },
  "{\"q\":\"bf16[1,128,3072,4,32]\",\"k\":\"bf16[1,128,3072,4,32]\",\"v\":\"bf16[1,128,3072,4,32]\",\"precision\":[\"BF16_BF16_F32\",\"BF16_BF16_F32\"],\"logits_dtype\":\"float32\",\"logits_scale\":0.17677669529663687,\"bias\":\"bf16[1,1,4,3072,3072]\",\"logits_soft_cap\":null,\"mask\":{\"bool_mask\":\"bool[128,1,1,3072]\",\"q_start\":null,\"q_end\":null,\"k_start\":null,\"k_end\":null,\"is_causal\":false},\"dropout_mask\":null,\"dropout_rate\":0.0,\"paging_info\":null,\"q_indices\":null,\"k_indices\":null,\"normalize_output\":true,\"return_residuals\":false}": {
    "{}": {
      "compile_time_ms": 1451.9392739748582,
      "lower_time_ms": 24.17819999391213,
      "evaluation_times_ms": [
        27.558,
        27.56,
        27.55,
        27.578,
        27.564
      ],
      "metadata": {
        "peak_memory_mb": 19032.375
      }
    }
  },
  "{\"q\":\"bf16[128,3072,4,32]\",\"k\":\"bf16[128,3072,4,32]\",\"v\":\"bf16[128,3072,4,32]\",\"precision\":[\"BF16_BF16_F32\",\"BF16_BF16_F32\"],\"logits_dtype\":\"float32\",\"logits_scale\":0.17677669529663687,\"bias\":\"bf16[1,4,3072,3072]\",\"logits_soft_cap\":null,\"mask\":{\"bool_mask\":\"bool[128,1,1,3072]\",\"q_start\":null,\"q_end\":null,\"k_start\":null,\"k_end\":null,\"is_causal\":false},\"dropout_mask\":null,\"dropout_rate\":0.0,\"paging_info\":null,\"q_indices\":null,\"k_indices\":null,\"normalize_output\":true,\"return_residuals\":false}": {
    "{}": {
      "compile_time_ms": 1448.6685969750397,
      "lower_time_ms": 16.669943986926228,
      "evaluation_times_ms": [
        27.556,
        27.551,
        27.566,
        27.566,
        27.565
      ],
      "metadata": {
        "peak_memory_mb": 19032.375
      }
    }
  },
  "{\"q\":\"bf16[128,3328,4,16]\",\"k\":\"bf16[128,3328,4,16]\",\"v\":\"bf16[128,3328,4,16]\",\"precision\":[\"BF16_BF16_F32\",\"BF16_BF16_F32\"],\"logits_dtype\":\"float32\",\"logits_scale\":0.25,\"bias\":\"bf16[1,4,3328,3328]\",\"logits_soft_cap\":null,\"mask\":{\"bool_mask\":\"bool[128,1,1,3328]\",\"q_start\":null,\"q_end\":null,\"k_start\":null,\"k_end\":null,\"is_causal\":false},\"dropout_mask\":null,\"dropout_rate\":0.0,\"paging_info\":null,\"q_indices\":null,\"k_indices\":null,\"normalize_output\":true,\"return_residuals\":false}": {
    "{}": {
      "compile_time_ms": 1141.1140109994449,
      "lower_time_ms": 22.09276199573651,
      "evaluation_times_ms": [
        26.138,
        26.142,
        26.151,
        26.145,
        26.143
      ],
      "metadata": {
        "peak_memory_mb": 22093.90625
      }
    }
  },
  "{\"q\":\"bf16[1,128,3328,4,32]\",\"k\":\"bf16[1,128,3328,4,32]\",\"v\":\"bf16[1,128,3328,4,32]\",\"precision\":[\"BF16_BF16_F32\",\"BF16_BF16_F32\"],\"logits_dtype\":\"float32\",\"logits_scale\":0.17677669529663687,\"bias\":\"bf16[1,1,4,3328,3328]\",\"logits_soft_cap\":null,\"mask\":{\"bool_mask\":\"bool[128,1,1,3328]\",\"q_start\":null,\"q_end\":null,\"k_start\":null,\"k_end\":null,\"is_causal\":false},\"dropout_mask\":null,\"dropout_rate\":0.0,\"paging_info\":null,\"q_indices\":null,\"k_indices\":null,\"normalize_output\":true,\"return_residuals\":false}": {
    "{}": {
      "compile_time_ms": 1163.398842967581,
      "lower_time_ms": 22.142841015011072,
      "evaluation_times_ms": [
        26.758,
        26.735,
        26.746,
        26.751,
        26.761
      ],
      "metadata": {
        "peak_memory_mb": 22301.90625
      }
    }
  },
  "{\"q\":\"bf16[128,3328,4,32]\",\"k\":\"bf16[128,3328,4,32]\",\"v\":\"bf16[128,3328,4,32]\",\"precision\":[\"BF16_BF16_F32\",\"BF16_BF16_F32\"],\"logits_dtype\":\"float32\",\"logits_scale\":0.17677669529663687,\"bias\":\"bf16[1,4,3328,3328]\",\"logits_soft_cap\":null,\"mask\":{\"bool_mask\":\"bool[128,1,1,3328]\",\"q_start\":null,\"q_end\":null,\"k_start\":null,\"k_end\":null,\"is_causal\":false},\"dropout_mask\":null,\"dropout_rate\":0.0,\"paging_info\":null,\"q_indices\":null,\"k_indices\":null,\"normalize_output\":true,\"return_residuals\":false}": {
    "{}": {
      "compile_time_ms": 1153.5742699634284,
      "lower_time_ms": 17.224575043655932,
      "evaluation_times_ms": [
        26.754,
        26.747,
        26.747,
        26.764,
        26.756
      ],
      "metadata": {
        "peak_memory_mb": 22301.90625
      }
    }
  },
  "{\"q\":\"bf16[128,3584,4,16]\",\"k\":\"bf16[128,3584,4,16]\",\"v\":\"bf16[128,3584,4,16]\",\"precision\":[\"BF16_BF16_F32\",\"BF16_BF16_F32\"],\"logits_dtype\":\"float32\",\"logits_scale\":0.25,\"bias\":\"bf16[1,4,3584,3584]\",\"logits_soft_cap\":null,\"mask\":{\"bool_mask\":\"bool[128,1,1,3584]\",\"q_start\":null,\"q_end\":null,\"k_start\":null,\"k_end\":null,\"is_causal\":false},\"dropout_mask\":null,\"dropout_rate\":0.0,\"paging_info\":null,\"q_indices\":null,\"k_indices\":null,\"normalize_output\":true,\"return_residuals\":false}": {
    "{}": {
      "compile_time_ms": 1222.30495599797,
      "lower_time_ms": 22.750270029064268,
      "evaluation_times_ms": [
        29.809,
        29.775,
        29.787,
        29.789,
        29.783
      ],
      "metadata": {
        "peak_memory_mb": 25606.4375
      }
    }
  },
  "{\"q\":\"bf16[1,128,3584,4,32]\",\"k\":\"bf16[1,128,3584,4,32]\",\"v\":\"bf16[1,128,3584,4,32]\",\"precision\":[\"BF16_BF16_F32\",\"BF16_BF16_F32\"],\"logits_dtype\":\"float32\",\"logits_scale\":0.17677669529663687,\"bias\":\"bf16[1,1,4,3584,3584]\",\"logits_soft_cap\":null,\"mask\":{\"bool_mask\":\"bool[128,1,1,3584]\",\"q_start\":null,\"q_end\":null,\"k_start\":null,\"k_end\":null,\"is_causal\":false},\"dropout_mask\":null,\"dropout_rate\":0.0,\"paging_info\":null,\"q_indices\":null,\"k_indices\":null,\"normalize_output\":true,\"return_residuals\":false}": {
    "{}": {
      "compile_time_ms": 1344.787911977619,
      "lower_time_ms": 22.785776003729552,
      "evaluation_times_ms": [
        28.184,
        28.202,
        28.188,
        28.202,
        28.198
      ],
      "metadata": {
        "peak_memory_mb": 25830.4375
      }
    }
  },
  "{\"q\":\"f16[32,512,16,128]\",\"k\":\"f16[32,512,16,128]\",\"v\":\"f16[32,512,16,128]\",\"precision\":[\"BF16_BF16_F32\",\"BF16_BF16_F32\"],\"logits_dtype\":\"float32\",\"logits_scale\":0.08838834764831843,\"bias\":null,\"logits_soft_cap\":null,\"mask\":{\"bool_mask\":null,\"q_start\":null,\"q_end\":null,\"k_start\":null,\"k_end\":null,\"is_causal\":false},\"dropout_mask\":null,\"dropout_rate\":0.0,\"paging_info\":null,\"q_indices\":null,\"k_indices\":null,\"normalize_output\":true,\"return_residuals\":false}": {
    "{}": {
      "compile_time_ms": 1852.387191960588,
      "lower_time_ms": 113.38935903040692,
      "evaluation_times_ms": [
        0.809,
        0.809,
        0.81,
        0.808,
        0.809
      ],
      "metadata": {
        "peak_memory_mb": 832.0
      }
    }
  },
  "{\"q\":\"f16[32,512,16,128]\",\"k\":\"f16[32,512,16,128]\",\"v\":\"f16[32,512,16,128]\",\"precision\":[\"BF16_BF16_F32\",\"BF16_BF16_F32\"],\"logits_dtype\":\"float32\",\"logits_scale\":0.08838834764831843,\"bias\":null,\"logits_soft_cap\":null,\"mask\":{\"bool_mask\":null,\"q_start\":null,\"q_end\":null,\"k_start\":null,\"k_end\":null,\"is_causal\":false},\"dropout_mask\":null,\"dropout_rate\":0.0,\"paging_info\":null,\"q_indices\":null,\"k_indices\":null,\"normalize_output\":true,\"return_residuals\":true}": {
    "{}": {
      "compile_time_ms": 773.336740967352,
      "lower_time_ms": 14.894136984366924,
      "evaluation_times_ms": [
        0.811,
        0.809,
        0.811,
        0.811,
        0.81
      ],
      "metadata": {
        "peak_memory_mb": 834.0000305175781
      }
    }
  },
  "{\"q\":\"bf16[32,512,8,256]\",\"k\":\"bf16[32,512,8,256]\",\"v\":\"bf16[32,512,8,256]\",\"precision\":[[\"DEFAULT\",\"DEFAULT\"],[\"DEFAULT\",\"DEFAULT\"]],\"logits_dtype\":\"float32\",\"logits_scale\":0.0625,\"bias\":null,\"logits_soft_cap\":null,\"mask\":{\"bool_mask\":null,\"q_start\":null,\"q_end\":null,\"k_start\":null,\"k_end\":null,\"is_causal\":true},\"dropout_mask\":null,\"dropout_rate\":0.0,\"paging_info\":null,\"q_indices\":null,\"k_indices\":null,\"normalize_output\":true,\"return_residuals\":false}": {
    "{}": {
      "compile_time_ms": 1049.3892660015263,
      "lower_time_ms": 17.121984041295946,
      "evaluation_times_ms": [
        0.605,
        0.605,
        0.606,
        0.605,
        0.605
      ],
      "metadata": {
        "peak_memory_mb": 576.0
      }
    }
  },
  "{\"q\":\"bf16[32,512,8,256]\",\"k\":\"bf16[32,512,8,256]\",\"v\":\"bf16[32,512,8,256]\",\"precision\":[\"BF16_BF16_F32\",\"BF16_BF16_F32\"],\"logits_dtype\":\"float32\",\"logits_scale\":0.0625,\"bias\":null,\"logits_soft_cap\":null,\"mask\":{\"bool_mask\":null,\"q_start\":null,\"q_end\":null,\"k_start\":null,\"k_end\":null,\"is_causal\":true},\"dropout_mask\":null,\"dropout_rate\":0.0,\"paging_info\":null,\"q_indices\":null,\"k_indices\":null,\"normalize_output\":true,\"return_residuals\":true}": {
    "{}": {
      "compile_time_ms": 1043.6516280169599,
      "lower_time_ms": 15.199392975773662,
      "evaluation_times_ms": [
        0.606,
        0.606,
        0.607,
        0.606,
        0.608
      ],
      "metadata": {
        "peak_memory_mb": 577.0000305175781
      }
    }
  },
  "{\"q\":\"f16[32,512,8,256]\",\"k\":\"f16[32,512,8,256]\",\"v\":\"f16[32,512,8,256]\",\"precision\":[\"BF16_BF16_F32\",\"BF16_BF16_F32\"],\"logits_dtype\":\"float32\",\"logits_scale\":0.0625,\"bias\":null,\"logits_soft_cap\":null,\"mask\":{\"bool_mask\":null,\"q_start\":null,\"q_end\":null,\"k_start\":null,\"k_end\":null,\"is_causal\":true},\"dropout_mask\":null,\"dropout_rate\":0.0,\"paging_info\":null,\"q_indices\":null,\"k_indices\":null,\"normalize_output\":true,\"return_residuals\":false}": {
    "{}": {
      "compile_time_ms": 1048.3280749758705,
      "lower_time_ms": 17.18148897634819,
      "evaluation_times_ms": [
        0.723,
        0.724,
        0.725,
        0.726,
        0.724
      ],
      "metadata": {
        "peak_memory_mb": 576.0
      }
    }
  },
  "{\"q\":\"f16[32,512,8,256]\",\"k\":\"f16[32,512,8,256]\",\"v\":\"f16[32,512,8,256]\",\"precision\":[\"BF16_BF16_F32\",\"BF16_BF16_F32\"],\"logits_dtype\":\"float32\",\"logits_scale\":0.0625,\"bias\":null,\"logits_soft_cap\":null,\"mask\":{\"bool_mask\":null,\"q_start\":null,\"q_end\":null,\"k_start\":null,\"k_end\":null,\"is_causal\":true},\"dropout_mask\":null,\"dropout_rate\":0.0,\"paging_info\":null,\"q_indices\":null,\"k_indices\":null,\"normalize_output\":true,\"return_residuals\":true}": {
    "{}": {
      "compile_time_ms": 1052.7905779890716,
      "lower_time_ms": 15.233858022838831,
      "evaluation_times_ms": [
        0.724,
        0.724,
        0.725,
        0.725,
        0.725
      ],
      "metadata": {
        "peak_memory_mb": 577.0000305175781
      }
    }
  },
  "{\"q\":\"bf16[32,512,8,256]\",\"k\":\"bf16[32,512,8,256]\",\"v\":\"bf16[32,512,8,256]\",\"precision\":[[\"DEFAULT\",\"DEFAULT\"],[\"DEFAULT\",\"DEFAULT\"]],\"logits_dtype\":\"float32\",\"logits_scale\":0.0625,\"bias\":null,\"logits_soft_cap\":null,\"mask\":{\"bool_mask\":null,\"q_start\":null,\"q_end\":null,\"k_start\":null,\"k_end\":null,\"is_causal\":false},\"dropout_mask\":null,\"dropout_rate\":0.0,\"paging_info\":null,\"q_indices\":null,\"k_indices\":null,\"normalize_output\":true,\"return_residuals\":false}": {
    "{}": {
      "compile_time_ms": 896.7107289936393,
      "lower_time_ms": 14.49842902366072,
      "evaluation_times_ms": [
        0.592,
        0.592,
        0.592,
        0.591,
        0.59
      ],
      "metadata": {
        "peak_memory_mb": 576.0
      }
    }
  },
  "{\"q\":\"bf16[32,512,8,256]\",\"k\":\"bf16[32,512,8,256]\",\"v\":\"bf16[32,512,8,256]\",\"precision\":[\"BF16_BF16_F32\",\"BF16_BF16_F32\"],\"logits_dtype\":\"float32\",\"logits_scale\":0.0625,\"bias\":null,\"logits_soft_cap\":null,\"mask\":{\"bool_mask\":null,\"q_start\":null,\"q_end\":null,\"k_start\":null,\"k_end\":null,\"is_causal\":false},\"dropout_mask\":null,\"dropout_rate\":0.0,\"paging_info\":null,\"q_indices\":null,\"k_indices\":null,\"normalize_output\":true,\"return_residuals\":true}": {
    "{}": {
      "compile_time_ms": 898.1433850130998,
      "lower_time_ms": 13.887593988329172,
      "evaluation_times_ms": [
        0.592,
        0.59,
        0.592,
        0.591,
        0.59
      ],
      "metadata": {
        "peak_memory_mb": 577.0000305175781
      }
    }
  },
  "{\"q\":\"f16[32,512,8,256]\",\"k\":\"f16[32,512,8,256]\",\"v\":\"f16[32,512,8,256]\",\"precision\":[\"BF16_BF16_F32\",\"BF16_BF16_F32\"],\"logits_dtype\":\"float32\",\"logits_scale\":0.0625,\"bias\":null,\"logits_soft_cap\":null,\"mask\":{\"bool_mask\":null,\"q_start\":null,\"q_end\":null,\"k_start\":null,\"k_end\":null,\"is_causal\":false},\"dropout_mask\":null,\"dropout_rate\":0.0,\"paging_info\":null,\"q_indices\":null,\"k_indices\":null,\"normalize_output\":true,\"return_residuals\":false}": {
    "{}": {
      "compile_time_ms": 2083.685156016145,
      "lower_time_ms": 132.89149099728093,
      "evaluation_times_ms": [
        0.71,
        0.71,
        0.711,
        0.711,
        0.711
      ],
      "metadata": {
        "peak_memory_mb": 576.0
      }
    }
  },
  "{\"q\":\"f16[32,512,8,256]\",\"k\":\"f16[32,512,8,256]\",\"v\":\"f16[32,512,8,256]\",\"precision\":[\"BF16_BF16_F32\",\"BF16_BF16_F32\"],\"logits_dtype\":\"float32\",\"logits_scale\":0.0625,\"bias\":null,\"logits_soft_cap\":null,\"mask\":{\"bool_mask\":null,\"q_start\":null,\"q_end\":null,\"k_start\":null,\"k_end\":null,\"is_causal\":false},\"dropout_mask\":null,\"dropout_rate\":0.0,\"paging_info\":null,\"q_indices\":null,\"k_indices\":null,\"normalize_output\":true,\"return_residuals\":true}": {
    "{}": {
      "compile_time_ms": 913.6773489881307,
      "lower_time_ms": 15.08660102263093,
      "evaluation_times_ms": [
        0.711,
        0.711,
        0.711,
        0.712,
        0.712
      ],
      "metadata": {
        "peak_memory_mb": 577.0000305175781
      }
    }
  },
  "{\"q\":\"bf16[16,1024,32,64]\",\"k\":\"bf16[16,1024,32,64]\",\"v\":\"bf16[16,1024,32,64]\",\"precision\":[[\"DEFAULT\",\"DEFAULT\"],[\"DEFAULT\",\"DEFAULT\"]],\"logits_dtype\":\"float32\",\"logits_scale\":0.125,\"bias\":null,\"logits_soft_cap\":null,\"mask\":{\"bool_mask\":null,\"q_start\":null,\"q_end\":null,\"k_start\":null,\"k_end\":null,\"is_causal\":true},\"dropout_mask\":null,\"dropout_rate\":0.0,\"paging_info\":null,\"q_indices\":null,\"k_indices\":null,\"normalize_output\":true,\"return_residuals\":false}": {
    "{}": {
      "compile_time_ms": 1071.0776849882677,
      "lower_time_ms": 17.496000975370407,
      "evaluation_times_ms": [
        2.37,
        2.371,
        2.372,
        2.369,
        2.371
      ],
      "metadata": {
        "peak_memory_mb": 2304.0
      }
    }
  },
  "{\"q\":\"bf16[16,1024,32,64]\",\"k\":\"bf16[16,1024,32,64]\",\"v\":\"bf16[16,1024,32,64]\",\"precision\":[\"BF16_BF16_F32\",\"BF16_BF16_F32\"],\"logits_dtype\":\"float32\",\"logits_scale\":0.125,\"bias\":null,\"logits_soft_cap\":null,\"mask\":{\"bool_mask\":null,\"q_start\":null,\"q_end\":null,\"k_start\":null,\"k_end\":null,\"is_causal\":true},\"dropout_mask\":null,\"dropout_rate\":0.0,\"paging_info\":null,\"q_indices\":null,\"k_indices\":null,\"normalize_output\":true,\"return_residuals\":true}": {
    "{}": {
      "compile_time_ms": 1069.8141410248354,
      "lower_time_ms": 15.067941974848509,
      "evaluation_times_ms": [
        2.368,
        2.371,
        2.372,
        2.368,
        2.371
      ],
      "metadata": {
        "peak_memory_mb": 2308.000030517578
      }
    }
  },
  "{\"q\":\"f16[16,1024,32,64]\",\"k\":\"f16[16,1024,32,64]\",\"v\":\"f16[16,1024,32,64]\",\"precision\":[\"BF16_BF16_F32\",\"BF16_BF16_F32\"],\"logits_dtype\":\"float32\",\"logits_scale\":0.125,\"bias\":null,\"logits_soft_cap\":null,\"mask\":{\"bool_mask\":null,\"q_start\":null,\"q_end\":null,\"k_start\":null,\"k_end\":null,\"is_causal\":true},\"dropout_mask\":null,\"dropout_rate\":0.0,\"paging_info\":null,\"q_indices\":null,\"k_indices\":null,\"normalize_output\":true,\"return_residuals\":false}": {
    "{}": {
      "compile_time_ms": 1062.3515990446322,
      "lower_time_ms": 15.435348032042384,
      "evaluation_times_ms": [
        2.371,
        2.367,
        2.367,
        2.372,
        2.368
      ],
      "metadata": {
        "peak_memory_mb": 2304.0
      }
    }
  },
  "{\"q\":\"f16[16,1024,32,64]\",\"k\":\"f16[16,1024,32,64]\",\"v\":\"f16[16,1024,32,64]\",\"precision\":[\"BF16_BF16_F32\",\"BF16_BF16_F32\"],\"logits_dtype\":\"float32\",\"logits_scale\":0.125,\"bias\":null,\"logits_soft_cap\":null,\"mask\":{\"bool_mask\":null,\"q_start\":null,\"q_end\":null,\"k_start\":null,\"k_end\":null,\"is_causal\":true},\"dropout_mask\":null,\"dropout_rate\":0.0,\"paging_info\":null,\"q_indices\":null,\"k_indices\":null,\"normalize_output\":true,\"return_residuals\":true}": {
    "{}": {
      "compile_time_ms": 1061.9893459952436,
      "lower_time_ms": 15.227378986310214,
      "evaluation_times_ms": [
        2.372,
        2.369,
        2.37,
        2.37,
        2.37
      ],
      "metadata": {
        "peak_memory_mb": 2308.000030517578
      }
    }
  },
  "{\"q\":\"bf16[16,1024,32,64]\",\"k\":\"bf16[16,1024,32,64]\",\"v\":\"bf16[16,1024,32,64]\",\"precision\":[[\"DEFAULT\",\"DEFAULT\"],[\"DEFAULT\",\"DEFAULT\"]],\"logits_dtype\":\"float32\",\"logits_scale\":0.125,\"bias\":null,\"logits_soft_cap\":null,\"mask\":{\"bool_mask\":null,\"q_start\":null,\"q_end\":null,\"k_start\":null,\"k_end\":null,\"is_causal\":false},\"dropout_mask\":null,\"dropout_rate\":0.0,\"paging_info\":null,\"q_indices\":null,\"k_indices\":null,\"normalize_output\":true,\"return_residuals\":false}": {
    "{}": {
      "compile_time_ms": 669.1982470219955,
      "lower_time_ms": 13.409143022727221,
      "evaluation_times_ms": [
        2.055,
        2.056,
        2.055,
        2.056,
        2.055
      ],
      "metadata": {
        "peak_memory_mb": 2304.0
      }
    }
  },
  "{\"q\":\"bf16[16,1024,32,64]\",\"k\":\"bf16[16,1024,32,64]\",\"v\":\"bf16[16,1024,32,64]\",\"precision\":[\"BF16_BF16_F32\",\"BF16_BF16_F32\"],\"logits_dtype\":\"float32\",\"logits_scale\":0.125,\"bias\":null,\"logits_soft_cap\":null,\"mask\":{\"bool_mask\":null,\"q_start\":null,\"q_end\":null,\"k_start\":null,\"k_end\":null,\"is_causal\":false},\"dropout_mask\":null,\"dropout_rate\":0.0,\"paging_info\":null,\"q_indices\":null,\"k_indices\":null,\"normalize_output\":true,\"return_residuals\":true}": {
    "{}": {
      "compile_time_ms": 667.3046309733763,
      "lower_time_ms": 13.754674000665545,
      "evaluation_times_ms": [
        2.059,
        2.055,
        2.058,
        2.059,
        2.057
      ],
      "metadata": {
        "peak_memory_mb": 2308.000030517578
      }
    }
  },
  "{\"q\":\"f16[16,1024,32,64]\",\"k\":\"f16[16,1024,32,64]\",\"v\":\"f16[16,1024,32,64]\",\"precision\":[\"BF16_BF16_F32\",\"BF16_BF16_F32\"],\"logits_dtype\":\"float32\",\"logits_scale\":0.125,\"bias\":null,\"logits_soft_cap\":null,\"mask\":{\"bool_mask\":null,\"q_start\":null,\"q_end\":null,\"k_start\":null,\"k_end\":null,\"is_causal\":false},\"dropout_mask\":null,\"dropout_rate\":0.0,\"paging_info\":null,\"q_indices\":null,\"k_indices\":null,\"normalize_output\":true,\"return_residuals\":false}": {
    "{}": {
      "compile_time_ms": 1756.4898009877652,
      "lower_time_ms": 112.70158604020253,
      "evaluation_times_ms": [
        2.056,
        2.057,
        2.056,
        2.058,
        2.057
      ],
      "metadata": {
        "peak_memory_mb": 2304.0
      }
    }
  },
  "{\"q\":\"f16[16,1024,32,64]\",\"k\":\"f16[16,1024,32,64]\",\"v\":\"f16[16,1024,32,64]\",\"precision\":[\"BF16_BF16_F32\",\"BF16_BF16_F32\"],\"logits_dtype\":\"float32\",\"logits_scale\":0.125,\"bias\":null,\"logits_soft_cap\":null,\"mask\":{\"bool_mask\":null,\"q_start\":null,\"q_end\":null,\"k_start\":null,\"k_end\":null,\"is_causal\":false},\"dropout_mask\":null,\"dropout_rate\":0.0,\"paging_info\":null,\"q_indices\":null,\"k_indices\":null,\"normalize_output\":true,\"return_residuals\":true}": {
    "{}": {
      "compile_time_ms": 679.3244080035947,
      "lower_time_ms": 14.047520002350211,
      "evaluation_times_ms": [
        2.06,
        2.06,
        2.059,
        2.059,
        2.06
      ],
      "metadata": {
        "peak_memory_mb": 2308.000030517578
      }
    }
  },
  "{\"q\":\"bf16[16,1024,16,128]\",\"k\":\"bf16[16,1024,16,128]\",\"v\":\"bf16[16,1024,16,128]\",\"precision\":[[\"DEFAULT\",\"DEFAULT\"],[\"DEFAULT\",\"DEFAULT\"]],\"logits_dtype\":\"float32\",\"logits_scale\":0.08838834764831843,\"bias\":null,\"logits_soft_cap\":null,\"mask\":{\"bool_mask\":null,\"q_start\":null,\"q_end\":null,\"k_start\":null,\"k_end\":null,\"is_causal\":true},\"dropout_mask\":null,\"dropout_rate\":0.0,\"paging_info\":null,\"q_indices\":null,\"k_indices\":null,\"normalize_output\":true,\"return_residuals\":false}": {
    "{}": {
      "compile_time_ms": 1129.77919599507,
      "lower_time_ms": 17.69478397909552,
      "evaluation_times_ms": [
        1.268,
        1.264,
        1.265,
        1.267,
        1.267
      ],
      "metadata": {
        "peak_memory_mb": 1344.0
      }
    }
  },
  "{\"q\":\"bf16[16,1024,16,128]\",\"k\":\"bf16[16,1024,16,128]\",\"v\":\"bf16[16,1024,16,128]\",\"precision\":[\"BF16_BF16_F32\",\"BF16_BF16_F32\"],\"logits_dtype\":\"float32\",\"logits_scale\":0.08838834764831843,\"bias\":null,\"logits_soft_cap\":null,\"mask\":{\"bool_mask\":null,\"q_start\":null,\"q_end\":null,\"k_start\":null,\"k_end\":null,\"is_causal\":true},\"dropout_mask\":null,\"dropout_rate\":0.0,\"paging_info\":null,\"q_indices\":null,\"k_indices\":null,\"normalize_output\":true,\"return_residuals\":true}": {
    "{}": {
      "compile_time_ms": 1131.427284970414,
      "lower_time_ms": 15.181916998699307,
      "evaluation_times_ms": [
        1.267,
        1.268,
        1.27,
        1.266,
        1.271
      ],
      "metadata": {
        "peak_memory_mb": 1346.0000305175781
      }
    }
  },
  "{\"q\":\"f16[16,1024,16,128]\",\"k\":\"f16[16,1024,16,128]\",\"v\":\"f16[16,1024,16,128]\",\"precision\":[\"BF16_BF16_F32\",\"BF16_BF16_F32\"],\"logits_dtype\":\"float32\",\"logits_scale\":0.08838834764831843,\"bias\":null,\"logits_soft_cap\":null,\"mask\":{\"bool_mask\":null,\"q_start\":null,\"q_end\":null,\"k_start\":null,\"k_end\":null,\"is_causal\":true},\"dropout_mask\":null,\"dropout_rate\":0.0,\"paging_info\":null,\"q_indices\":null,\"k_indices\":null,\"normalize_output\":true,\"return_residuals\":false}": {
    "{}": {
      "compile_time_ms": 1171.0482659982517,
      "lower_time_ms": 15.313011012040079,
      "evaluation_times_ms": [
        1.394,
        1.396,
        1.393,
        1.395,
        1.395
      ],
      "metadata": {
        "peak_memory_mb": 1344.0
      }
    }
  },
  "{\"q\":\"f16[16,1024,16,128]\",\"k\":\"f16[16,1024,16,128]\",\"v\":\"f16[16,1024,16,128]\",\"precision\":[\"BF16_BF16_F32\",\"BF16_BF16_F32\"],\"logits_dtype\":\"float32\",\"logits_scale\":0.08838834764831843,\"bias\":null,\"logits_soft_cap\":null,\"mask\":{\"bool_mask\":null,\"q_start\":null,\"q_end\":null,\"k_start\":null,\"k_end\":null,\"is_causal\":true},\"dropout_mask\":null,\"dropout_rate\":0.0,\"paging_info\":null,\"q_indices\":null,\"k_indices\":null,\"normalize_output\":true,\"return_residuals\":true}": {
    "{}": {
      "compile_time_ms": 1159.0053419931792,
      "lower_time_ms": 15.439041017089039,
      "evaluation_times_ms": [
        1.393,
        1.396,
        1.395,
        1.396,
        1.394
      ],
      "metadata": {
        "peak_memory_mb": 1346.0000305175781
      }
    }
  },
  "{\"q\":\"bf16[16,1024,16,128]\",\"k\":\"bf16[16,1024,16,128]\",\"v\":\"bf16[16,1024,16,128]\",\"precision\":[[\"DEFAULT\",\"DEFAULT\"],[\"DEFAULT\",\"DEFAULT\"]],\"logits_dtype\":\"float32\",\"logits_scale\":0.08838834764831843,\"bias\":null,\"logits_soft_cap\":null,\"mask\":{\"bool_mask\":null,\"q_start\":null,\"q_end\":null,\"k_start\":null,\"k_end\":null,\"is_causal\":false},\"dropout_mask\":null,\"dropout_rate\":0.0,\"paging_info\":null,\"q_indices\":null,\"k_indices\":null,\"normalize_output\":true,\"return_residuals\":false}": {
    "{}": {
      "compile_time_ms": 876.5008299960755,
      "lower_time_ms": 14.571583014912903,
      "evaluation_times_ms": [
        1.209,
        1.207,
        1.208,
        1.208,
        1.207
      ],
      "metadata": {
        "peak_memory_mb": 1344.0
      }
    }
  },
  "{\"q\":\"bf16[16,1024,16,128]\",\"k\":\"bf16[16,1024,16,128]\",\"v\":\"bf16[16,1024,16,128]\",\"precision\":[\"BF16_BF16_F32\",\"BF16_BF16_F32\"],\"logits_dtype\":\"float32\",\"logits_scale\":0.08838834764831843,\"bias\":null,\"logits_soft_cap\":null,\"mask\":{\"bool_mask\":null,\"q_start\":null,\"q_end\":null,\"k_start\":null,\"k_end\":null,\"is_causal\":false},\"dropout_mask\":null,\"dropout_rate\":0.0,\"paging_info\":null,\"q_indices\":null,\"k_indices\":null,\"normalize_output\":true,\"return_residuals\":true}": {
    "{}": {
      "compile_time_ms": 868.9380710129626,
      "lower_time_ms": 14.534343034029007,
      "evaluation_times_ms": [
        1.209,
        1.207,
        1.21,
        1.208,
        1.208
      ],
      "metadata": {
        "peak_memory_mb": 1346.0000305175781
      }
    }
  },
  "{\"q\":\"f16[16,1024,16,128]\",\"k\":\"f16[16,1024,16,128]\",\"v\":\"f16[16,1024,16,128]\",\"precision\":[\"BF16_BF16_F32\",\"BF16_BF16_F32\"],\"logits_dtype\":\"float32\",\"logits_scale\":0.08838834764831843,\"bias\":null,\"logits_soft_cap\":null,\"mask\":{\"bool_mask\":null,\"q_start\":null,\"q_end\":null,\"k_start\":null,\"k_end\":null,\"is_causal\":false},\"dropout_mask\":null,\"dropout_rate\":0.0,\"paging_info\":null,\"q_indices\":null,\"k_indices\":null,\"normalize_output\":true,\"return_residuals\":false}": {
    "{}": {
      "compile_time_ms": 1976.8311469815671,
      "lower_time_ms": 117.03958199359477,
      "evaluation_times_ms": [
        1.337,
        1.334,
        1.333,
        1.335,
        1.333
      ],
      "metadata": {
        "peak_memory_mb": 1344.0
      }
    }
  },
  "{\"q\":\"f16[16,1024,16,128]\",\"k\":\"f16[16,1024,16,128]\",\"v\":\"f16[16,1024,16,128]\",\"precision\":[\"BF16_BF16_F32\",\"BF16_BF16_F32\"],\"logits_dtype\":\"float32\",\"logits_scale\":0.08838834764831843,\"bias\":null,\"logits_soft_cap\":null,\"mask\":{\"bool_mask\":null,\"q_start\":null,\"q_end\":null,\"k_start\":null,\"k_end\":null,\"is_causal\":false},\"dropout_mask\":null,\"dropout_rate\":0.0,\"paging_info\":null,\"q_indices\":null,\"k_indices\":null,\"normalize_output\":true,\"return_residuals\":true}": {
    "{}": {
      "compile_time_ms": 883.8899940019473,
      "lower_time_ms": 14.011410996317863,
      "evaluation_times_ms": [
        1.335,
        1.335,
        1.334,
        1.337,
        1.335
      ],
      "metadata": {
        "peak_memory_mb": 1346.0000305175781
      }
    }
  },
  "{\"q\":\"bf16[16,1024,8,256]\",\"k\":\"bf16[16,1024,8,256]\",\"v\":\"bf16[16,1024,8,256]\",\"precision\":[[\"DEFAULT\",\"DEFAULT\"],[\"DEFAULT\",\"DEFAULT\"]],\"logits_dtype\":\"float32\",\"logits_scale\":0.0625,\"bias\":null,\"logits_soft_cap\":null,\"mask\":{\"bool_mask\":null,\"q_start\":null,\"q_end\":null,\"k_start\":null,\"k_end\":null,\"is_causal\":true},\"dropout_mask\":null,\"dropout_rate\":0.0,\"paging_info\":null,\"q_indices\":null,\"k_indices\":null,\"normalize_output\":true,\"return_residuals\":false}": {
    "{}": {
      "compile_time_ms": 1281.5013480139896,
      "lower_time_ms": 18.839391006622463,
      "evaluation_times_ms": [
        0.978,
        0.977,
        0.977,
        0.977,
        0.978
      ],
      "metadata": {
        "peak_memory_mb": 832.0
      }
    }
  },
  "{\"q\":\"bf16[16,1024,8,256]\",\"k\":\"bf16[16,1024,8,256]\",\"v\":\"bf16[16,1024,8,256]\",\"precision\":[\"BF16_BF16_F32\",\"BF16_BF16_F32\"],\"logits_dtype\":\"float32\",\"logits_scale\":0.0625,\"bias\":null,\"logits_soft_cap\":null,\"mask\":{\"bool_mask\":null,\"q_start\":null,\"q_end\":null,\"k_start\":null,\"k_end\":null,\"is_causal\":true},\"dropout_mask\":null,\"dropout_rate\":0.0,\"paging_info\":null,\"q_indices\":null,\"k_indices\":null,\"normalize_output\":true,\"return_residuals\":true}": {
    "{}": {
      "compile_time_ms": 1267.9448460112326,
      "lower_time_ms": 15.214803977869451,
      "evaluation_times_ms": [
        0.977,
        0.98,
        0.976,
        0.978,
        0.978
      ],
      "metadata": {
        "peak_memory_mb": 833.0000305175781
      }
    }
  },
  "{\"q\":\"f16[16,1024,8,256]\",\"k\":\"f16[16,1024,8,256]\",\"v\":\"f16[16,1024,8,256]\",\"precision\":[\"BF16_BF16_F32\",\"BF16_BF16_F32\"],\"logits_dtype\":\"float32\",\"logits_scale\":0.0625,\"bias\":null,\"logits_soft_cap\":null,\"mask\":{\"bool_mask\":null,\"q_start\":null,\"q_end\":null,\"k_start\":null,\"k_end\":null,\"is_causal\":true},\"dropout_mask\":null,\"dropout_rate\":0.0,\"paging_info\":null,\"q_indices\":null,\"k_indices\":null,\"normalize_output\":true,\"return_residuals\":false}": {
    "{}": {
      "compile_time_ms": 1281.1691249953583,
      "lower_time_ms": 16.154305019881576,
      "evaluation_times_ms": [
        1.096,
        1.095,
        1.097,
        1.098,
        1.096
      ],
      "metadata": {
        "peak_memory_mb": 832.0
      }
    }
  },
  "{\"q\":\"f16[16,1024,8,256]\",\"k\":\"f16[16,1024,8,256]\",\"v\":\"f16[16,1024,8,256]\",\"precision\":[\"BF16_BF16_F32\",\"BF16_BF16_F32\"],\"logits_dtype\":\"float32\",\"logits_scale\":0.0625,\"bias\":null,\"logits_soft_cap\":null,\"mask\":{\"bool_mask\":null,\"q_start\":null,\"q_end\":null,\"k_start\":null,\"k_end\":null,\"is_causal\":true},\"dropout_mask\":null,\"dropout_rate\":0.0,\"paging_info\":null,\"q_indices\":null,\"k_indices\":null,\"normalize_output\":true,\"return_residuals\":true}": {
    "{}": {
      "compile_time_ms": 1284.9833199870773,
      "lower_time_ms": 15.163645963184536,
      "evaluation_times_ms": [
        1.098,
        1.098,
        1.097,
        1.097,
        1.096
      ],
      "metadata": {
        "peak_memory_mb": 833.0000305175781
      }
    }
  },
  "{\"q\":\"bf16[16,1024,8,256]\",\"k\":\"bf16[16,1024,8,256]\",\"v\":\"bf16[16,1024,8,256]\",\"precision\":[[\"DEFAULT\",\"DEFAULT\"],[\"DEFAULT\",\"DEFAULT\"]],\"logits_dtype\":\"float32\",\"logits_scale\":0.0625,\"bias\":null,\"logits_soft_cap\":null,\"mask\":{\"bool_mask\":null,\"q_start\":null,\"q_end\":null,\"k_start\":null,\"k_end\":null,\"is_causal\":false},\"dropout_mask\":null,\"dropout_rate\":0.0,\"paging_info\":null,\"q_indices\":null,\"k_indices\":null,\"normalize_output\":true,\"return_residuals\":false}": {
    "{}": {
      "compile_time_ms": 1070.9787730011158,
      "lower_time_ms": 14.89990798290819,
      "evaluation_times_ms": [
        0.93,
        0.93,
        0.93,
        0.931,
        0.928
      ],
      "metadata": {
        "peak_memory_mb": 832.0
      }
    }
  },
  "{\"q\":\"bf16[16,1024,8,256]\",\"k\":\"bf16[16,1024,8,256]\",\"v\":\"bf16[16,1024,8,256]\",\"precision\":[\"BF16_BF16_F32\",\"BF16_BF16_F32\"],\"logits_dtype\":\"float32\",\"logits_scale\":0.0625,\"bias\":null,\"logits_soft_cap\":null,\"mask\":{\"bool_mask\":null,\"q_start\":null,\"q_end\":null,\"k_start\":null,\"k_end\":null,\"is_causal\":false},\"dropout_mask\":null,\"dropout_rate\":0.0,\"paging_info\":null,\"q_indices\":null,\"k_indices\":null,\"normalize_output\":true,\"return_residuals\":true}": {
    "{}": {
      "compile_time_ms": 1044.2895659944043,
      "lower_time_ms": 14.32267902418971,
      "evaluation_times_ms": [
        0.931,
        0.928,
        0.931,
        0.931,
        0.93
      ],
      "metadata": {
        "peak_memory_mb": 833.0000305175781
      }
    }
  },
  "{\"q\":\"f16[16,1024,8,256]\",\"k\":\"f16[16,1024,8,256]\",\"v\":\"f16[16,1024,8,256]\",\"precision\":[\"BF16_BF16_F32\",\"BF16_BF16_F32\"],\"logits_dtype\":\"float32\",\"logits_scale\":0.0625,\"bias\":null,\"logits_soft_cap\":null,\"mask\":{\"bool_mask\":null,\"q_start\":null,\"q_end\":null,\"k_start\":null,\"k_end\":null,\"is_causal\":false},\"dropout_mask\":null,\"dropout_rate\":0.0,\"paging_info\":null,\"q_indices\":null,\"k_indices\":null,\"normalize_output\":true,\"return_residuals\":false}": {
    "{}": {
      "compile_time_ms": 2143.80533300573,
      "lower_time_ms": 119.40336902625859,
      "evaluation_times_ms": [
        1.053,
        1.055,
        1.054,
        1.053,
        1.054
      ],
      "metadata": {
        "peak_memory_mb": 832.0
      }
    }
  },
  "{\"q\":\"f16[16,1024,8,256]\",\"k\":\"f16[16,1024,8,256]\",\"v\":\"f16[16,1024,8,256]\",\"precision\":[\"BF16_BF16_F32\",\"BF16_BF16_F32\"],\"logits_dtype\":\"float32\",\"logits_scale\":0.0625,\"bias\":null,\"logits_soft_cap\":null,\"mask\":{\"bool_mask\":null,\"q_start\":null,\"q_end\":null,\"k_start\":null,\"k_end\":null,\"is_causal\":false},\"dropout_mask\":null,\"dropout_rate\":0.0,\"paging_info\":null,\"q_indices\":null,\"k_indices\":null,\"normalize_output\":true,\"return_residuals\":true}": {
    "{}": {
      "compile_time_ms": 1045.4684399883263,
      "lower_time_ms": 14.04042902868241,
      "evaluation_times_ms": [
        1.052,
        1.053,
        1.052,
        1.051,
        1.056
      ],
      "metadata": {
        "peak_memory_mb": 833.0000305175781
      }
    }
  },
  "{\"q\":\"bf16[8,2048,32,64]\",\"k\":\"bf16[8,2048,32,64]\",\"v\":\"bf16[8,2048,32,64]\",\"precision\":[[\"DEFAULT\",\"DEFAULT\"],[\"DEFAULT\",\"DEFAULT\"]],\"logits_dtype\":\"float32\",\"logits_scale\":0.125,\"bias\":null,\"logits_soft_cap\":null,\"mask\":{\"bool_mask\":null,\"q_start\":null,\"q_end\":null,\"k_start\":null,\"k_end\":null,\"is_causal\":true},\"dropout_mask\":null,\"dropout_rate\":0.0,\"paging_info\":null,\"q_indices\":null,\"k_indices\":null,\"normalize_output\":true,\"return_residuals\":false}": {
    "{}": {
      "compile_time_ms": 1391.0173249896616,
      "lower_time_ms": 17.61092501692474,
      "evaluation_times_ms": [
        4.659,
        4.665,
        4.661,
        4.66,
        4.668
      ],
      "metadata": {
        "peak_memory_mb": 4352.0
      }
    }
  },
  "{\"q\":\"bf16[8,2048,32,64]\",\"k\":\"bf16[8,2048,32,64]\",\"v\":\"bf16[8,2048,32,64]\",\"precision\":[\"BF16_BF16_F32\",\"BF16_BF16_F32\"],\"logits_dtype\":\"float32\",\"logits_scale\":0.125,\"bias\":null,\"logits_soft_cap\":null,\"mask\":{\"bool_mask\":null,\"q_start\":null,\"q_end\":null,\"k_start\":null,\"k_end\":null,\"is_causal\":true},\"dropout_mask\":null,\"dropout_rate\":0.0,\"paging_info\":null,\"q_indices\":null,\"k_indices\":null,\"normalize_output\":true,\"return_residuals\":true}": {
    "{}": {
      "compile_time_ms": 1397.0600020256825,
      "lower_time_ms": 15.326669963542372,
      "evaluation_times_ms": [
        4.663,
        4.661,
        4.67,
        4.666,
        4.662
      ],
      "metadata": {
        "peak_memory_mb": 4356.000030517578
      }
    }
  },
  "{\"q\":\"f16[8,2048,32,64]\",\"k\":\"f16[8,2048,32,64]\",\"v\":\"f16[8,2048,32,64]\",\"precision\":[\"BF16_BF16_F32\",\"BF16_BF16_F32\"],\"logits_dtype\":\"float32\",\"logits_scale\":0.125,\"bias\":null,\"logits_soft_cap\":null,\"mask\":{\"bool_mask\":null,\"q_start\":null,\"q_end\":null,\"k_start\":null,\"k_end\":null,\"is_causal\":true},\"dropout_mask\":null,\"dropout_rate\":0.0,\"paging_info\":null,\"q_indices\":null,\"k_indices\":null,\"normalize_output\":true,\"return_residuals\":false}": {
    "{}": {
      "compile_time_ms": 1353.7447970011272,
      "lower_time_ms": 15.511453035287559,
      "evaluation_times_ms": [
        4.669,
        4.668,
        4.664,
        4.664,
        4.666
      ],
      "metadata": {
        "peak_memory_mb": 4352.0
      }
    }
  },
  "{\"q\":\"f16[8,2048,32,64]\",\"k\":\"f16[8,2048,32,64]\",\"v\":\"f16[8,2048,32,64]\",\"precision\":[\"BF16_BF16_F32\",\"BF16_BF16_F32\"],\"logits_dtype\":\"float32\",\"logits_scale\":0.125,\"bias\":null,\"logits_soft_cap\":null,\"mask\":{\"bool_mask\":null,\"q_start\":null,\"q_end\":null,\"k_start\":null,\"k_end\":null,\"is_causal\":true},\"dropout_mask\":null,\"dropout_rate\":0.0,\"paging_info\":null,\"q_indices\":null,\"k_indices\":null,\"normalize_output\":true,\"return_residuals\":true}": {
    "{}": {
      "compile_time_ms": 1375.4699819837697,
      "lower_time_ms": 15.780162008013576,
      "evaluation_times_ms": [
        4.659,
        4.669,
        4.664,
        4.665,
        4.657
      ],
      "metadata": {
        "peak_memory_mb": 4356.000030517578
      }
    }
  },
  "{\"q\":\"bf16[8,2048,32,64]\",\"k\":\"bf16[8,2048,32,64]\",\"v\":\"bf16[8,2048,32,64]\",\"precision\":[[\"DEFAULT\",\"DEFAULT\"],[\"DEFAULT\",\"DEFAULT\"]],\"logits_dtype\":\"float32\",\"logits_scale\":0.125,\"bias\":null,\"logits_soft_cap\":null,\"mask\":{\"bool_mask\":null,\"q_start\":null,\"q_end\":null,\"k_start\":null,\"k_end\":null,\"is_causal\":false},\"dropout_mask\":null,\"dropout_rate\":0.0,\"paging_info\":null,\"q_indices\":null,\"k_indices\":null,\"normalize_output\":true,\"return_residuals\":false}": {
    "{}": {
      "compile_time_ms": 770.3812450054102,
      "lower_time_ms": 13.758166052866727,
      "evaluation_times_ms": [
        4.08,
        4.082,
        4.082,
        4.079,
        4.079
      ],
      "metadata": {
        "peak_memory_mb": 4352.0
      }
    }
  },
  "{\"q\":\"bf16[8,2048,32,64]\",\"k\":\"bf16[8,2048,32,64]\",\"v\":\"bf16[8,2048,32,64]\",\"precision\":[\"BF16_BF16_F32\",\"BF16_BF16_F32\"],\"logits_dtype\":\"float32\",\"logits_scale\":0.125,\"bias\":null,\"logits_soft_cap\":null,\"mask\":{\"bool_mask\":null,\"q_start\":null,\"q_end\":null,\"k_start\":null,\"k_end\":null,\"is_causal\":false},\"dropout_mask\":null,\"dropout_rate\":0.0,\"paging_info\":null,\"q_indices\":null,\"k_indices\":null,\"normalize_output\":true,\"return_residuals\":true}": {
    "{}": {
      "compile_time_ms": 771.3056720094755,
      "lower_time_ms": 13.500130036845803,
      "evaluation_times_ms": [
        4.078,
        4.084,
        4.084,
        4.084,
        4.082
      ],
      "metadata": {
        "peak_memory_mb": 4356.000030517578
      }
    }
  },
  "{\"q\":\"f16[8,2048,32,64]\",\"k\":\"f16[8,2048,32,64]\",\"v\":\"f16[8,2048,32,64]\",\"precision\":[\"BF16_BF16_F32\",\"BF16_BF16_F32\"],\"logits_dtype\":\"float32\",\"logits_scale\":0.125,\"bias\":null,\"logits_soft_cap\":null,\"mask\":{\"bool_mask\":null,\"q_start\":null,\"q_end\":null,\"k_start\":null,\"k_end\":null,\"is_causal\":false},\"dropout_mask\":null,\"dropout_rate\":0.0,\"paging_info\":null,\"q_indices\":null,\"k_indices\":null,\"normalize_output\":true,\"return_residuals\":false}": {
    "{}": {
      "compile_time_ms": 1912.5792320119217,
      "lower_time_ms": 125.9666649857536,
      "evaluation_times_ms": [
        4.097,
        4.096,
        4.101,
        4.096,
        4.094
      ],
      "metadata": {
        "peak_memory_mb": 4352.0
      }
    }
  },
  "{\"q\":\"f16[8,2048,32,64]\",\"k\":\"f16[8,2048,32,64]\",\"v\":\"f16[8,2048,32,64]\",\"precision\":[\"BF16_BF16_F32\",\"BF16_BF16_F32\"],\"logits_dtype\":\"float32\",\"logits_scale\":0.125,\"bias\":null,\"logits_soft_cap\":null,\"mask\":{\"bool_mask\":null,\"q_start\":null,\"q_end\":null,\"k_start\":null,\"k_end\":null,\"is_causal\":false},\"dropout_mask\":null,\"dropout_rate\":0.0,\"paging_info\":null,\"q_indices\":null,\"k_indices\":null,\"normalize_output\":true,\"return_residuals\":true}": {
    "{}": {
      "compile_time_ms": 758.7738170404918,
      "lower_time_ms": 13.984412013087422,
      "evaluation_times_ms": [
        4.104,
        4.096,
        4.097,
        4.098,
        4.089
      ],
      "metadata": {
        "peak_memory_mb": 4356.000030517578
      }
    }
  },
  "{\"q\":\"bf16[8,2048,16,128]\",\"k\":\"bf16[8,2048,16,128]\",\"v\":\"bf16[8,2048,16,128]\",\"precision\":[[\"DEFAULT\",\"DEFAULT\"],[\"DEFAULT\",\"DEFAULT\"]],\"logits_dtype\":\"float32\",\"logits_scale\":0.08838834764831843,\"bias\":null,\"logits_soft_cap\":null,\"mask\":{\"bool_mask\":null,\"q_start\":null,\"q_end\":null,\"k_start\":null,\"k_end\":null,\"is_causal\":true},\"dropout_mask\":null,\"dropout_rate\":0.0,\"paging_info\":null,\"q_indices\":null,\"k_indices\":null,\"normalize_output\":true,\"return_residuals\":false}": {
    "{}": {
      "compile_time_ms": 1249.636152992025,
      "lower_time_ms": 18.665393989067525,
      "evaluation_times_ms": [
        2.896,
        2.891,
        2.889,
        2.893,
        2.887
      ],
      "metadata": {
        "peak_memory_mb": 2368.0
      }
    }
  },
  "{\"q\":\"bf16[8,2048,16,128]\",\"k\":\"bf16[8,2048,16,128]\",\"v\":\"bf16[8,2048,16,128]\",\"precision\":[\"BF16_BF16_F32\",\"BF16_BF16_F32\"],\"logits_dtype\":\"float32\",\"logits_scale\":0.08838834764831843,\"bias\":null,\"logits_soft_cap\":null,\"mask\":{\"bool_mask\":null,\"q_start\":null,\"q_end\":null,\"k_start\":null,\"k_end\":null,\"is_causal\":true},\"dropout_mask\":null,\"dropout_rate\":0.0,\"paging_info\":null,\"q_indices\":null,\"k_indices\":null,\"normalize_output\":true,\"return_residuals\":true}": {
    "{}": {
      "compile_time_ms": 1241.48971401155,
      "lower_time_ms": 15.626765030901879,
      "evaluation_times_ms": [
        2.892,
        2.897,
        2.893,
        2.899,
        2.891
      ],
      "metadata": {
        "peak_memory_mb": 2370.000030517578
      }
    }
  },
  "{\"q\":\"f16[8,2048,16,128]\",\"k\":\"f16[8,2048,16,128]\",\"v\":\"f16[8,2048,16,128]\",\"precision\":[\"BF16_BF16_F32\",\"BF16_BF16_F32\"],\"logits_dtype\":\"float32\",\"logits_scale\":0.08838834764831843,\"bias\":null,\"logits_soft_cap\":null,\"mask\":{\"bool_mask\":null,\"q_start\":null,\"q_end\":null,\"k_start\":null,\"k_end\":null,\"is_causal\":true},\"dropout_mask\":null,\"dropout_rate\":0.0,\"paging_info\":null,\"q_indices\":null,\"k_indices\":null,\"normalize_output\":true,\"return_residuals\":false}": {
    "{}": {
      "compile_time_ms": 1261.921805969905,
      "lower_time_ms": 16.522870981134474,
      "evaluation_times_ms": [
        3.016,
        3.016,
        3.015,
        3.018,
        3.015
      ],
      "metadata": {
        "peak_memory_mb": 2368.0
      }
    }
  },
  "{\"q\":\"f16[8,2048,16,128]\",\"k\":\"f16[8,2048,16,128]\",\"v\":\"f16[8,2048,16,128]\",\"precision\":[\"BF16_BF16_F32\",\"BF16_BF16_F32\"],\"logits_dtype\":\"float32\",\"logits_scale\":0.08838834764831843,\"bias\":null,\"logits_soft_cap\":null,\"mask\":{\"bool_mask\":null,\"q_start\":null,\"q_end\":null,\"k_start\":null,\"k_end\":null,\"is_causal\":true},\"dropout_mask\":null,\"dropout_rate\":0.0,\"paging_info\":null,\"q_indices\":null,\"k_indices\":null,\"normalize_output\":true,\"return_residuals\":true}": {
    "{}": {
      "compile_time_ms": 1251.276063034311,
      "lower_time_ms": 15.304445987567306,
      "evaluation_times_ms": [
        3.011,
        3.017,
        3.013,
        3.011,
        3.018
      ],
      "metadata": {
        "peak_memory_mb": 2370.000030517578
      }
    }
  },
  "{\"q\":\"bf16[8,2048,16,128]\",\"k\":\"bf16[8,2048,16,128]\",\"v\":\"bf16[8,2048,16,128]\",\"precision\":[[\"DEFAULT\",\"DEFAULT\"],[\"DEFAULT\",\"DEFAULT\"]],\"logits_dtype\":\"float32\",\"logits_scale\":0.08838834764831843,\"bias\":null,\"logits_soft_cap\":null,\"mask\":{\"bool_mask\":null,\"q_start\":null,\"q_end\":null,\"k_start\":null,\"k_end\":null,\"is_causal\":false},\"dropout_mask\":null,\"dropout_rate\":0.0,\"paging_info\":null,\"q_indices\":null,\"k_indices\":null,\"normalize_output\":true,\"return_residuals\":false}": {
    "{}": {
      "compile_time_ms": 946.5913450112566,
      "lower_time_ms": 14.211517001967877,
      "evaluation_times_ms": [
        2.664,
        2.658,
        2.662,
        2.661,
        2.657
      ],
      "metadata": {
        "peak_memory_mb": 2368.0
      }
    }
  },
  "{\"q\":\"bf16[8,2048,16,128]\",\"k\":\"bf16[8,2048,16,128]\",\"v\":\"bf16[8,2048,16,128]\",\"precision\":[\"BF16_BF16_F32\",\"BF16_BF16_F32\"],\"logits_dtype\":\"float32\",\"logits_scale\":0.08838834764831843,\"bias\":null,\"logits_soft_cap\":null,\"mask\":{\"bool_mask\":null,\"q_start\":null,\"q_end\":null,\"k_start\":null,\"k_end\":null,\"is_causal\":false},\"dropout_mask\":null,\"dropout_rate\":0.0,\"paging_info\":null,\"q_indices\":null,\"k_indices\":null,\"normalize_output\":true,\"return_residuals\":true}": {
    "{}": {
      "compile_time_ms": 937.8674630424939,
      "lower_time_ms": 13.520567037630826,
      "evaluation_times_ms": [
        2.662,
        2.66,
        2.665,
        2.662,
        2.663
      ],
      "metadata": {
        "peak_memory_mb": 2370.000030517578
      }
    }
  },
  "{\"q\":\"f16[8,2048,16,128]\",\"k\":\"f16[8,2048,16,128]\",\"v\":\"f16[8,2048,16,128]\",\"precision\":[\"BF16_BF16_F32\",\"BF16_BF16_F32\"],\"logits_dtype\":\"float32\",\"logits_scale\":0.08838834764831843,\"bias\":null,\"logits_soft_cap\":null,\"mask\":{\"bool_mask\":null,\"q_start\":null,\"q_end\":null,\"k_start\":null,\"k_end\":null,\"is_causal\":false},\"dropout_mask\":null,\"dropout_rate\":0.0,\"paging_info\":null,\"q_indices\":null,\"k_indices\":null,\"normalize_output\":true,\"return_residuals\":false}": {
    "{}": {
      "compile_time_ms": 2095.105210028123,
      "lower_time_ms": 120.01429899828508,
      "evaluation_times_ms": [
        2.759,
        2.759,
        2.761,
        2.762,
        2.762
      ],
      "metadata": {
        "peak_memory_mb": 2368.0
      }
    }
  },
  "{\"q\":\"f16[8,2048,16,128]\",\"k\":\"f16[8,2048,16,128]\",\"v\":\"f16[8,2048,16,128]\",\"precision\":[\"BF16_BF16_F32\",\"BF16_BF16_F32\"],\"logits_dtype\":\"float32\",\"logits_scale\":0.08838834764831843,\"bias\":null,\"logits_soft_cap\":null,\"mask\":{\"bool_mask\":null,\"q_start\":null,\"q_end\":null,\"k_start\":null,\"k_end\":null,\"is_causal\":false},\"dropout_mask\":null,\"dropout_rate\":0.0,\"paging_info\":null,\"q_indices\":null,\"k_indices\":null,\"normalize_output\":true,\"return_residuals\":true}": {
    "{}": {
      "compile_time_ms": 954.8440930084325,
      "lower_time_ms": 14.892243023496121,
      "evaluation_times_ms": [
        2.761,
        2.76,
        2.76,
        2.76,
        2.758
      ],
      "metadata": {
        "peak_memory_mb": 2370.000030517578
      }
    }
  },
  "{\"q\":\"bf16[8,2048,8,256]\",\"k\":\"bf16[8,2048,8,256]\",\"v\":\"bf16[8,2048,8,256]\",\"precision\":[[\"DEFAULT\",\"DEFAULT\"],[\"DEFAULT\",\"DEFAULT\"]],\"logits_dtype\":\"float32\",\"logits_scale\":0.0625,\"bias\":null,\"logits_soft_cap\":null,\"mask\":{\"bool_mask\":null,\"q_start\":null,\"q_end\":null,\"k_start\":null,\"k_end\":null,\"is_causal\":true},\"dropout_mask\":null,\"dropout_rate\":0.0,\"paging_info\":null,\"q_indices\":null,\"k_indices\":null,\"normalize_output\":true,\"return_residuals\":false}": {
    "{}": {
      "compile_time_ms": 1606.4533150056377,
      "lower_time_ms": 18.732708995230496,
      "evaluation_times_ms": [
        1.845,
        1.845,
        1.845,
        1.845,
        1.847
      ],
      "metadata": {
        "peak_memory_mb": 1344.0
      }
    }
  },
  "{\"q\":\"bf16[8,2048,8,256]\",\"k\":\"bf16[8,2048,8,256]\",\"v\":\"bf16[8,2048,8,256]\",\"precision\":[\"BF16_BF16_F32\",\"BF16_BF16_F32\"],\"logits_dtype\":\"float32\",\"logits_scale\":0.0625,\"bias\":null,\"logits_soft_cap\":null,\"mask\":{\"bool_mask\":null,\"q_start\":null,\"q_end\":null,\"k_start\":null,\"k_end\":null,\"is_causal\":true},\"dropout_mask\":null,\"dropout_rate\":0.0,\"paging_info\":null,\"q_indices\":null,\"k_indices\":null,\"normalize_output\":true,\"return_residuals\":true}": {
    "{}": {
      "compile_time_ms": 1606.6256199846976,
      "lower_time_ms": 16.27312897471711,
      "evaluation_times_ms": [
        1.847,
        1.846,
        1.847,
        1.844,
        1.847
      ],
      "metadata": {
        "peak_memory_mb": 1345.0000305175781
      }
    }
  },
  "{\"q\":\"f16[8,2048,8,256]\",\"k\":\"f16[8,2048,8,256]\",\"v\":\"f16[8,2048,8,256]\",\"precision\":[\"BF16_BF16_F32\",\"BF16_BF16_F32\"],\"logits_dtype\":\"float32\",\"logits_scale\":0.0625,\"bias\":null,\"logits_soft_cap\":null,\"mask\":{\"bool_mask\":null,\"q_start\":null,\"q_end\":null,\"k_start\":null,\"k_end\":null,\"is_causal\":true},\"dropout_mask\":null,\"dropout_rate\":0.0,\"paging_info\":null,\"q_indices\":null,\"k_indices\":null,\"normalize_output\":true,\"return_residuals\":false}": {
    "{}": {
      "compile_time_ms": 1605.0677460152656,
      "lower_time_ms": 16.266771010123193,
      "evaluation_times_ms": [
        1.963,
        1.967,
        1.963,
        1.964,
        1.964
      ],
      "metadata": {
        "peak_memory_mb": 1344.0
      }
    }
  },
  "{\"q\":\"f16[8,2048,8,256]\",\"k\":\"f16[8,2048,8,256]\",\"v\":\"f16[8,2048,8,256]\",\"precision\":[\"BF16_BF16_F32\",\"BF16_BF16_F32\"],\"logits_dtype\":\"float32\",\"logits_scale\":0.0625,\"bias\":null,\"logits_soft_cap\":null,\"mask\":{\"bool_mask\":null,\"q_start\":null,\"q_end\":null,\"k_start\":null,\"k_end\":null,\"is_causal\":true},\"dropout_mask\":null,\"dropout_rate\":0.0,\"paging_info\":null,\"q_indices\":null,\"k_indices\":null,\"normalize_output\":true,\"return_residuals\":true}": {
    "{}": {
      "compile_time_ms": 1586.582535004709,
      "lower_time_ms": 16.502054990269244,
      "evaluation_times_ms": [
        1.965,
        1.965,
        1.965,
        1.965,
        1.966
      ],
      "metadata": {
        "peak_memory_mb": 1345.0000305175781
      }
    }
  },
  "{\"q\":\"bf16[8,2048,8,256]\",\"k\":\"bf16[8,2048,8,256]\",\"v\":\"bf16[8,2048,8,256]\",\"precision\":[[\"DEFAULT\",\"DEFAULT\"],[\"DEFAULT\",\"DEFAULT\"]],\"logits_dtype\":\"float32\",\"logits_scale\":0.0625,\"bias\":null,\"logits_soft_cap\":null,\"mask\":{\"bool_mask\":null,\"q_start\":null,\"q_end\":null,\"k_start\":null,\"k_end\":null,\"is_causal\":false},\"dropout_mask\":null,\"dropout_rate\":0.0,\"paging_info\":null,\"q_indices\":null,\"k_indices\":null,\"normalize_output\":true,\"return_residuals\":false}": {
    "{}": {
      "compile_time_ms": 1234.812522016,
      "lower_time_ms": 14.976550999563187,
      "evaluation_times_ms": [
        1.708,
        1.708,
        1.706,
        1.706,
        1.709
      ],
      "metadata": {
        "peak_memory_mb": 1344.0
      }
    }
  },
  "{\"q\":\"bf16[8,2048,8,256]\",\"k\":\"bf16[8,2048,8,256]\",\"v\":\"bf16[8,2048,8,256]\",\"precision\":[\"BF16_BF16_F32\",\"BF16_BF16_F32\"],\"logits_dtype\":\"float32\",\"logits_scale\":0.0625,\"bias\":null,\"logits_soft_cap\":null,\"mask\":{\"bool_mask\":null,\"q_start\":null,\"q_end\":null,\"k_start\":null,\"k_end\":null,\"is_causal\":false},\"dropout_mask\":null,\"dropout_rate\":0.0,\"paging_info\":null,\"q_indices\":null,\"k_indices\":null,\"normalize_output\":true,\"return_residuals\":true}": {
    "{}": {
      "compile_time_ms": 1229.4431399786845,
      "lower_time_ms": 14.691075019072741,
      "evaluation_times_ms": [
        1.707,
        1.709,
        1.704,
        1.709,
        1.709
      ],
      "metadata": {
        "peak_memory_mb": 1345.0000305175781
      }
    }
  }
}
