{
  "{\"lhs\":\"bf16[131072,7168]\",\"rhs\":\"bf16[256,7168,1024]\",\"group_sizes\":{\"num_groups\":256,\"total_size\":131072},\"ragged_dot_dimension_numbers\":{\"dot_dimension_numbers\":[[[1],[1]],[[],[]]],\"lhs_ragged_dimensions\":[0],\"rhs_group_dimensions\":[0]},\"precision\":[\"DEFAULT\",\"DEFAULT\"],\"preferred_element_type\":null,\"return_residuals\":false,\"activation\":null}": {
    "{}": {
      "compile_time_ms": 1779.5083399978466,
      "lower_time_ms": 307.0237560023088,
      "evaluation_times_ms": [
        4.352,
        4.348,
        4.348,
        4.35,
        4.345
      ],
      "metadata": {},
      "peak_memory_mb": 6442.451968
    }
  },
  "{\"lhs\":\"bf16[131072,7168]\",\"rhs\":\"bf16[256,7168,1024]\",\"group_sizes\":{\"num_groups\":256,\"total_size\":131072},\"ragged_dot_dimension_numbers\":{\"dot_dimension_numbers\":[[[1],[1]],[[],[]]],\"lhs_ragged_dimensions\":[0],\"rhs_group_dimensions\":[0]},\"precision\":[\"DEFAULT\",\"DEFAULT\"],\"preferred_element_type\":null,\"return_residuals\":true,\"activation\":null}": {
    "{}": {
      "compile_time_ms": 1245.8391500040307,
      "lower_time_ms": 9.874384995782748,
      "evaluation_times_ms": [
        4.516,
        4.517,
        4.516,
        4.517,
        4.514
      ],
      "metadata": {},
      "peak_memory_mb": 6710.887456
    }
  },
  "{\"lhs\":\"bf16[131072,1024]\",\"rhs\":\"bf16[256,1024,7168]\",\"group_sizes\":{\"num_groups\":256,\"total_size\":131072},\"ragged_dot_dimension_numbers\":{\"dot_dimension_numbers\":[[[1],[1]],[[],[]]],\"lhs_ragged_dimensions\":[0],\"rhs_group_dimensions\":[0]},\"precision\":[\"DEFAULT\",\"DEFAULT\"],\"preferred_element_type\":null,\"return_residuals\":false,\"activation\":null}": {
    "{}": {
      "compile_time_ms": 416.43520499928854,
      "lower_time_ms": 10.980140999890864,
      "evaluation_times_ms": [
        7.329,
        7.329,
        7.33,
        7.327,
        7.332
      ],
      "metadata": {},
      "peak_memory_mb": 9663.67744
    }
  },
  "{\"lhs\":\"bf16[131072,1024]\",\"rhs\":\"bf16[256,1024,7168]\",\"group_sizes\":{\"num_groups\":256,\"total_size\":131072},\"ragged_dot_dimension_numbers\":{\"dot_dimension_numbers\":[[[1],[1]],[[],[]]],\"lhs_ragged_dimensions\":[0],\"rhs_group_dimensions\":[0]},\"precision\":[\"DEFAULT\",\"DEFAULT\"],\"preferred_element_type\":null,\"return_residuals\":true,\"activation\":null}": {
    "{}": {
      "compile_time_ms": 424.6494979961426,
      "lower_time_ms": 10.489401000086218,
      "evaluation_times_ms": [
        8.484,
        8.492,
        8.483,
        8.491,
        8.484
      ],
      "metadata": {},
      "peak_memory_mb": 11542.725664
    }
  },
  "{\"lhs\":\"bf16[131072,7168]\",\"rhs\":\"bf16[256,7168,512]\",\"group_sizes\":{\"num_groups\":256,\"total_size\":131072},\"ragged_dot_dimension_numbers\":{\"dot_dimension_numbers\":[[[1],[1]],[[],[]]],\"lhs_ragged_dimensions\":[0],\"rhs_group_dimensions\":[0]},\"precision\":[\"DEFAULT\",\"DEFAULT\"],\"preferred_element_type\":null,\"return_residuals\":false,\"activation\":null}": {
    "{}": {
      "compile_time_ms": 418.2592180000029,
      "lower_time_ms": 10.740709999993214,
      "evaluation_times_ms": [
        2.176,
        2.176,
        2.175,
        2.177,
        2.175
      ],
      "metadata": {},
      "peak_memory_mb": 4160.750592
    }
  },
  "{\"lhs\":\"bf16[131072,7168]\",\"rhs\":\"bf16[256,7168,512]\",\"group_sizes\":{\"num_groups\":256,\"total_size\":131072},\"ragged_dot_dimension_numbers\":{\"dot_dimension_numbers\":[[[1],[1]],[[],[]]],\"lhs_ragged_dimensions\":[0],\"rhs_group_dimensions\":[0]},\"precision\":[\"DEFAULT\",\"DEFAULT\"],\"preferred_element_type\":null,\"return_residuals\":true,\"activation\":null}": {
    "{}": {
      "compile_time_ms": 432.87416799995526,
      "lower_time_ms": 12.182004000010238,
      "evaluation_times_ms": [
        2.256,
        2.253,
        2.253,
        2.252,
        2.254
      ],
      "metadata": {},
      "peak_memory_mb": 4294.968352
    }
  },
  "{\"lhs\":\"bf16[131072,512]\",\"rhs\":\"bf16[256,512,7168]\",\"group_sizes\":{\"num_groups\":256,\"total_size\":131072},\"ragged_dot_dimension_numbers\":{\"dot_dimension_numbers\":[[[1],[1]],[[],[]]],\"lhs_ragged_dimensions\":[0],\"rhs_group_dimensions\":[0]},\"precision\":[\"DEFAULT\",\"DEFAULT\"],\"preferred_element_type\":null,\"return_residuals\":false,\"activation\":null}": {
    "{}": {
      "compile_time_ms": 372.0358209999972,
      "lower_time_ms": 9.7106110000027,
      "evaluation_times_ms": [
        5.062,
        5.067,
        5.062,
        5.069,
        5.06
      ],
      "metadata": {},
      "peak_memory_mb": 7650.41152
    }
  },
  "{\"lhs\":\"bf16[131072,512]\",\"rhs\":\"bf16[256,512,7168]\",\"group_sizes\":{\"num_groups\":256,\"total_size\":131072},\"ragged_dot_dimension_numbers\":{\"dot_dimension_numbers\":[[[1],[1]],[[],[]]],\"lhs_ragged_dimensions\":[0],\"rhs_group_dimensions\":[0]},\"precision\":[\"DEFAULT\",\"DEFAULT\"],\"preferred_element_type\":null,\"return_residuals\":true,\"activation\":null}": {
    "{}": {
      "compile_time_ms": 384.16825199999494,
      "lower_time_ms": 9.947763000013765,
      "evaluation_times_ms": [
        6.19,
        6.188,
        6.189,
        6.194,
        6.186
      ],
      "metadata": {},
      "peak_memory_mb": 9529.459744
    }
  },
  "{\"lhs\":\"bf16[262144,7168]\",\"rhs\":\"bf16[256,7168,512]\",\"group_sizes\":{\"num_groups\":256,\"total_size\":262144},\"ragged_dot_dimension_numbers\":{\"dot_dimension_numbers\":[[[1],[1]],[[],[]]],\"lhs_ragged_dimensions\":[0],\"rhs_group_dimensions\":[0]},\"precision\":[\"DEFAULT\",\"DEFAULT\"],\"preferred_element_type\":null,\"return_residuals\":false,\"activation\":null}": {
    "{}": {
      "compile_time_ms": 428.95784600023035,
      "lower_time_ms": 11.207720999664161,
      "evaluation_times_ms": [
        3.499,
        3.495,
        3.495,
        3.496,
        3.498
      ],
      "metadata": {},
      "peak_memory_mb": 6442.451968
    }
  },
  "{\"lhs\":\"bf16[262144,7168]\",\"rhs\":\"bf16[256,7168,512]\",\"group_sizes\":{\"num_groups\":256,\"total_size\":262144},\"ragged_dot_dimension_numbers\":{\"dot_dimension_numbers\":[[[1],[1]],[[],[]]],\"lhs_ragged_dimensions\":[0],\"rhs_group_dimensions\":[0]},\"precision\":[\"DEFAULT\",\"DEFAULT\"],\"preferred_element_type\":null,\"return_residuals\":true,\"activation\":null}": {
    "{}": {
      "compile_time_ms": 436.8112859992834,
      "lower_time_ms": 11.292320999928052,
      "evaluation_times_ms": [
        3.669,
        3.668,
        3.672,
        3.669,
        3.671
      ],
      "metadata": {},
      "peak_memory_mb": 6710.887456
    }
  },
  "{\"lhs\":\"bf16[262144,512]\",\"rhs\":\"bf16[256,512,7168]\",\"group_sizes\":{\"num_groups\":256,\"total_size\":262144},\"ragged_dot_dimension_numbers\":{\"dot_dimension_numbers\":[[[1],[1]],[[],[]]],\"lhs_ragged_dimensions\":[0],\"rhs_group_dimensions\":[0]},\"precision\":[\"DEFAULT\",\"DEFAULT\"],\"preferred_element_type\":null,\"return_residuals\":false,\"activation\":null}": {
    "{}": {
      "compile_time_ms": 1860.3825999998662,
      "lower_time_ms": 305.9578980000879,
      "evaluation_times_ms": [
        8.799,
        8.8,
        8.807,
        8.8,
        8.8
      ],
      "metadata": {},
      "peak_memory_mb": 13421.773824
    }
  },
  "{\"lhs\":\"bf16[262144,512]\",\"rhs\":\"bf16[256,512,7168]\",\"group_sizes\":{\"num_groups\":256,\"total_size\":262144},\"ragged_dot_dimension_numbers\":{\"dot_dimension_numbers\":[[[1],[1]],[[],[]]],\"lhs_ragged_dimensions\":[0],\"rhs_group_dimensions\":[0]},\"precision\":[\"DEFAULT\",\"DEFAULT\"],\"preferred_element_type\":null,\"return_residuals\":true,\"activation\":null}": {
    "{}": {
      "compile_time_ms": 402.6655309999114,
      "lower_time_ms": 11.346756999955687,
      "evaluation_times_ms": [
        11.187,
        11.182,
        11.183,
        11.189,
        11.181
      ],
      "metadata": {},
      "peak_memory_mb": 17179.87024
    }
  },
  "{\"lhs\":\"bf16[262144,256]\",\"rhs\":\"bf16[256,256,7168]\",\"group_sizes\":{\"num_groups\":256,\"total_size\":262144},\"ragged_dot_dimension_numbers\":{\"dot_dimension_numbers\":[[[1],[1]],[[],[]]],\"lhs_ragged_dimensions\":[0],\"rhs_group_dimensions\":[0]},\"precision\":[\"DEFAULT\",\"DEFAULT\"],\"preferred_element_type\":null,\"return_residuals\":false,\"activation\":null}": {
    "{}": {
      "compile_time_ms": 1625.2267569998367,
      "lower_time_ms": 271.8118089997006,
      "evaluation_times_ms": [
        7.819,
        7.82,
        7.815,
        7.811,
        7.814
      ],
      "metadata": {},
      "peak_memory_mb": 12348.032
    }
  },
  "{\"lhs\":\"bf16[262144,256]\",\"rhs\":\"bf16[256,256,7168]\",\"group_sizes\":{\"num_groups\":256,\"total_size\":262144},\"ragged_dot_dimension_numbers\":{\"dot_dimension_numbers\":[[[1],[1]],[[],[]]],\"lhs_ragged_dimensions\":[0],\"rhs_group_dimensions\":[0]},\"precision\":[\"DEFAULT\",\"DEFAULT\"],\"preferred_element_type\":null,\"return_residuals\":true,\"activation\":null}": {
    "{}": {
      "compile_time_ms": 379.937139001413,
      "lower_time_ms": 11.467652999272104,
      "evaluation_times_ms": [
        10.149,
        10.153,
        10.155,
        10.149,
        10.151
      ],
      "metadata": {},
      "peak_memory_mb": 16106.128416
    }
  },
  "{\"lhs\":\"bf16[262144,1024]\",\"rhs\":\"bf16[256,1024,7168]\",\"group_sizes\":{\"num_groups\":256,\"total_size\":262144},\"ragged_dot_dimension_numbers\":{\"dot_dimension_numbers\":[[[1],[1]],[[],[]]],\"lhs_ragged_dimensions\":[0],\"rhs_group_dimensions\":[0]},\"precision\":[\"DEFAULT\",\"DEFAULT\"],\"preferred_element_type\":null,\"return_residuals\":false,\"activation\":null}": {
    "{}": {
      "compile_time_ms": 416.8530529987038,
      "lower_time_ms": 11.07668599979661,
      "evaluation_times_ms": [
        12.088,
        12.089,
        12.084,
        12.079,
        12.09
      ],
      "metadata": {},
      "peak_memory_mb": 15569.257472
    }
  },
  "{\"lhs\":\"bf16[262144,1024]\",\"rhs\":\"bf16[256,1024,7168]\",\"group_sizes\":{\"num_groups\":256,\"total_size\":262144},\"ragged_dot_dimension_numbers\":{\"dot_dimension_numbers\":[[[1],[1]],[[],[]]],\"lhs_ragged_dimensions\":[0],\"rhs_group_dimensions\":[0]},\"precision\":[\"DEFAULT\",\"DEFAULT\"],\"preferred_element_type\":null,\"return_residuals\":true,\"activation\":null}": {
    "{}": {
      "compile_time_ms": 441.22105700080283,
      "lower_time_ms": 10.800997000842472,
      "evaluation_times_ms": [
        14.414,
        14.424,
        14.422,
        14.412,
        14.42
      ],
      "metadata": {},
      "peak_memory_mb": 19327.353888
    }
  },
  "{\"lhs\":\"bf16[262144,7168]\",\"rhs\":\"bf16[256,7168,1024]\",\"group_sizes\":{\"num_groups\":256,\"total_size\":262144},\"ragged_dot_dimension_numbers\":{\"dot_dimension_numbers\":[[[1],[1]],[[],[]]],\"lhs_ragged_dimensions\":[0],\"rhs_group_dimensions\":[0]},\"precision\":[\"DEFAULT\",\"DEFAULT\"],\"preferred_element_type\":null,\"return_residuals\":false,\"activation\":null}": {
    "{}": {
      "compile_time_ms": 1683.0146650318056,
      "lower_time_ms": 132.05302809365094,
      "evaluation_times_ms": [
        6.99,
        6.993,
        6.995,
        6.995,
        6.997
      ],
      "metadata": {},
      "peak_memory_mb": 9126.806528
    }
  },
  "{\"lhs\":\"bf16[262144,7168]\",\"rhs\":\"bf16[256,7168,1024]\",\"group_sizes\":{\"num_groups\":256,\"total_size\":262144},\"ragged_dot_dimension_numbers\":{\"dot_dimension_numbers\":[[[1],[1]],[[],[]]],\"lhs_ragged_dimensions\":[0],\"rhs_group_dimensions\":[0]},\"precision\":[\"DEFAULT\",\"DEFAULT\"],\"preferred_element_type\":null,\"return_residuals\":true,\"activation\":null}": {
    "{}": {
      "compile_time_ms": 1818.5793410011684,
      "lower_time_ms": 335.8370679998188,
      "evaluation_times_ms": [
        7.312,
        7.31,
        7.313,
        7.313,
        7.313
      ],
      "metadata": {},
      "peak_memory_mb": 9663.677472
    }
  },
  "{\"lhs\":\"bf16[4096,4096]\",\"rhs\":\"bf16[8,4096,4096]\",\"group_sizes\":[4096,0,0,0,0,0,0,0],\"ragged_dot_dimension_numbers\":{\"dot_dimension_numbers\":[[[1],[1]],[[],[]]],\"lhs_ragged_dimensions\":[0],\"rhs_group_dimensions\":[0]},\"precision\":[\"DEFAULT\",\"DEFAULT\"],\"preferred_element_type\":null,\"return_residuals\":false,\"activation\":null}": {
    "{}": {
      "compile_time_ms": 1440.7354790018871,
      "lower_time_ms": 232.4336160090752,
      "evaluation_times_ms": [
        0.245,
        0.245,
        0.245,
        0.245,
        0.245
      ],
      "metadata": {},
      "peak_memory_mb": 402.653696
    }
  },
  "{\"lhs\":\"bf16[4096,4096]\",\"rhs\":\"bf16[8,4096,4096]\",\"group_sizes\":[4096,0,0,0,0,0,0,0],\"ragged_dot_dimension_numbers\":{\"dot_dimension_numbers\":[[[1],[1]],[[],[]]],\"lhs_ragged_dimensions\":[0],\"rhs_group_dimensions\":[0]},\"precision\":[\"DEFAULT\",\"DEFAULT\"],\"preferred_element_type\":null,\"return_residuals\":true,\"activation\":null}": {
    "{}": {
      "compile_time_ms": 332.1455379773397,
      "lower_time_ms": 7.150274992454797,
      "evaluation_times_ms": [
        0.255,
        0.254,
        0.254,
        0.254,
        0.255
      ],
      "metadata": {},
      "peak_memory_mb": 436.20816
    }
  },
  "{\"lhs\":\"bf16[8,4096]\",\"rhs\":\"bf16[8,4096,4096]\",\"group_sizes\":[1,1,1,1,1,1,1,1],\"ragged_dot_dimension_numbers\":{\"dot_dimension_numbers\":[[[1],[1]],[[],[]]],\"lhs_ragged_dimensions\":[0],\"rhs_group_dimensions\":[0]},\"precision\":[\"DEFAULT\",\"DEFAULT\"],\"preferred_element_type\":null,\"return_residuals\":false,\"activation\":null}": {
    "{}": {
      "compile_time_ms": 308.80427302327007,
      "lower_time_ms": 7.359971990808845,
      "evaluation_times_ms": [
        0.094,
        0.093,
        0.093,
        0.094,
        0.093
      ],
      "metadata": {},
      "peak_memory_mb": 268.699648
    }
  },
  "{\"lhs\":\"bf16[8,4096]\",\"rhs\":\"bf16[8,4096,4096]\",\"group_sizes\":[1,1,1,1,1,1,1,1],\"ragged_dot_dimension_numbers\":{\"dot_dimension_numbers\":[[[1],[1]],[[],[]]],\"lhs_ragged_dimensions\":[0],\"rhs_group_dimensions\":[0]},\"precision\":[\"DEFAULT\",\"DEFAULT\"],\"preferred_element_type\":null,\"return_residuals\":true,\"activation\":null}": {
    "{}": {
      "compile_time_ms": 309.4869510096032,
      "lower_time_ms": 6.99836399871856,
      "evaluation_times_ms": [
        0.092,
        0.092,
        0.093,
        0.093,
        0.093
      ],
      "metadata": {},
      "peak_memory_mb": 268.829216
    }
  },
  "{\"lhs\":\"bf16[8192,4096]\",\"rhs\":\"bf16[8,4096,14336]\",\"group_sizes\":{\"num_groups\":8,\"total_size\":8192},\"ragged_dot_dimension_numbers\":{\"dot_dimension_numbers\":[[[1],[1]],[[],[]]],\"lhs_ragged_dimensions\":[0],\"rhs_group_dimensions\":[0]},\"precision\":[\"DEFAULT\",\"DEFAULT\"],\"preferred_element_type\":null,\"return_residuals\":false,\"activation\":null}": {
    "{}": {
      "compile_time_ms": 328.86021299054846,
      "lower_time_ms": 8.205416990676895,
      "evaluation_times_ms": [
        1.921,
        1.922,
        1.919,
        1.919,
        1.919
      ],
      "metadata": {},
      "peak_memory_mb": 1711.276544
    }
  },
  "{\"lhs\":\"bf16[8192,4096]\",\"rhs\":\"bf16[8,4096,14336]\",\"group_sizes\":{\"num_groups\":8,\"total_size\":8192},\"ragged_dot_dimension_numbers\":{\"dot_dimension_numbers\":[[[1],[1]],[[],[]]],\"lhs_ragged_dimensions\":[0],\"rhs_group_dimensions\":[0]},\"precision\":[\"DEFAULT\",\"DEFAULT\"],\"preferred_element_type\":null,\"return_residuals\":true,\"activation\":null}": {
    "{}": {
      "compile_time_ms": 1801.1867059994984,
      "lower_time_ms": 280.5702109999402,
      "evaluation_times_ms": [
        2.077,
        2.078,
        2.077,
        2.076,
        2.074
      ],
      "metadata": {},
      "peak_memory_mb": 1946.1576
    }
  },
  "{\"lhs\":\"bf16[131072,1024]\",\"rhs\":\"bf16[256,7168,1024]\",\"group_sizes\":{\"num_groups\":256,\"total_size\":131072},\"ragged_dot_dimension_numbers\":{\"dot_dimension_numbers\":[[[1],[2]],[[],[]]],\"lhs_ragged_dimensions\":[0],\"rhs_group_dimensions\":[0]},\"precision\":[\"DEFAULT\",\"DEFAULT\"],\"preferred_element_type\":\"bfloat16\",\"return_residuals\":false,\"activation\":null}": {
    "{}": {
      "compile_time_ms": 812.5653750003039,
      "lower_time_ms": 11.921463999897242,
      "evaluation_times_ms": [
        10.104,
        10.09,
        10.123,
        10.109,
        10.11
      ],
      "metadata": {},
      "peak_memory_mb": 13421.773824
    }
  },
  "{\"lhs\":\"bf16[131072,7168]\",\"rhs\":\"bf16[131072,1024]\",\"group_sizes\":{\"num_groups\":256,\"total_size\":131072},\"ragged_dot_dimension_numbers\":{\"dot_dimension_numbers\":[[[0],[0]],[[],[]]],\"lhs_ragged_dimensions\":[0],\"rhs_group_dimensions\":[]},\"precision\":[\"DEFAULT\",\"DEFAULT\"],\"preferred_element_type\":\"bfloat16\",\"return_residuals\":false,\"activation\":null}": {
    "{}": {
      "compile_time_ms": 536.6093650000039,
      "lower_time_ms": 9.942944999238534,
      "evaluation_times_ms": [
        15.054,
        15.051,
        15.044,
        15.054,
        15.044
      ],
      "metadata": {},
      "peak_memory_mb": 13421.773824
    }
  },
  "{\"lhs\":\"bf16[131072,7168]\",\"rhs\":\"bf16[256,1024,7168]\",\"group_sizes\":{\"num_groups\":256,\"total_size\":131072},\"ragged_dot_dimension_numbers\":{\"dot_dimension_numbers\":[[[1],[2]],[[],[]]],\"lhs_ragged_dimensions\":[0],\"rhs_group_dimensions\":[0]},\"precision\":[\"DEFAULT\",\"DEFAULT\"],\"preferred_element_type\":\"bfloat16\",\"return_residuals\":false,\"activation\":null}": {
    "{}": {
      "compile_time_ms": 546.3811060008084,
      "lower_time_ms": 9.92046300052607,
      "evaluation_times_ms": [
        7.038,
        7.014,
        7.024,
        7.003,
        7.016
      ],
      "metadata": {},
      "peak_memory_mb": 10200.548352
    }
  },
  "{\"lhs\":\"bf16[131072,1024]\",\"rhs\":\"bf16[131072,7168]\",\"group_sizes\":{\"num_groups\":256,\"total_size\":131072},\"ragged_dot_dimension_numbers\":{\"dot_dimension_numbers\":[[[0],[0]],[[],[]]],\"lhs_ragged_dimensions\":[0],\"rhs_group_dimensions\":[]},\"precision\":[\"DEFAULT\",\"DEFAULT\"],\"preferred_element_type\":\"bfloat16\",\"return_residuals\":false,\"activation\":null}": {
    "{}": {
      "compile_time_ms": 484.0953949997129,
      "lower_time_ms": 11.703215000125056,
      "evaluation_times_ms": [
        11.645,
        11.653,
        11.639,
        11.65,
        11.637
      ],
      "metadata": {},
      "peak_memory_mb": 13421.773824
    }
  },
  "{\"lhs\":\"bf16[131072,512]\",\"rhs\":\"bf16[256,7168,512]\",\"group_sizes\":{\"num_groups\":256,\"total_size\":131072},\"ragged_dot_dimension_numbers\":{\"dot_dimension_numbers\":[[[1],[2]],[[],[]]],\"lhs_ragged_dimensions\":[0],\"rhs_group_dimensions\":[0]},\"precision\":[\"DEFAULT\",\"DEFAULT\"],\"preferred_element_type\":\"bfloat16\",\"return_residuals\":false,\"activation\":null}": {
    "{}": {
      "compile_time_ms": 522.9749080026522,
      "lower_time_ms": 10.088553070090711,
      "evaluation_times_ms": [
        6.39,
        6.39,
        6.388,
        6.381,
        6.385
      ],
      "metadata": {},
      "peak_memory_mb": 7650.412032
    }
  },
  "{\"lhs\":\"bf16[131072,7168]\",\"rhs\":\"bf16[131072,512]\",\"group_sizes\":{\"num_groups\":256,\"total_size\":131072},\"ragged_dot_dimension_numbers\":{\"dot_dimension_numbers\":[[[0],[0]],[[],[]]],\"lhs_ragged_dimensions\":[0],\"rhs_group_dimensions\":[]},\"precision\":[\"DEFAULT\",\"DEFAULT\"],\"preferred_element_type\":\"bfloat16\",\"return_residuals\":false,\"activation\":null}": {
    "{}": {
      "compile_time_ms": 513.2192720193416,
      "lower_time_ms": 10.62363397795707,
      "evaluation_times_ms": [
        7.466,
        7.473,
        7.468,
        7.46,
        7.471
      ],
      "metadata": {},
      "peak_memory_mb": 7650.41152
    }
  },
  "{\"lhs\":\"bf16[131072,7168]\",\"rhs\":\"bf16[256,512,7168]\",\"group_sizes\":{\"num_groups\":256,\"total_size\":131072},\"ragged_dot_dimension_numbers\":{\"dot_dimension_numbers\":[[[1],[2]],[[],[]]],\"lhs_ragged_dimensions\":[0],\"rhs_group_dimensions\":[0]},\"precision\":[\"DEFAULT\",\"DEFAULT\"],\"preferred_element_type\":\"bfloat16\",\"return_residuals\":false,\"activation\":null}": {
    "{}": {
      "compile_time_ms": 2084.0234690112993,
      "lower_time_ms": 128.59757800470106,
      "evaluation_times_ms": [
        3.468,
        3.461,
        3.462,
        3.478,
        3.471
      ],
      "metadata": {},
      "peak_memory_mb": 6039.798784
    }
  },
  "{\"lhs\":\"bf16[131072,512]\",\"rhs\":\"bf16[131072,7168]\",\"group_sizes\":{\"num_groups\":256,\"total_size\":131072},\"ragged_dot_dimension_numbers\":{\"dot_dimension_numbers\":[[[0],[0]],[[],[]]],\"lhs_ragged_dimensions\":[0],\"rhs_group_dimensions\":[]},\"precision\":[\"DEFAULT\",\"DEFAULT\"],\"preferred_element_type\":\"bfloat16\",\"return_residuals\":false,\"activation\":null}": {
    "{}": {
      "compile_time_ms": 1816.8741469999077,
      "lower_time_ms": 315.63039399952686,
      "evaluation_times_ms": [
        5.96,
        5.963,
        5.969,
        5.958,
        5.964
      ],
      "metadata": {},
      "peak_memory_mb": 7650.41152
    }
  },
  "{\"lhs\":\"bf16[262144,512]\",\"rhs\":\"bf16[256,7168,512]\",\"group_sizes\":{\"num_groups\":256,\"total_size\":262144},\"ragged_dot_dimension_numbers\":{\"dot_dimension_numbers\":[[[1],[2]],[[],[]]],\"lhs_ragged_dimensions\":[0],\"rhs_group_dimensions\":[0]},\"precision\":[\"DEFAULT\",\"DEFAULT\"],\"preferred_element_type\":\"bfloat16\",\"return_residuals\":false,\"activation\":null}": {
    "{}": {
      "compile_time_ms": 524.9968979996993,
      "lower_time_ms": 11.332091999975091,
      "evaluation_times_ms": [
        10.123,
        10.118,
        10.115,
        10.109,
        10.112
      ],
      "metadata": {},
      "peak_memory_mb": 13421.774336
    }
  },
  "{\"lhs\":\"bf16[262144,7168]\",\"rhs\":\"bf16[262144,512]\",\"group_sizes\":{\"num_groups\":256,\"total_size\":262144},\"ragged_dot_dimension_numbers\":{\"dot_dimension_numbers\":[[[0],[0]],[[],[]]],\"lhs_ragged_dimensions\":[0],\"rhs_group_dimensions\":[]},\"precision\":[\"DEFAULT\",\"DEFAULT\"],\"preferred_element_type\":\"bfloat16\",\"return_residuals\":false,\"activation\":null}": {
    "{}": {
      "compile_time_ms": 527.8626009994696,
      "lower_time_ms": 13.767245000053663,
      "evaluation_times_ms": [
        10.382,
        10.374,
        10.379,
        10.386,
        10.376
      ],
      "metadata": {},
      "peak_memory_mb": 9663.67744
    }
  },
  "{\"lhs\":\"bf16[262144,7168]\",\"rhs\":\"bf16[256,256,7168]\",\"group_sizes\":{\"num_groups\":256,\"total_size\":262144},\"ragged_dot_dimension_numbers\":{\"dot_dimension_numbers\":[[[1],[2]],[[],[]]],\"lhs_ragged_dimensions\":[0],\"rhs_group_dimensions\":[0]},\"precision\":[\"DEFAULT\",\"DEFAULT\"],\"preferred_element_type\":\"bfloat16\",\"return_residuals\":false,\"activation\":null}": {
    "{}": {
      "compile_time_ms": 636.9917250121944,
      "lower_time_ms": 13.146113022230566,
      "evaluation_times_ms": [
        3.008,
        2.994,
        3.004,
        3.005,
        3.004
      ],
      "metadata": {},
      "peak_memory_mb": 6039.798784
    }
  },
  "{\"lhs\":\"bf16[262144,256]\",\"rhs\":\"bf16[262144,7168]\",\"group_sizes\":{\"num_groups\":256,\"total_size\":262144},\"ragged_dot_dimension_numbers\":{\"dot_dimension_numbers\":[[[0],[0]],[[],[]]],\"lhs_ragged_dimensions\":[0],\"rhs_group_dimensions\":[]},\"precision\":[\"DEFAULT\",\"DEFAULT\"],\"preferred_element_type\":\"bfloat16\",\"return_residuals\":false,\"activation\":null}": {
    "{}": {
      "compile_time_ms": 467.1780469943769,
      "lower_time_ms": 11.306055006571114,
      "evaluation_times_ms": [
        4.895,
        4.892,
        4.889,
        4.895,
        4.886
      ],
      "metadata": {},
      "peak_memory_mb": 6710.887424
    }
  },
  "{\"lhs\":\"bf16[262144,7168]\",\"rhs\":\"bf16[256,1024,7168]\",\"group_sizes\":{\"num_groups\":256,\"total_size\":262144},\"ragged_dot_dimension_numbers\":{\"dot_dimension_numbers\":[[[1],[2]],[[],[]]],\"lhs_ragged_dimensions\":[0],\"rhs_group_dimensions\":[0]},\"precision\":[\"DEFAULT\",\"DEFAULT\"],\"preferred_element_type\":\"bfloat16\",\"return_residuals\":false,\"activation\":null}": {
    "{}": {
      "compile_time_ms": 554.5891070505604,
      "lower_time_ms": 12.036864995025098,
      "evaluation_times_ms": [
        9.533,
        9.537,
        9.522,
        9.532,
        9.53
      ],
      "metadata": {},
      "peak_memory_mb": 12884.902912
    }
  },
  "{\"lhs\":\"bf16[262144,1024]\",\"rhs\":\"bf16[262144,7168]\",\"group_sizes\":{\"num_groups\":256,\"total_size\":262144},\"ragged_dot_dimension_numbers\":{\"dot_dimension_numbers\":[[[0],[0]],[[],[]]],\"lhs_ragged_dimensions\":[0],\"rhs_group_dimensions\":[]},\"precision\":[\"DEFAULT\",\"DEFAULT\"],\"preferred_element_type\":\"bfloat16\",\"return_residuals\":false,\"activation\":null}": {
    "{}": {
      "compile_time_ms": 487.2413559933193,
      "lower_time_ms": 13.221867033280432,
      "evaluation_times_ms": [
        15.153,
        15.142,
        15.154,
        15.159,
        15.154
      ],
      "metadata": {},
      "peak_memory_mb": 15569.257472
    }
  },
  "{\"lhs\":\"bf16[262144,1024]\",\"rhs\":\"bf16[256,7168,1024]\",\"group_sizes\":{\"num_groups\":256,\"total_size\":262144},\"ragged_dot_dimension_numbers\":{\"dot_dimension_numbers\":[[[1],[2]],[[],[]]],\"lhs_ragged_dimensions\":[0],\"rhs_group_dimensions\":[0]},\"precision\":[\"DEFAULT\",\"DEFAULT\"],\"preferred_element_type\":\"bfloat16\",\"return_residuals\":false,\"activation\":null}": {
    "{}": {
      "compile_time_ms": 1866.060329019092,
      "lower_time_ms": 271.3831979781389,
      "evaluation_times_ms": [
        14.66,
        14.668,
        14.649,
        14.656,
        14.658
      ],
      "metadata": {},
      "peak_memory_mb": 15569.257984
    }
  },
  "{\"lhs\":\"bf16[262144,7168]\",\"rhs\":\"bf16[262144,1024]\",\"group_sizes\":{\"num_groups\":256,\"total_size\":262144},\"ragged_dot_dimension_numbers\":{\"dot_dimension_numbers\":[[[0],[0]],[[],[]]],\"lhs_ragged_dimensions\":[0],\"rhs_group_dimensions\":[]},\"precision\":[\"DEFAULT\",\"DEFAULT\"],\"preferred_element_type\":\"bfloat16\",\"return_residuals\":false,\"activation\":null}": {
    "{}": {
      "compile_time_ms": 538.3674930199049,
      "lower_time_ms": 11.955028981901705,
      "evaluation_times_ms": [
        20.559,
        20.563,
        20.577,
        20.574,
        20.571
      ],
      "metadata": {},
      "peak_memory_mb": 15569.257472
    }
  },
  "{\"lhs\":\"bf16[262144,2048]\",\"rhs\":\"bf16[256,7168,2048]\",\"group_sizes\":{\"num_groups\":256,\"total_size\":262144},\"ragged_dot_dimension_numbers\":{\"dot_dimension_numbers\":[[[1],[2]],[[],[]]],\"lhs_ragged_dimensions\":[0],\"rhs_group_dimensions\":[0]},\"precision\":[\"DEFAULT\",\"DEFAULT\"],\"preferred_element_type\":\"bfloat16\",\"return_residuals\":false,\"activation\":null}": {
    "{}": {
      "compile_time_ms": 582.9351759748533,
      "lower_time_ms": 12.047214026097208,
      "evaluation_times_ms": [
        22.016,
        22.036,
        22.045,
        22.059,
        22.013
      ],
      "metadata": {},
      "peak_memory_mb": 27380.417536
    }
  },
  "{\"lhs\":\"bf16[262144,7168]\",\"rhs\":\"bf16[262144,2048]\",\"group_sizes\":{\"num_groups\":256,\"total_size\":262144},\"ragged_dot_dimension_numbers\":{\"dot_dimension_numbers\":[[[0],[0]],[[],[]]],\"lhs_ragged_dimensions\":[0],\"rhs_group_dimensions\":[]},\"precision\":[\"DEFAULT\",\"DEFAULT\"],\"preferred_element_type\":\"bfloat16\",\"return_residuals\":false,\"activation\":null}": {
    "{}": {
      "compile_time_ms": 578.7869079504162,
      "lower_time_ms": 11.924177000764757,
      "evaluation_times_ms": [
        41.04,
        41.036,
        41.034,
        41.037,
        41.03
      ],
      "metadata": {},
      "peak_memory_mb": 27380.417536
    }
  },
  "{\"lhs\":\"bf16[327680,2880]\",\"rhs\":\"bf16[128,2880,2880]\",\"group_sizes\":{\"num_groups\":128,\"total_size\":327680},\"ragged_dot_dimension_numbers\":{\"dot_dimension_numbers\":[[[1],[2]],[[],[]]],\"lhs_ragged_dimensions\":[0],\"rhs_group_dimensions\":[0]},\"precision\":[\"DEFAULT\",\"DEFAULT\"],\"preferred_element_type\":\"bfloat16\",\"return_residuals\":false,\"activation\":null}": {
    "{}": {
      "compile_time_ms": 514.4843410234898,
      "lower_time_ms": 11.616408010013402,
      "evaluation_times_ms": [
        16.819,
        16.819,
        16.814,
        16.815,
        16.807
      ],
      "metadata": {},
      "peak_memory_mb": 13856.932864
    }
  },
  "{\"lhs\":\"bf16[327680,2880]\",\"rhs\":\"bf16[327680,2880]\",\"group_sizes\":{\"num_groups\":128,\"total_size\":327680},\"ragged_dot_dimension_numbers\":{\"dot_dimension_numbers\":[[[0],[0]],[[],[]]],\"lhs_ragged_dimensions\":[0],\"rhs_group_dimensions\":[]},\"precision\":[\"DEFAULT\",\"DEFAULT\"],\"preferred_element_type\":\"bfloat16\",\"return_residuals\":false,\"activation\":null}": {
    "{}": {
      "compile_time_ms": 1724.7602060087956,
      "lower_time_ms": 283.8257740077097,
      "evaluation_times_ms": [
        26.871,
        26.861,
        26.856,
        26.859,
        26.876
      ],
      "metadata": {},
      "peak_memory_mb": 12409.897472
    }
  },
  "{\"lhs\":\"bf16[393216,768]\",\"rhs\":\"bf16[128,2048,768]\",\"group_sizes\":{\"num_groups\":128,\"total_size\":393216},\"ragged_dot_dimension_numbers\":{\"dot_dimension_numbers\":[[[1],[2]],[[],[]]],\"lhs_ragged_dimensions\":[0],\"rhs_group_dimensions\":[0]},\"precision\":[\"DEFAULT\",\"DEFAULT\"],\"preferred_element_type\":\"bfloat16\",\"return_residuals\":false,\"activation\":null}": {
    "{}": {
      "compile_time_ms": 426.118341012625,
      "lower_time_ms": 12.829448998672888,
      "evaluation_times_ms": [
        4.224,
        4.224,
        4.217,
        4.215,
        4.225
      ],
      "metadata": {},
      "peak_memory_mb": 5838.472192
    }
  },
  "{\"lhs\":\"bf16[393216,2048]\",\"rhs\":\"bf16[393216,768]\",\"group_sizes\":{\"num_groups\":128,\"total_size\":393216},\"ragged_dot_dimension_numbers\":{\"dot_dimension_numbers\":[[[0],[0]],[[],[]]],\"lhs_ragged_dimensions\":[0],\"rhs_group_dimensions\":[]},\"precision\":[\"DEFAULT\",\"DEFAULT\"],\"preferred_element_type\":\"bfloat16\",\"return_residuals\":false,\"activation\":null}": {
    "{}": {
      "compile_time_ms": 366.9962330022827,
      "lower_time_ms": 12.860798015026376,
      "evaluation_times_ms": [
        4.414,
        4.417,
        4.422,
        4.422,
        4.419
      ],
      "metadata": {},
      "peak_memory_mb": 3422.552576
    }
  },
  "{\"lhs\":\"bf16[393216,2048]\",\"rhs\":\"bf16[128,768,2048]\",\"group_sizes\":{\"num_groups\":128,\"total_size\":393216},\"ragged_dot_dimension_numbers\":{\"dot_dimension_numbers\":[[[1],[2]],[[],[]]],\"lhs_ragged_dimensions\":[0],\"rhs_group_dimensions\":[0]},\"precision\":[\"DEFAULT\",\"DEFAULT\"],\"preferred_element_type\":\"bfloat16\",\"return_residuals\":false,\"activation\":null}": {
    "{}": {
      "compile_time_ms": 407.5195899931714,
      "lower_time_ms": 13.287326000863686,
      "evaluation_times_ms": [
        3.22,
        3.222,
        3.214,
        3.211,
        3.219
      ],
      "metadata": {},
      "peak_memory_mb": 3825.206272
    }
  },
  "{\"lhs\":\"bf16[393216,768]\",\"rhs\":\"bf16[393216,2048]\",\"group_sizes\":{\"num_groups\":128,\"total_size\":393216},\"ragged_dot_dimension_numbers\":{\"dot_dimension_numbers\":[[[0],[0]],[[],[]]],\"lhs_ragged_dimensions\":[0],\"rhs_group_dimensions\":[]},\"precision\":[\"DEFAULT\",\"DEFAULT\"],\"preferred_element_type\":\"bfloat16\",\"return_residuals\":false,\"activation\":null}": {
    "{}": {
      "compile_time_ms": 433.3746490010526,
      "lower_time_ms": 15.02792999963276,
      "evaluation_times_ms": [
        4.574,
        4.578,
        4.571,
        4.569,
        4.579
      ],
      "metadata": {},
      "peak_memory_mb": 3422.552576
    }
  },
  "{\"lhs\":\"bf16[524288,1536]\",\"rhs\":\"bf16[128,4096,1536]\",\"group_sizes\":{\"num_groups\":128,\"total_size\":524288},\"ragged_dot_dimension_numbers\":{\"dot_dimension_numbers\":[[[1],[2]],[[],[]]],\"lhs_ragged_dimensions\":[0],\"rhs_group_dimensions\":[0]},\"precision\":[\"DEFAULT\",\"DEFAULT\"],\"preferred_element_type\":\"bfloat16\",\"return_residuals\":false,\"activation\":null}": {
    "{}": {
      "compile_time_ms": 2280.745678988751,
      "lower_time_ms": 291.5204699966125,
      "evaluation_times_ms": [
        14.37,
        14.384,
        14.38,
        14.374,
        14.375
      ],
      "metadata": {},
      "peak_memory_mb": 16106.128384
    }
  },
  "{\"lhs\":\"bf16[524288,4096]\",\"rhs\":\"bf16[524288,1536]\",\"group_sizes\":{\"num_groups\":128,\"total_size\":524288},\"ragged_dot_dimension_numbers\":{\"dot_dimension_numbers\":[[[0],[0]],[[],[]]],\"lhs_ragged_dimensions\":[0],\"rhs_group_dimensions\":[]},\"precision\":[\"DEFAULT\",\"DEFAULT\"],\"preferred_element_type\":\"bfloat16\",\"return_residuals\":false,\"activation\":null}": {
    "{}": {
      "compile_time_ms": 454.295595001895,
      "lower_time_ms": 14.859847025945783,
      "evaluation_times_ms": [
        21.166,
        21.166,
        21.162,
        21.166,
        21.163
      ],
      "metadata": {},
      "peak_memory_mb": 10737.418752
    }
  },
  "{\"lhs\":\"bf16[524288,4096]\",\"rhs\":\"bf16[128,1536,4096]\",\"group_sizes\":{\"num_groups\":128,\"total_size\":524288},\"ragged_dot_dimension_numbers\":{\"dot_dimension_numbers\":[[[1],[2]],[[],[]]],\"lhs_ragged_dimensions\":[0],\"rhs_group_dimensions\":[0]},\"precision\":[\"DEFAULT\",\"DEFAULT\"],\"preferred_element_type\":\"bfloat16\",\"return_residuals\":false,\"activation\":null}": {
    "{}": {
      "compile_time_ms": 500.52016699919477,
      "lower_time_ms": 14.643828966654837,
      "evaluation_times_ms": [
        11.788,
        11.785,
        11.806,
        11.787,
        11.787
      ],
      "metadata": {},
      "peak_memory_mb": 10737.419264
    }
  },
  "{\"lhs\":\"bf16[524288,1536]\",\"rhs\":\"bf16[524288,4096]\",\"group_sizes\":{\"num_groups\":128,\"total_size\":524288},\"ragged_dot_dimension_numbers\":{\"dot_dimension_numbers\":[[[0],[0]],[[],[]]],\"lhs_ragged_dimensions\":[0],\"rhs_group_dimensions\":[]},\"precision\":[\"DEFAULT\",\"DEFAULT\"],\"preferred_element_type\":\"bfloat16\",\"return_residuals\":false,\"activation\":null}": {
    "{}": {
      "compile_time_ms": 425.30072503723204,
      "lower_time_ms": 15.429713996127248,
      "evaluation_times_ms": [
        17.728,
        17.734,
        17.734,
        17.736,
        17.738
      ],
      "metadata": {},
      "peak_memory_mb": 10737.418752
    }
  },
  "{\"lhs\":\"bf16[524288,2048]\",\"rhs\":\"bf16[256,7168,2048]\",\"group_sizes\":{\"num_groups\":256,\"total_size\":524288},\"ragged_dot_dimension_numbers\":{\"dot_dimension_numbers\":[[[1],[2]],[[],[]]],\"lhs_ragged_dimensions\":[0],\"rhs_group_dimensions\":[0]},\"precision\":[\"DEFAULT\",\"DEFAULT\"],\"preferred_element_type\":\"bfloat16\",\"return_residuals\":false,\"activation\":null}": {
    "{}": {
      "compile_time_ms": 599.8057880206034,
      "lower_time_ms": 16.963711008429527,
      "evaluation_times_ms": [
        35.056,
        35.069,
        35.078,
        35.044,
        35.07
      ],
      "metadata": {},
      "peak_memory_mb": 32212.256256
    }
  },
  "{\"lhs\":\"bf16[524288,7168]\",\"rhs\":\"bf16[524288,2048]\",\"group_sizes\":{\"num_groups\":256,\"total_size\":524288},\"ragged_dot_dimension_numbers\":{\"dot_dimension_numbers\":[[[0],[0]],[[],[]]],\"lhs_ragged_dimensions\":[0],\"rhs_group_dimensions\":[]},\"precision\":[\"DEFAULT\",\"DEFAULT\"],\"preferred_element_type\":\"bfloat16\",\"return_residuals\":false,\"activation\":null}": {
    "{}": {
      "compile_time_ms": 2003.386118999515,
      "lower_time_ms": 329.0306490007424,
      "evaluation_times_ms": [
        64.409,
        64.421,
        64.423,
        64.398,
        64.403
      ],
      "metadata": {},
      "peak_memory_mb": 32212.255744
    }
  },
  "{\"lhs\":\"bf16[262144,1536]\",\"rhs\":\"bf16[128,4096,1536]\",\"group_sizes\":{\"num_groups\":128,\"total_size\":262144},\"ragged_dot_dimension_numbers\":{\"dot_dimension_numbers\":[[[1],[2]],[[],[]]],\"lhs_ragged_dimensions\":[0],\"rhs_group_dimensions\":[0]},\"precision\":[\"DEFAULT\",\"DEFAULT\"],\"preferred_element_type\":\"bfloat16\",\"return_residuals\":false,\"activation\":null}": {
    "{}": {
      "compile_time_ms": 747.2791370000778,
      "lower_time_ms": 13.257145999887143,
      "evaluation_times_ms": [
        8.238,
        8.246,
        8.243,
        8.243,
        8.222
      ],
      "metadata": {},
      "peak_memory_mb": 8858.371072
    }
  },
  "{\"lhs\":\"bf16[262144,4096]\",\"rhs\":\"bf16[262144,1536]\",\"group_sizes\":{\"num_groups\":128,\"total_size\":262144},\"ragged_dot_dimension_numbers\":{\"dot_dimension_numbers\":[[[0],[0]],[[],[]]],\"lhs_ragged_dimensions\":[0],\"rhs_group_dimensions\":[]},\"precision\":[\"DEFAULT\",\"DEFAULT\"],\"preferred_element_type\":\"bfloat16\",\"return_residuals\":false,\"activation\":null}": {
    "{}": {
      "compile_time_ms": 438.5601889998725,
      "lower_time_ms": 11.452402000031725,
      "evaluation_times_ms": [
        12.472,
        12.473,
        12.471,
        12.478,
        12.473
      ],
      "metadata": {},
      "peak_memory_mb": 7784.628736
    }
  },
  "{\"lhs\":\"bf16[262144,4096]\",\"rhs\":\"bf16[128,1536,4096]\",\"group_sizes\":{\"num_groups\":128,\"total_size\":262144},\"ragged_dot_dimension_numbers\":{\"dot_dimension_numbers\":[[[1],[2]],[[],[]]],\"lhs_ragged_dimensions\":[0],\"rhs_group_dimensions\":[0]},\"precision\":[\"DEFAULT\",\"DEFAULT\"],\"preferred_element_type\":\"bfloat16\",\"return_residuals\":false,\"activation\":null}": {
    "{}": {
      "compile_time_ms": 489.92787200040766,
      "lower_time_ms": 11.62268200005201,
      "evaluation_times_ms": [
        6.915,
        6.921,
        6.906,
        6.904,
        6.896
      ],
      "metadata": {},
      "peak_memory_mb": 7784.628736
    }
  },
  "{\"lhs\":\"bf16[262144,1536]\",\"rhs\":\"bf16[262144,4096]\",\"group_sizes\":{\"num_groups\":128,\"total_size\":262144},\"ragged_dot_dimension_numbers\":{\"dot_dimension_numbers\":[[[0],[0]],[[],[]]],\"lhs_ragged_dimensions\":[0],\"rhs_group_dimensions\":[]},\"precision\":[\"DEFAULT\",\"DEFAULT\"],\"preferred_element_type\":\"bfloat16\",\"return_residuals\":false,\"activation\":null}": {
    "{}": {
      "compile_time_ms": 416.4928840000357,
      "lower_time_ms": 12.782226000126684,
      "evaluation_times_ms": [
        10.672,
        10.673,
        10.684,
        10.681,
        10.673
      ],
      "metadata": {},
      "peak_memory_mb": 7784.628736
    }
  },
  "{\"lhs\":\"bf16[131072,2048]\",\"rhs\":\"bf16[128,7168,2048]\",\"group_sizes\":{\"num_groups\":128,\"total_size\":131072},\"ragged_dot_dimension_numbers\":{\"dot_dimension_numbers\":[[[1],[2]],[[],[]]],\"lhs_ragged_dimensions\":[0],\"rhs_group_dimensions\":[0]},\"precision\":[\"DEFAULT\",\"DEFAULT\"],\"preferred_element_type\":\"bfloat16\",\"return_residuals\":false,\"activation\":null}": {
    "{}": {
      "compile_time_ms": 2243.580187000589,
      "lower_time_ms": 313.4992519999287,
      "evaluation_times_ms": [
        11.153,
        11.169,
        11.166,
        11.159,
        11.157
      ],
      "metadata": {},
      "peak_memory_mb": 13690.208768
    }
  },
  "{\"lhs\":\"bf16[131072,7168]\",\"rhs\":\"bf16[131072,2048]\",\"group_sizes\":{\"num_groups\":128,\"total_size\":131072},\"ragged_dot_dimension_numbers\":{\"dot_dimension_numbers\":[[[0],[0]],[[],[]]],\"lhs_ragged_dimensions\":[0],\"rhs_group_dimensions\":[]},\"precision\":[\"DEFAULT\",\"DEFAULT\"],\"preferred_element_type\":\"bfloat16\",\"return_residuals\":false,\"activation\":null}": {
    "{}": {
      "compile_time_ms": 510.511755999687,
      "lower_time_ms": 10.064293000141333,
      "evaluation_times_ms": [
        20.702,
        20.698,
        20.704,
        20.713,
        20.697
      ],
      "metadata": {},
      "peak_memory_mb": 13690.208768
    }
  },
  "{\"lhs\":\"bf16[131072,768]\",\"rhs\":\"bf16[128,2048,768]\",\"group_sizes\":{\"num_groups\":128,\"total_size\":131072},\"ragged_dot_dimension_numbers\":{\"dot_dimension_numbers\":[[[1],[2]],[[],[]]],\"lhs_ragged_dimensions\":[0],\"rhs_group_dimensions\":[0]},\"precision\":[\"DEFAULT\",\"DEFAULT\"],\"preferred_element_type\":\"bfloat16\",\"return_residuals\":false,\"activation\":null}": {
    "{}": {
      "compile_time_ms": 412.7891759999329,
      "lower_time_ms": 8.562315999370185,
      "evaluation_times_ms": [
        1.841,
        1.849,
        1.84,
        1.836,
        1.841
      ],
      "metadata": {},
      "peak_memory_mb": 2214.593536
    }
  },
  "{\"lhs\":\"bf16[131072,2048]\",\"rhs\":\"bf16[131072,768]\",\"group_sizes\":{\"num_groups\":128,\"total_size\":131072},\"ragged_dot_dimension_numbers\":{\"dot_dimension_numbers\":[[[0],[0]],[[],[]]],\"lhs_ragged_dimensions\":[0],\"rhs_group_dimensions\":[]},\"precision\":[\"DEFAULT\",\"DEFAULT\"],\"preferred_element_type\":\"bfloat16\",\"return_residuals\":false,\"activation\":null}": {
    "{}": {
      "compile_time_ms": 361.4580389994444,
      "lower_time_ms": 9.661533999860694,
      "evaluation_times_ms": [
        2.143,
        2.14,
        2.142,
        2.141,
        2.141
      ],
      "metadata": {},
      "peak_memory_mb": 1946.157568
    }
  },
  "{\"lhs\":\"bf16[131072,1536]\",\"rhs\":\"bf16[128,4096,1536]\",\"group_sizes\":{\"num_groups\":128,\"total_size\":131072},\"ragged_dot_dimension_numbers\":{\"dot_dimension_numbers\":[[[1],[2]],[[],[]]],\"lhs_ragged_dimensions\":[0],\"rhs_group_dimensions\":[0]},\"precision\":[\"DEFAULT\",\"DEFAULT\"],\"preferred_element_type\":\"bfloat16\",\"return_residuals\":false,\"activation\":null}": {
    "{}": {
      "compile_time_ms": 499.8359139999593,
      "lower_time_ms": 11.293206000118516,
      "evaluation_times_ms": [
        5.181,
        5.166,
        5.184,
        5.171,
        5.181
      ],
      "metadata": {},
      "peak_memory_mb": 6845.10464
    }
  },
  "{\"lhs\":\"bf16[131072,4096]\",\"rhs\":\"bf16[131072,1536]\",\"group_sizes\":{\"num_groups\":128,\"total_size\":131072},\"ragged_dot_dimension_numbers\":{\"dot_dimension_numbers\":[[[0],[0]],[[],[]]],\"lhs_ragged_dimensions\":[0],\"rhs_group_dimensions\":[]},\"precision\":[\"DEFAULT\",\"DEFAULT\"],\"preferred_element_type\":\"bfloat16\",\"return_residuals\":false,\"activation\":null}": {
    "{}": {
      "compile_time_ms": 1638.3576429798268,
      "lower_time_ms": 259.00696095777676,
      "evaluation_times_ms": [
        8.101,
        8.105,
        8.1,
        8.104,
        8.107
      ],
      "metadata": {},
      "peak_memory_mb": 6308.233728
    }
  },
  "{\"lhs\":\"bf16[131072,4096]\",\"rhs\":\"bf16[128,1536,4096]\",\"group_sizes\":{\"num_groups\":128,\"total_size\":131072},\"ragged_dot_dimension_numbers\":{\"dot_dimension_numbers\":[[[1],[2]],[[],[]]],\"lhs_ragged_dimensions\":[0],\"rhs_group_dimensions\":[0]},\"precision\":[\"DEFAULT\",\"DEFAULT\"],\"preferred_element_type\":\"bfloat16\",\"return_residuals\":false,\"activation\":null}": {
    "{}": {
      "compile_time_ms": 648.4644059673883,
      "lower_time_ms": 12.065287039149553,
      "evaluation_times_ms": [
        4.415,
        4.406,
        4.419,
        4.415,
        4.411
      ],
      "metadata": {},
      "peak_memory_mb": 5502.92736
    }
  },
  "{\"lhs\":\"bf16[131072,1536]\",\"rhs\":\"bf16[131072,4096]\",\"group_sizes\":{\"num_groups\":128,\"total_size\":131072},\"ragged_dot_dimension_numbers\":{\"dot_dimension_numbers\":[[[0],[0]],[[],[]]],\"lhs_ragged_dimensions\":[0],\"rhs_group_dimensions\":[]},\"precision\":[\"DEFAULT\",\"DEFAULT\"],\"preferred_element_type\":\"bfloat16\",\"return_residuals\":false,\"activation\":null}": {
    "{}": {
      "compile_time_ms": 407.7051840140484,
      "lower_time_ms": 10.233506036456674,
      "evaluation_times_ms": [
        7.093,
        7.095,
        7.092,
        7.094,
        7.093
      ],
      "metadata": {},
      "peak_memory_mb": 6308.233728
    }
  },
  "{\"lhs\":\"bf16[131072,2048]\",\"rhs\":\"bf16[256,7168,2048]\",\"group_sizes\":{\"num_groups\":256,\"total_size\":131072},\"ragged_dot_dimension_numbers\":{\"dot_dimension_numbers\":[[[1],[2]],[[],[]]],\"lhs_ragged_dimensions\":[0],\"rhs_group_dimensions\":[0]},\"precision\":[\"DEFAULT\",\"DEFAULT\"],\"preferred_element_type\":\"bfloat16\",\"return_residuals\":false,\"activation\":null}": {
    "{}": {
      "compile_time_ms": 577.9544329852797,
      "lower_time_ms": 10.294607025571167,
      "evaluation_times_ms": [
        15.521,
        15.542,
        15.52,
        15.512,
        15.538
      ],
      "metadata": {},
      "peak_memory_mb": 21206.402048
    }
  },
  "{\"lhs\":\"bf16[131072,7168]\",\"rhs\":\"bf16[131072,2048]\",\"group_sizes\":{\"num_groups\":256,\"total_size\":131072},\"ragged_dot_dimension_numbers\":{\"dot_dimension_numbers\":[[[0],[0]],[[],[]]],\"lhs_ragged_dimensions\":[0],\"rhs_group_dimensions\":[]},\"precision\":[\"DEFAULT\",\"DEFAULT\"],\"preferred_element_type\":\"bfloat16\",\"return_residuals\":false,\"activation\":null}": {
    "{}": {
      "compile_time_ms": 568.8311589765362,
      "lower_time_ms": 11.348958010785282,
      "evaluation_times_ms": [
        29.698,
        29.704,
        29.697,
        29.694,
        29.687
      ],
      "metadata": {},
      "peak_memory_mb": 24964.498432
    }
  },
  "{\"lhs\":\"bf16[65536,2048]\",\"rhs\":\"bf16[256,7168,2048]\",\"group_sizes\":{\"num_groups\":256,\"total_size\":65536},\"ragged_dot_dimension_numbers\":{\"dot_dimension_numbers\":[[[1],[2]],[[],[]]],\"lhs_ragged_dimensions\":[0],\"rhs_group_dimensions\":[0]},\"precision\":[\"DEFAULT\",\"DEFAULT\"],\"preferred_element_type\":\"bfloat16\",\"return_residuals\":false,\"activation\":null}": {
    "{}": {
      "compile_time_ms": 2208.155359956436,
      "lower_time_ms": 321.39886904042214,
      "evaluation_times_ms": [
        12.198,
        12.192,
        12.186,
        12.188,
        12.201
      ],
      "metadata": {},
      "peak_memory_mb": 18119.394304
    }
  },
  "{\"lhs\":\"bf16[65536,7168]\",\"rhs\":\"bf16[65536,2048]\",\"group_sizes\":{\"num_groups\":256,\"total_size\":65536},\"ragged_dot_dimension_numbers\":{\"dot_dimension_numbers\":[[[0],[0]],[[],[]]],\"lhs_ragged_dimensions\":[0],\"rhs_group_dimensions\":[]},\"precision\":[\"DEFAULT\",\"DEFAULT\"],\"preferred_element_type\":\"bfloat16\",\"return_residuals\":false,\"activation\":null}": {
    "{}": {
      "compile_time_ms": 572.0221380470321,
      "lower_time_ms": 9.59343696013093,
      "evaluation_times_ms": [
        24.254,
        24.263,
        24.246,
        24.255,
        24.263
      ],
      "metadata": {},
      "peak_memory_mb": 23756.53888
    }
  },
  "{\"lhs\":\"bf16[262144,7168]\",\"rhs\":\"bf16[256,512,7168]\",\"group_sizes\":{\"num_groups\":256,\"total_size\":262144},\"ragged_dot_dimension_numbers\":{\"dot_dimension_numbers\":[[[1],[2]],[[],[]]],\"lhs_ragged_dimensions\":[0],\"rhs_group_dimensions\":[0]},\"precision\":[\"DEFAULT\",\"DEFAULT\"],\"preferred_element_type\":\"bfloat16\",\"return_residuals\":false,\"activation\":null}": {
    "{}": {
      "compile_time_ms": 772.666150999612,
      "lower_time_ms": 12.322307000431465,
      "evaluation_times_ms": [
        4.846,
        4.837,
        4.831,
        4.831,
        4.833
      ],
      "metadata": {},
      "peak_memory_mb": 8321.50016
    }
  },
  "{\"lhs\":\"bf16[262144,512]\",\"rhs\":\"bf16[262144,7168]\",\"group_sizes\":{\"num_groups\":256,\"total_size\":262144},\"ragged_dot_dimension_numbers\":{\"dot_dimension_numbers\":[[[0],[0]],[[],[]]],\"lhs_ragged_dimensions\":[0],\"rhs_group_dimensions\":[]},\"precision\":[\"DEFAULT\",\"DEFAULT\"],\"preferred_element_type\":\"bfloat16\",\"return_residuals\":false,\"activation\":null}": {
    "{}": {
      "compile_time_ms": 473.73696399972687,
      "lower_time_ms": 11.260426000262669,
      "evaluation_times_ms": [
        7.855,
        7.862,
        7.846,
        7.848,
        7.861
      ],
      "metadata": {},
      "peak_memory_mb": 9663.67744
    }
  },
  "{\"lhs\":\"bf16[262144,7168]\",\"rhs\":\"bf16[256,7168,2048]\",\"group_sizes\":{\"num_groups\":256,\"total_size\":262144},\"ragged_dot_dimension_numbers\":{\"dot_dimension_numbers\":[[[1],[1]],[[],[]]],\"lhs_ragged_dimensions\":[0],\"rhs_group_dimensions\":[0]},\"precision\":[\"DEFAULT\",\"DEFAULT\"],\"preferred_element_type\":null,\"return_residuals\":false,\"activation\":null}": {
    "{}": {
      "compile_time_ms": 437.1226139992359,
      "lower_time_ms": 11.648001003777608,
      "evaluation_times_ms": [
        13.928,
        13.928,
        13.923,
        13.928,
        13.937
      ],
      "metadata": {},
      "peak_memory_mb": 14495.515648
    }
  },
  "{\"lhs\":\"bf16[262144,7168]\",\"rhs\":\"bf16[256,7168,2048]\",\"group_sizes\":{\"num_groups\":256,\"total_size\":262144},\"ragged_dot_dimension_numbers\":{\"dot_dimension_numbers\":[[[1],[1]],[[],[]]],\"lhs_ragged_dimensions\":[0],\"rhs_group_dimensions\":[0]},\"precision\":[\"DEFAULT\",\"DEFAULT\"],\"preferred_element_type\":null,\"return_residuals\":true,\"activation\":null}": {
    "{}": {
      "compile_time_ms": 453.9021610034979,
      "lower_time_ms": 11.625954997725785,
      "evaluation_times_ms": [
        14.591,
        14.592,
        14.599,
        14.591,
        14.59
      ],
      "metadata": {},
      "peak_memory_mb": 15569.257504
    }
  },
  "{\"lhs\":\"bf16[327680,2880]\",\"rhs\":\"bf16[128,2880,2880]\",\"group_sizes\":{\"num_groups\":128,\"total_size\":327680},\"ragged_dot_dimension_numbers\":{\"dot_dimension_numbers\":[[[1],[1]],[[],[]]],\"lhs_ragged_dimensions\":[0],\"rhs_group_dimensions\":[0]},\"precision\":[\"DEFAULT\",\"DEFAULT\"],\"preferred_element_type\":null,\"return_residuals\":false,\"activation\":null}": {
    "{}": {
      "compile_time_ms": 974.8850909963949,
      "lower_time_ms": 10.214226000243798,
      "evaluation_times_ms": [
        18.333,
        18.339,
        18.343,
        18.334,
        18.337
      ],
      "metadata": {},
      "peak_memory_mb": 13856.932864
    }
  },
  "{\"lhs\":\"bf16[327680,2880]\",\"rhs\":\"bf16[128,2880,2880]\",\"group_sizes\":{\"num_groups\":128,\"total_size\":327680},\"ragged_dot_dimension_numbers\":{\"dot_dimension_numbers\":[[[1],[1]],[[],[]]],\"lhs_ragged_dimensions\":[0],\"rhs_group_dimensions\":[0]},\"precision\":[\"DEFAULT\",\"DEFAULT\"],\"preferred_element_type\":null,\"return_residuals\":true,\"activation\":null}": {
    "{}": {
      "compile_time_ms": 2335.1009199977852,
      "lower_time_ms": 140.15934901544824,
      "evaluation_times_ms": [
        19.53,
        19.529,
        19.521,
        19.534,
        19.529
      ],
      "metadata": {},
      "peak_memory_mb": 15744.369696
    }
  },
  "{\"lhs\":\"bf16[393216,2048]\",\"rhs\":\"bf16[128,2048,768]\",\"group_sizes\":{\"num_groups\":128,\"total_size\":393216},\"ragged_dot_dimension_numbers\":{\"dot_dimension_numbers\":[[[1],[1]],[[],[]]],\"lhs_ragged_dimensions\":[0],\"rhs_group_dimensions\":[0]},\"precision\":[\"DEFAULT\",\"DEFAULT\"],\"preferred_element_type\":null,\"return_residuals\":false,\"activation\":null}": {
    "{}": {
      "compile_time_ms": 1376.2463419989217,
      "lower_time_ms": 263.50494401413016,
      "evaluation_times_ms": [
        2.952,
        2.944,
        2.951,
        2.95,
        2.952
      ],
      "metadata": {},
      "peak_memory_mb": 3825.20576
    }
  },
  "{\"lhs\":\"bf16[393216,2048]\",\"rhs\":\"bf16[128,2048,768]\",\"group_sizes\":{\"num_groups\":128,\"total_size\":393216},\"ragged_dot_dimension_numbers\":{\"dot_dimension_numbers\":[[[1],[1]],[[],[]]],\"lhs_ragged_dimensions\":[0],\"rhs_group_dimensions\":[0]},\"precision\":[\"DEFAULT\",\"DEFAULT\"],\"preferred_element_type\":null,\"return_residuals\":true,\"activation\":null}": {
    "{}": {
      "compile_time_ms": 249.27466598455794,
      "lower_time_ms": 13.477139989845455,
      "evaluation_times_ms": [
        3.331,
        3.328,
        3.334,
        3.332,
        3.33
      ],
      "metadata": {},
      "peak_memory_mb": 4429.185568
    }
  },
  "{\"lhs\":\"bf16[393216,768]\",\"rhs\":\"bf16[128,768,2048]\",\"group_sizes\":{\"num_groups\":128,\"total_size\":393216},\"ragged_dot_dimension_numbers\":{\"dot_dimension_numbers\":[[[1],[1]],[[],[]]],\"lhs_ragged_dimensions\":[0],\"rhs_group_dimensions\":[0]},\"precision\":[\"DEFAULT\",\"DEFAULT\"],\"preferred_element_type\":null,\"return_residuals\":false,\"activation\":null}": {
    "{}": {
      "compile_time_ms": 273.10198100167327,
      "lower_time_ms": 12.281071016332135,
      "evaluation_times_ms": [
        3.987,
        3.984,
        3.981,
        3.988,
        3.984
      ],
      "metadata": {},
      "peak_memory_mb": 5838.47168
    }
  },
  "{\"lhs\":\"bf16[393216,768]\",\"rhs\":\"bf16[128,768,2048]\",\"group_sizes\":{\"num_groups\":128,\"total_size\":393216},\"ragged_dot_dimension_numbers\":{\"dot_dimension_numbers\":[[[1],[1]],[[],[]]],\"lhs_ragged_dimensions\":[0],\"rhs_group_dimensions\":[0]},\"precision\":[\"DEFAULT\",\"DEFAULT\"],\"preferred_element_type\":null,\"return_residuals\":true,\"activation\":null}": {
    "{}": {
      "compile_time_ms": 282.2875019919593,
      "lower_time_ms": 11.71067901304923,
      "evaluation_times_ms": [
        4.99,
        4.989,
        4.982,
        4.983,
        4.986
      ],
      "metadata": {},
      "peak_memory_mb": 7449.084448
    }
  },
  "{\"lhs\":\"bf16[524288,4096]\",\"rhs\":\"bf16[128,4096,1536]\",\"group_sizes\":{\"num_groups\":128,\"total_size\":524288},\"ragged_dot_dimension_numbers\":{\"dot_dimension_numbers\":[[[1],[1]],[[],[]]],\"lhs_ragged_dimensions\":[0],\"rhs_group_dimensions\":[0]},\"precision\":[\"DEFAULT\",\"DEFAULT\"],\"preferred_element_type\":null,\"return_residuals\":false,\"activation\":null}": {
    "{}": {
      "compile_time_ms": 371.33069001720287,
      "lower_time_ms": 14.847057987935841,
      "evaluation_times_ms": [
        10.708,
        10.706,
        10.707,
        10.702,
        10.704
      ],
      "metadata": {},
      "peak_memory_mb": 10737.418752
    }
  },
  "{\"lhs\":\"bf16[524288,4096]\",\"rhs\":\"bf16[128,4096,1536]\",\"group_sizes\":{\"num_groups\":128,\"total_size\":524288},\"ragged_dot_dimension_numbers\":{\"dot_dimension_numbers\":[[[1],[1]],[[],[]]],\"lhs_ragged_dimensions\":[0],\"rhs_group_dimensions\":[0]},\"precision\":[\"DEFAULT\",\"DEFAULT\"],\"preferred_element_type\":null,\"return_residuals\":true,\"activation\":null}": {
    "{}": {
      "compile_time_ms": 1792.972560000635,
      "lower_time_ms": 311.2145380000584,
      "evaluation_times_ms": [
        11.711,
        11.708,
        11.697,
        11.699,
        11.703
      ],
      "metadata": {},
      "peak_memory_mb": 12348.03152
    }
  },
  "{\"lhs\":\"bf16[524288,1536]\",\"rhs\":\"bf16[128,1536,4096]\",\"group_sizes\":{\"num_groups\":128,\"total_size\":524288},\"ragged_dot_dimension_numbers\":{\"dot_dimension_numbers\":[[[1],[1]],[[],[]]],\"lhs_ragged_dimensions\":[0],\"rhs_group_dimensions\":[0]},\"precision\":[\"DEFAULT\",\"DEFAULT\"],\"preferred_element_type\":null,\"return_residuals\":false,\"activation\":null}": {
    "{}": {
      "compile_time_ms": 388.8164660002076,
      "lower_time_ms": 20.060191999618837,
      "evaluation_times_ms": [
        13.357,
        13.36,
        13.35,
        13.351,
        13.364
      ],
      "metadata": {},
      "peak_memory_mb": 16106.127872
    }
  },
  "{\"lhs\":\"bf16[524288,1536]\",\"rhs\":\"bf16[128,1536,4096]\",\"group_sizes\":{\"num_groups\":128,\"total_size\":524288},\"ragged_dot_dimension_numbers\":{\"dot_dimension_numbers\":[[[1],[1]],[[],[]]],\"lhs_ragged_dimensions\":[0],\"rhs_group_dimensions\":[0]},\"precision\":[\"DEFAULT\",\"DEFAULT\"],\"preferred_element_type\":null,\"return_residuals\":true,\"activation\":null}": {
    "{}": {
      "compile_time_ms": 415.7417050000731,
      "lower_time_ms": 18.3899849998852,
      "evaluation_times_ms": [
        15.994,
        15.997,
        15.997,
        15.994,
        15.995
      ],
      "metadata": {},
      "peak_memory_mb": 20401.0952
    }
  },
  "{\"lhs\":\"bf16[524288,7168]\",\"rhs\":\"bf16[256,7168,2048]\",\"group_sizes\":{\"num_groups\":256,\"total_size\":524288},\"ragged_dot_dimension_numbers\":{\"dot_dimension_numbers\":[[[1],[1]],[[],[]]],\"lhs_ragged_dimensions\":[0],\"rhs_group_dimensions\":[0]},\"precision\":[\"DEFAULT\",\"DEFAULT\"],\"preferred_element_type\":null,\"return_residuals\":false,\"activation\":null}": {
    "{}": {
      "compile_time_ms": 484.8658549999527,
      "lower_time_ms": 19.74321800025791,
      "evaluation_times_ms": [
        24.458,
        24.462,
        24.459,
        24.457,
        24.465
      ],
      "metadata": {},
      "peak_memory_mb": 21474.837504
    }
  },
  "{\"lhs\":\"bf16[524288,7168]\",\"rhs\":\"bf16[256,7168,2048]\",\"group_sizes\":{\"num_groups\":256,\"total_size\":524288},\"ragged_dot_dimension_numbers\":{\"dot_dimension_numbers\":[[[1],[1]],[[],[]]],\"lhs_ragged_dimensions\":[0],\"rhs_group_dimensions\":[0]},\"precision\":[\"DEFAULT\",\"DEFAULT\"],\"preferred_element_type\":null,\"return_residuals\":true,\"activation\":null}": {
    "{}": {
      "compile_time_ms": 446.75417300004483,
      "lower_time_ms": 15.180020000116201,
      "evaluation_times_ms": [
        25.794,
        25.788,
        25.798,
        25.798,
        25.794
      ],
      "metadata": {},
      "peak_memory_mb": 23622.321184
    }
  },
  "{\"lhs\":\"bf16[262144,4096]\",\"rhs\":\"bf16[128,4096,1536]\",\"group_sizes\":{\"num_groups\":128,\"total_size\":262144},\"ragged_dot_dimension_numbers\":{\"dot_dimension_numbers\":[[[1],[1]],[[],[]]],\"lhs_ragged_dimensions\":[0],\"rhs_group_dimensions\":[0]},\"precision\":[\"DEFAULT\",\"DEFAULT\"],\"preferred_element_type\":null,\"return_residuals\":false,\"activation\":null}": {
    "{}": {
      "compile_time_ms": 1445.4495270038024,
      "lower_time_ms": 254.26652800524607,
      "evaluation_times_ms": [
        5.757,
        5.76,
        5.754,
        5.758,
        5.757
      ],
      "metadata": {},
      "peak_memory_mb": 6174.016
    }
  },
  "{\"lhs\":\"bf16[262144,4096]\",\"rhs\":\"bf16[128,4096,1536]\",\"group_sizes\":{\"num_groups\":128,\"total_size\":262144},\"ragged_dot_dimension_numbers\":{\"dot_dimension_numbers\":[[[1],[1]],[[],[]]],\"lhs_ragged_dimensions\":[0],\"rhs_group_dimensions\":[0]},\"precision\":[\"DEFAULT\",\"DEFAULT\"],\"preferred_element_type\":null,\"return_residuals\":true,\"activation\":null}": {
    "{}": {
      "compile_time_ms": 376.76710399682634,
      "lower_time_ms": 11.178051005117595,
      "evaluation_times_ms": [
        6.253,
        6.247,
        6.256,
        6.249,
        6.25
      ],
      "metadata": {},
      "peak_memory_mb": 6979.3224
    }
  },
  "{\"lhs\":\"bf16[262144,1536]\",\"rhs\":\"bf16[128,1536,4096]\",\"group_sizes\":{\"num_groups\":128,\"total_size\":262144},\"ragged_dot_dimension_numbers\":{\"dot_dimension_numbers\":[[[1],[1]],[[],[]]],\"lhs_ragged_dimensions\":[0],\"rhs_group_dimensions\":[0]},\"precision\":[\"DEFAULT\",\"DEFAULT\"],\"preferred_element_type\":null,\"return_residuals\":false,\"activation\":null}": {
    "{}": {
      "compile_time_ms": 387.84300701809116,
      "lower_time_ms": 11.068954016081989,
      "evaluation_times_ms": [
        7.132,
        7.13,
        7.138,
        7.13,
        7.13
      ],
      "metadata": {},
      "peak_memory_mb": 8858.37056
    }
  },
  "{\"lhs\":\"bf16[262144,1536]\",\"rhs\":\"bf16[128,1536,4096]\",\"group_sizes\":{\"num_groups\":128,\"total_size\":262144},\"ragged_dot_dimension_numbers\":{\"dot_dimension_numbers\":[[[1],[1]],[[],[]]],\"lhs_ragged_dimensions\":[0],\"rhs_group_dimensions\":[0]},\"precision\":[\"DEFAULT\",\"DEFAULT\"],\"preferred_element_type\":null,\"return_residuals\":true,\"activation\":null}": {
    "{}": {
      "compile_time_ms": 396.068756992463,
      "lower_time_ms": 10.672607982996851,
      "evaluation_times_ms": [
        8.472,
        8.472,
        8.475,
        8.473,
        8.471
      ],
      "metadata": {},
      "peak_memory_mb": 11005.85424
    }
  },
  "{\"lhs\":\"bf16[131072,7168]\",\"rhs\":\"bf16[128,7168,2048]\",\"group_sizes\":{\"num_groups\":128,\"total_size\":131072},\"ragged_dot_dimension_numbers\":{\"dot_dimension_numbers\":[[[1],[1]],[[],[]]],\"lhs_ragged_dimensions\":[0],\"rhs_group_dimensions\":[0]},\"precision\":[\"DEFAULT\",\"DEFAULT\"],\"preferred_element_type\":null,\"return_residuals\":false,\"activation\":null}": {
    "{}": {
      "compile_time_ms": 403.35196201340295,
      "lower_time_ms": 10.348231007810682,
      "evaluation_times_ms": [
        6.976,
        6.973,
        6.972,
        6.974,
        6.976
      ],
      "metadata": {},
      "peak_memory_mb": 7247.757824
    }
  },
  "{\"lhs\":\"bf16[131072,7168]\",\"rhs\":\"bf16[128,7168,2048]\",\"group_sizes\":{\"num_groups\":128,\"total_size\":131072},\"ragged_dot_dimension_numbers\":{\"dot_dimension_numbers\":[[[1],[1]],[[],[]]],\"lhs_ragged_dimensions\":[0],\"rhs_group_dimensions\":[0]},\"precision\":[\"DEFAULT\",\"DEFAULT\"],\"preferred_element_type\":null,\"return_residuals\":true,\"activation\":null}": {
    "{}": {
      "compile_time_ms": 1638.8946669758298,
      "lower_time_ms": 279.5985820121132,
      "evaluation_times_ms": [
        7.3,
        7.301,
        7.301,
        7.303,
        7.298
      ],
      "metadata": {},
      "peak_memory_mb": 7784.628768
    }
  },
  "{\"lhs\":\"bf16[131072,2048]\",\"rhs\":\"bf16[128,2048,768]\",\"group_sizes\":{\"num_groups\":128,\"total_size\":131072},\"ragged_dot_dimension_numbers\":{\"dot_dimension_numbers\":[[[1],[1]],[[],[]]],\"lhs_ragged_dimensions\":[0],\"rhs_group_dimensions\":[0]},\"precision\":[\"DEFAULT\",\"DEFAULT\"],\"preferred_element_type\":null,\"return_residuals\":false,\"activation\":null}": {
    "{}": {
      "compile_time_ms": 234.7920879838057,
      "lower_time_ms": 9.223217028193176,
      "evaluation_times_ms": [
        1.159,
        1.159,
        1.161,
        1.16,
        1.16
      ],
      "metadata": {},
      "peak_memory_mb": 1543.504384
    }
  },
  "{\"lhs\":\"bf16[131072,2048]\",\"rhs\":\"bf16[128,2048,768]\",\"group_sizes\":{\"num_groups\":128,\"total_size\":131072},\"ragged_dot_dimension_numbers\":{\"dot_dimension_numbers\":[[[1],[1]],[[],[]]],\"lhs_ragged_dimensions\":[0],\"rhs_group_dimensions\":[0]},\"precision\":[\"DEFAULT\",\"DEFAULT\"],\"preferred_element_type\":null,\"return_residuals\":true,\"activation\":null}": {
    "{}": {
      "compile_time_ms": 241.5322089800611,
      "lower_time_ms": 9.186593000777066,
      "evaluation_times_ms": [
        1.29,
        1.288,
        1.289,
        1.288,
        1.289
      ],
      "metadata": {},
      "peak_memory_mb": 1744.831008
    }
  },
  "{\"lhs\":\"bf16[131072,4096]\",\"rhs\":\"bf16[128,4096,1536]\",\"group_sizes\":{\"num_groups\":128,\"total_size\":131072},\"ragged_dot_dimension_numbers\":{\"dot_dimension_numbers\":[[[1],[1]],[[],[]]],\"lhs_ragged_dimensions\":[0],\"rhs_group_dimensions\":[0]},\"precision\":[\"DEFAULT\",\"DEFAULT\"],\"preferred_element_type\":null,\"return_residuals\":false,\"activation\":null}": {
    "{}": {
      "compile_time_ms": 360.5455079814419,
      "lower_time_ms": 10.02644799882546,
      "evaluation_times_ms": [
        3.289,
        3.283,
        3.285,
        3.287,
        3.287
      ],
      "metadata": {},
      "peak_memory_mb": 3892.314624
    }
  },
  "{\"lhs\":\"bf16[131072,4096]\",\"rhs\":\"bf16[128,4096,1536]\",\"group_sizes\":{\"num_groups\":128,\"total_size\":131072},\"ragged_dot_dimension_numbers\":{\"dot_dimension_numbers\":[[[1],[1]],[[],[]]],\"lhs_ragged_dimensions\":[0],\"rhs_group_dimensions\":[0]},\"precision\":[\"DEFAULT\",\"DEFAULT\"],\"preferred_element_type\":null,\"return_residuals\":true,\"activation\":null}": {
    "{}": {
      "compile_time_ms": 370.0456320075318,
      "lower_time_ms": 9.690805978607386,
      "evaluation_times_ms": [
        3.532,
        3.534,
        3.535,
        3.536,
        3.535
      ],
      "metadata": {},
      "peak_memory_mb": 4294.96784
    }
  },
  "{\"lhs\":\"bf16[131072,1536]\",\"rhs\":\"bf16[128,1536,4096]\",\"group_sizes\":{\"num_groups\":128,\"total_size\":131072},\"ragged_dot_dimension_numbers\":{\"dot_dimension_numbers\":[[[1],[1]],[[],[]]],\"lhs_ragged_dimensions\":[0],\"rhs_group_dimensions\":[0]},\"precision\":[\"DEFAULT\",\"DEFAULT\"],\"preferred_element_type\":null,\"return_residuals\":false,\"activation\":null}": {
    "{}": {
      "compile_time_ms": 1593.3122689602897,
      "lower_time_ms": 268.9668830134906,
      "evaluation_times_ms": [
        4.04,
        4.039,
        4.042,
        4.037,
        4.036
      ],
      "metadata": {},
      "peak_memory_mb": 5234.491904
    }
  },
  "{\"lhs\":\"bf16[131072,1536]\",\"rhs\":\"bf16[128,1536,4096]\",\"group_sizes\":{\"num_groups\":128,\"total_size\":131072},\"ragged_dot_dimension_numbers\":{\"dot_dimension_numbers\":[[[1],[1]],[[],[]]],\"lhs_ragged_dimensions\":[0],\"rhs_group_dimensions\":[0]},\"precision\":[\"DEFAULT\",\"DEFAULT\"],\"preferred_element_type\":null,\"return_residuals\":true,\"activation\":null}": {
    "{}": {
      "compile_time_ms": 394.93769395630807,
      "lower_time_ms": 9.774298989214003,
      "evaluation_times_ms": [
        4.713,
        4.713,
        4.715,
        4.717,
        4.716
      ],
      "metadata": {},
      "peak_memory_mb": 6308.23376
    }
  },
  "{\"lhs\":\"bf16[131072,7168]\",\"rhs\":\"bf16[256,7168,2048]\",\"group_sizes\":{\"num_groups\":256,\"total_size\":131072},\"ragged_dot_dimension_numbers\":{\"dot_dimension_numbers\":[[[1],[1]],[[],[]]],\"lhs_ragged_dimensions\":[0],\"rhs_group_dimensions\":[0]},\"precision\":[\"DEFAULT\",\"DEFAULT\"],\"preferred_element_type\":null,\"return_residuals\":false,\"activation\":null}": {
    "{}": {
      "compile_time_ms": 443.31084698205814,
      "lower_time_ms": 10.49311802489683,
      "evaluation_times_ms": [
        8.691,
        8.688,
        8.69,
        8.692,
        8.689
      ],
      "metadata": {},
      "peak_memory_mb": 11005.85472
    }
  },
  "{\"lhs\":\"bf16[131072,7168]\",\"rhs\":\"bf16[256,7168,2048]\",\"group_sizes\":{\"num_groups\":256,\"total_size\":131072},\"ragged_dot_dimension_numbers\":{\"dot_dimension_numbers\":[[[1],[1]],[[],[]]],\"lhs_ragged_dimensions\":[0],\"rhs_group_dimensions\":[0]},\"precision\":[\"DEFAULT\",\"DEFAULT\"],\"preferred_element_type\":null,\"return_residuals\":true,\"activation\":null}": {
    "{}": {
      "compile_time_ms": 447.9929439839907,
      "lower_time_ms": 9.810599032789469,
      "evaluation_times_ms": [
        9.03,
        9.037,
        9.031,
        9.031,
        9.034
      ],
      "metadata": {},
      "peak_memory_mb": 11542.725664
    }
  },
  "{\"lhs\":\"bf16[65536,7168]\",\"rhs\":\"bf16[256,7168,2048]\",\"group_sizes\":{\"num_groups\":256,\"total_size\":65536},\"ragged_dot_dimension_numbers\":{\"dot_dimension_numbers\":[[[1],[1]],[[],[]]],\"lhs_ragged_dimensions\":[0],\"rhs_group_dimensions\":[0]},\"precision\":[\"DEFAULT\",\"DEFAULT\"],\"preferred_element_type\":null,\"return_residuals\":false,\"activation\":null}": {
    "{}": {
      "compile_time_ms": 441.4470519986935,
      "lower_time_ms": 9.511433017905802,
      "evaluation_times_ms": [
        6.039,
        6.044,
        6.041,
        6.042,
        6.041
      ],
      "metadata": {},
      "peak_memory_mb": 9261.024256
    }
  },
  "{\"lhs\":\"bf16[65536,7168]\",\"rhs\":\"bf16[256,7168,2048]\",\"group_sizes\":{\"num_groups\":256,\"total_size\":65536},\"ragged_dot_dimension_numbers\":{\"dot_dimension_numbers\":[[[1],[1]],[[],[]]],\"lhs_ragged_dimensions\":[0],\"rhs_group_dimensions\":[0]},\"precision\":[\"DEFAULT\",\"DEFAULT\"],\"preferred_element_type\":null,\"return_residuals\":true,\"activation\":null}": {
    "{}": {
      "compile_time_ms": 1793.1957320000151,
      "lower_time_ms": 316.2898620000192,
      "evaluation_times_ms": [
        6.175,
        6.174,
        6.176,
        6.178,
        6.176
      ],
      "metadata": {},
      "peak_memory_mb": 9529.459744
    }
  }
}
