{
  "{\"lhs\":\"bf16[131072,7168]\",\"rhs\":\"bf16[256,7168,1024]\",\"group_sizes\":{\"num_groups\":256,\"total_size\":131072},\"ragged_dot_dimension_numbers\":{\"dot_dimension_numbers\":[[[1],[1]],[[],[]]],\"lhs_ragged_dimensions\":[0],\"rhs_group_dimensions\":[0]},\"precision\":[\"DEFAULT\",\"DEFAULT\"],\"preferred_element_type\":null,\"return_residuals\":false,\"activation\":null}": {
    "{\"tile_m\":128,\"tile_k\":7168,\"tile_n\":1024,\"input_buffer_count\":2,\"combine_scopes\":false}": {
      "compile_time_ms": 8196.762260005926,
      "lower_time_ms": 18840.781568003877,
      "evaluation_times_ms": [
        3.837,
        3.838,
        3.836,
        3.844,
        3.841
      ],
      "metadata": {},
      "peak_memory_mb": 5905.633792
    }
  },
  "{\"lhs\":\"bf16[131072,7168]\",\"rhs\":\"bf16[256,7168,1024]\",\"group_sizes\":{\"num_groups\":256,\"total_size\":131072},\"ragged_dot_dimension_numbers\":{\"dot_dimension_numbers\":[[[1],[1]],[[],[]]],\"lhs_ragged_dimensions\":[0],\"rhs_group_dimensions\":[0]},\"precision\":[\"DEFAULT\",\"DEFAULT\"],\"preferred_element_type\":null,\"return_residuals\":true,\"activation\":null}": {
    "{\"tile_m\":128,\"tile_k\":7168,\"tile_n\":1024,\"input_buffer_count\":2,\"combine_scopes\":false}": {
      "compile_time_ms": 1692.2689710045233,
      "lower_time_ms": 26482.214888965245,
      "evaluation_times_ms": [
        4.012,
        4.006,
        4.004,
        4.009,
        4.006
      ],
      "metadata": {},
      "peak_memory_mb": 6174.06928
    }
  },
  "{\"lhs\":\"bf16[131072,1024]\",\"rhs\":\"bf16[256,1024,7168]\",\"group_sizes\":{\"num_groups\":256,\"total_size\":131072},\"ragged_dot_dimension_numbers\":{\"dot_dimension_numbers\":[[[1],[1]],[[],[]]],\"lhs_ragged_dimensions\":[0],\"rhs_group_dimensions\":[0]},\"precision\":[\"DEFAULT\",\"DEFAULT\"],\"preferred_element_type\":null,\"return_residuals\":false,\"activation\":null}": {
    "{\"tile_m\":128,\"tile_k\":1024,\"tile_n\":7168,\"input_buffer_count\":2,\"combine_scopes\":false}": {
      "compile_time_ms": 35726.742807019036,
      "lower_time_ms": 21119.053763046395,
      "evaluation_times_ms": [
        4.025,
        4.024,
        4.025,
        4.022,
        4.025
      ],
      "metadata": {},
      "peak_memory_mb": 5905.633792
    }
  },
  "{\"lhs\":\"bf16[131072,1024]\",\"rhs\":\"bf16[256,1024,7168]\",\"group_sizes\":{\"num_groups\":256,\"total_size\":131072},\"ragged_dot_dimension_numbers\":{\"dot_dimension_numbers\":[[[1],[1]],[[],[]]],\"lhs_ragged_dimensions\":[0],\"rhs_group_dimensions\":[0]},\"precision\":[\"DEFAULT\",\"DEFAULT\"],\"preferred_element_type\":null,\"return_residuals\":true,\"activation\":null}": {
    "{\"tile_m\":128,\"tile_k\":1024,\"tile_n\":7168,\"input_buffer_count\":2,\"combine_scopes\":false}": {
      "compile_time_ms": 2165.7213360304013,
      "lower_time_ms": 1595.6922320183367,
      "evaluation_times_ms": [
        5.19,
        5.191,
        5.188,
        5.189,
        5.191
      ],
      "metadata": {},
      "peak_memory_mb": 7784.682016
    }
  },
  "{\"lhs\":\"bf16[131072,7168]\",\"rhs\":\"bf16[256,7168,512]\",\"group_sizes\":{\"num_groups\":256,\"total_size\":131072},\"ragged_dot_dimension_numbers\":{\"dot_dimension_numbers\":[[[1],[1]],[[],[]]],\"lhs_ragged_dimensions\":[0],\"rhs_group_dimensions\":[0]},\"precision\":[\"DEFAULT\",\"DEFAULT\"],\"preferred_element_type\":null,\"return_residuals\":false,\"activation\":null}": {
    "{\"tile_m\":256,\"tile_k\":7168,\"tile_n\":512,\"input_buffer_count\":2,\"combine_scopes\":false}": {
      "compile_time_ms": 6298.945331999903,
      "lower_time_ms": 7887.953616999994,
      "evaluation_times_ms": [
        2.093,
        2.091,
        2.091,
        2.095,
        2.09
      ],
      "metadata": {},
      "peak_memory_mb": 3892.34944
    }
  },
  "{\"lhs\":\"bf16[131072,7168]\",\"rhs\":\"bf16[256,7168,512]\",\"group_sizes\":{\"num_groups\":256,\"total_size\":131072},\"ragged_dot_dimension_numbers\":{\"dot_dimension_numbers\":[[[1],[1]],[[],[]]],\"lhs_ragged_dimensions\":[0],\"rhs_group_dimensions\":[0]},\"precision\":[\"DEFAULT\",\"DEFAULT\"],\"preferred_element_type\":null,\"return_residuals\":true,\"activation\":null}": {
    "{\"tile_m\":256,\"tile_k\":7168,\"tile_n\":512,\"input_buffer_count\":2,\"combine_scopes\":false}": {
      "compile_time_ms": 1971.9192479997218,
      "lower_time_ms": 1039.2845029996352,
      "evaluation_times_ms": [
        2.174,
        2.174,
        2.174,
        2.176,
        2.172
      ],
      "metadata": {},
      "peak_memory_mb": 4026.5672
    }
  },
  "{\"lhs\":\"bf16[131072,512]\",\"rhs\":\"bf16[256,512,7168]\",\"group_sizes\":{\"num_groups\":256,\"total_size\":131072},\"ragged_dot_dimension_numbers\":{\"dot_dimension_numbers\":[[[1],[1]],[[],[]]],\"lhs_ragged_dimensions\":[0],\"rhs_group_dimensions\":[0]},\"precision\":[\"DEFAULT\",\"DEFAULT\"],\"preferred_element_type\":null,\"return_residuals\":false,\"activation\":null}": {
    "{\"tile_m\":256,\"tile_k\":512,\"tile_n\":7168,\"input_buffer_count\":2,\"combine_scopes\":false}": {
      "compile_time_ms": 17657.983488000355,
      "lower_time_ms": 21571.04030499977,
      "evaluation_times_ms": [
        2.427,
        2.425,
        2.43,
        2.426,
        2.427
      ],
      "metadata": {},
      "peak_memory_mb": 3892.34944
    }
  },
  "{\"lhs\":\"bf16[131072,512]\",\"rhs\":\"bf16[256,512,7168]\",\"group_sizes\":{\"num_groups\":256,\"total_size\":131072},\"ragged_dot_dimension_numbers\":{\"dot_dimension_numbers\":[[[1],[1]],[[],[]]],\"lhs_ragged_dimensions\":[0],\"rhs_group_dimensions\":[0]},\"precision\":[\"DEFAULT\",\"DEFAULT\"],\"preferred_element_type\":null,\"return_residuals\":true,\"activation\":null}": {
    "{\"tile_m\":256,\"tile_k\":512,\"tile_n\":7168,\"input_buffer_count\":2,\"combine_scopes\":false}": {
      "compile_time_ms": 26214.907468000092,
      "lower_time_ms": 4176.224058000116,
      "evaluation_times_ms": [
        3.549,
        3.548,
        3.55,
        3.55,
        3.552
      ],
      "metadata": {},
      "peak_memory_mb": 5771.397664
    }
  },
  "{\"lhs\":\"bf16[262144,7168]\",\"rhs\":\"bf16[256,7168,512]\",\"group_sizes\":{\"num_groups\":256,\"total_size\":262144},\"ragged_dot_dimension_numbers\":{\"dot_dimension_numbers\":[[[1],[1]],[[],[]]],\"lhs_ragged_dimensions\":[0],\"rhs_group_dimensions\":[0]},\"precision\":[\"DEFAULT\",\"DEFAULT\"],\"preferred_element_type\":null,\"return_residuals\":false,\"activation\":null}": {
    "{\"tile_m\":256,\"tile_k\":7168,\"tile_n\":512,\"input_buffer_count\":2,\"combine_scopes\":false}": {
      "compile_time_ms": 919.0461319522001,
      "lower_time_ms": 38041.871689027175,
      "evaluation_times_ms": [
        3.273,
        3.269,
        3.27,
        3.272,
        3.27
      ],
      "metadata": {},
      "peak_memory_mb": 5905.633792
    },
    "{\"tile_m\":512,\"tile_k\":7168,\"tile_n\":512,\"input_buffer_count\":2,\"combine_scopes\":false}": {
      "compile_time_ms": 23512.625674000446,
      "lower_time_ms": 48453.04793199921,
      "evaluation_times_ms": [
        3.258,
        3.258,
        3.261,
        3.262,
        3.26
      ],
      "metadata": {},
      "peak_memory_mb": 5905.61536
    }
  },
  "{\"lhs\":\"bf16[262144,7168]\",\"rhs\":\"bf16[256,7168,512]\",\"group_sizes\":{\"num_groups\":256,\"total_size\":262144},\"ragged_dot_dimension_numbers\":{\"dot_dimension_numbers\":[[[1],[1]],[[],[]]],\"lhs_ragged_dimensions\":[0],\"rhs_group_dimensions\":[0]},\"precision\":[\"DEFAULT\",\"DEFAULT\"],\"preferred_element_type\":null,\"return_residuals\":true,\"activation\":null}": {
    "{\"tile_m\":512,\"tile_k\":7168,\"tile_n\":512,\"input_buffer_count\":2,\"combine_scopes\":false}": {
      "compile_time_ms": 25362.727318000907,
      "lower_time_ms": 16715.960903999076,
      "evaluation_times_ms": [
        3.432,
        3.431,
        3.432,
        3.431,
        3.432
      ],
      "metadata": {},
      "peak_memory_mb": 6174.050848
    }
  },
  "{\"lhs\":\"bf16[262144,512]\",\"rhs\":\"bf16[256,512,7168]\",\"group_sizes\":{\"num_groups\":256,\"total_size\":262144},\"ragged_dot_dimension_numbers\":{\"dot_dimension_numbers\":[[[1],[1]],[[],[]]],\"lhs_ragged_dimensions\":[0],\"rhs_group_dimensions\":[0]},\"precision\":[\"DEFAULT\",\"DEFAULT\"],\"preferred_element_type\":null,\"return_residuals\":false,\"activation\":null}": {
    "{\"tile_m\":256,\"tile_k\":512,\"tile_n\":7168,\"input_buffer_count\":2,\"combine_scopes\":false}": {
      "compile_time_ms": 20841.35568399961,
      "lower_time_ms": 35440.986544000225,
      "evaluation_times_ms": [
        3.65,
        3.651,
        3.648,
        3.649,
        3.646
      ],
      "metadata": {},
      "peak_memory_mb": 5905.633792
    }
  },
  "{\"lhs\":\"bf16[262144,512]\",\"rhs\":\"bf16[256,512,7168]\",\"group_sizes\":{\"num_groups\":256,\"total_size\":262144},\"ragged_dot_dimension_numbers\":{\"dot_dimension_numbers\":[[[1],[1]],[[],[]]],\"lhs_ragged_dimensions\":[0],\"rhs_group_dimensions\":[0]},\"precision\":[\"DEFAULT\",\"DEFAULT\"],\"preferred_element_type\":null,\"return_residuals\":true,\"activation\":null}": {
    "{\"tile_m\":256,\"tile_k\":512,\"tile_n\":7168,\"input_buffer_count\":2,\"combine_scopes\":false}": {
      "compile_time_ms": 13016.867399000148,
      "lower_time_ms": 7708.105392000107,
      "evaluation_times_ms": [
        6.026,
        6.024,
        6.026,
        6.03,
        6.026
      ],
      "metadata": {},
      "peak_memory_mb": 9663.730208
    }
  },
  "{\"lhs\":\"bf16[262144,256]\",\"rhs\":\"bf16[256,256,7168]\",\"group_sizes\":{\"num_groups\":256,\"total_size\":262144},\"ragged_dot_dimension_numbers\":{\"dot_dimension_numbers\":[[[1],[1]],[[],[]]],\"lhs_ragged_dimensions\":[0],\"rhs_group_dimensions\":[0]},\"precision\":[\"DEFAULT\",\"DEFAULT\"],\"preferred_element_type\":null,\"return_residuals\":false,\"activation\":null}": {
    "{\"tile_m\":512,\"tile_k\":256,\"tile_n\":7168,\"input_buffer_count\":2,\"combine_scopes\":false}": {
      "compile_time_ms": 9884.540693999952,
      "lower_time_ms": 33066.66830699942,
      "evaluation_times_ms": [
        2.468,
        2.463,
        2.465,
        2.465,
        2.469
      ],
      "metadata": {},
      "peak_memory_mb": 4831.873536
    }
  },
  "{\"lhs\":\"bf16[262144,256]\",\"rhs\":\"bf16[256,256,7168]\",\"group_sizes\":{\"num_groups\":256,\"total_size\":262144},\"ragged_dot_dimension_numbers\":{\"dot_dimension_numbers\":[[[1],[1]],[[],[]]],\"lhs_ragged_dimensions\":[0],\"rhs_group_dimensions\":[0]},\"precision\":[\"DEFAULT\",\"DEFAULT\"],\"preferred_element_type\":null,\"return_residuals\":true,\"activation\":null}": {
    "{\"tile_m\":512,\"tile_k\":256,\"tile_n\":7168,\"input_buffer_count\":2,\"combine_scopes\":false}": {
      "compile_time_ms": 29357.391342999108,
      "lower_time_ms": 39948.149936000846,
      "evaluation_times_ms": [
        4.804,
        4.805,
        4.804,
        4.801,
        4.804
      ],
      "metadata": {},
      "peak_memory_mb": 8589.969952
    }
  },
  "{\"lhs\":\"bf16[262144,1024]\",\"rhs\":\"bf16[256,1024,7168]\",\"group_sizes\":{\"num_groups\":256,\"total_size\":262144},\"ragged_dot_dimension_numbers\":{\"dot_dimension_numbers\":[[[1],[1]],[[],[]]],\"lhs_ragged_dimensions\":[0],\"rhs_group_dimensions\":[0]},\"precision\":[\"DEFAULT\",\"DEFAULT\"],\"preferred_element_type\":null,\"return_residuals\":false,\"activation\":null}": {
    "{\"tile_m\":128,\"tile_k\":1024,\"tile_n\":7168,\"input_buffer_count\":2,\"combine_scopes\":false}": {
      "compile_time_ms": 23532.156446017325,
      "lower_time_ms": 31902.32970798388,
      "evaluation_times_ms": [
        6.429,
        6.43,
        6.428,
        6.432,
        6.429
      ],
      "metadata": {},
      "peak_memory_mb": 8053.13792
    }
  },
  "{\"lhs\":\"bf16[262144,1024]\",\"rhs\":\"bf16[256,1024,7168]\",\"group_sizes\":{\"num_groups\":256,\"total_size\":262144},\"ragged_dot_dimension_numbers\":{\"dot_dimension_numbers\":[[[1],[1]],[[],[]]],\"lhs_ragged_dimensions\":[0],\"rhs_group_dimensions\":[0]},\"precision\":[\"DEFAULT\",\"DEFAULT\"],\"preferred_element_type\":null,\"return_residuals\":true,\"activation\":null}": {
    "{\"tile_m\":128,\"tile_k\":1024,\"tile_n\":7168,\"input_buffer_count\":2,\"combine_scopes\":false}": {
      "compile_time_ms": 3921.119360020384,
      "lower_time_ms": 2873.6760809551924,
      "evaluation_times_ms": [
        8.764,
        8.762,
        8.764,
        8.766,
        8.763
      ],
      "metadata": {},
      "peak_memory_mb": 11811.234336
    }
  },
  "{\"lhs\":\"bf16[262144,7168]\",\"rhs\":\"bf16[256,7168,1024]\",\"group_sizes\":{\"num_groups\":256,\"total_size\":262144},\"ragged_dot_dimension_numbers\":{\"dot_dimension_numbers\":[[[1],[1]],[[],[]]],\"lhs_ragged_dimensions\":[0],\"rhs_group_dimensions\":[0]},\"precision\":[\"DEFAULT\",\"DEFAULT\"],\"preferred_element_type\":null,\"return_residuals\":false,\"activation\":null}": {
    "{\"tile_m\":128,\"tile_k\":7168,\"tile_n\":1024,\"input_buffer_count\":2,\"combine_scopes\":false}": {
      "compile_time_ms": 6595.597523031756,
      "lower_time_ms": 18527.220615069382,
      "evaluation_times_ms": [
        6.22,
        6.22,
        6.222,
        6.223,
        6.222
      ],
      "metadata": {},
      "peak_memory_mb": 8053.13792
    }
  },
  "{\"lhs\":\"bf16[262144,7168]\",\"rhs\":\"bf16[256,7168,1024]\",\"group_sizes\":{\"num_groups\":256,\"total_size\":262144},\"ragged_dot_dimension_numbers\":{\"dot_dimension_numbers\":[[[1],[1]],[[],[]]],\"lhs_ragged_dimensions\":[0],\"rhs_group_dimensions\":[0]},\"precision\":[\"DEFAULT\",\"DEFAULT\"],\"preferred_element_type\":null,\"return_residuals\":true,\"activation\":null}": {
    "{\"tile_m\":128,\"tile_k\":7168,\"tile_n\":1024,\"input_buffer_count\":2,\"combine_scopes\":false}": {
      "compile_time_ms": 2049.5209519867785,
      "lower_time_ms": 26230.993130011484,
      "evaluation_times_ms": [
        6.561,
        6.56,
        6.559,
        6.566,
        6.561
      ],
      "metadata": {},
      "peak_memory_mb": 8590.008864
    }
  },
  "{\"lhs\":\"bf16[4096,4096]\",\"rhs\":\"bf16[8,4096,4096]\",\"group_sizes\":[4096,0,0,0,0,0,0,0],\"ragged_dot_dimension_numbers\":{\"dot_dimension_numbers\":[[[1],[1]],[[],[]]],\"lhs_ragged_dimensions\":[0],\"rhs_group_dimensions\":[0]},\"precision\":[\"DEFAULT\",\"DEFAULT\"],\"preferred_element_type\":null,\"return_residuals\":false,\"activation\":null}": {
    "{\"tile_m\":512,\"tile_k\":4096,\"tile_n\":1024,\"input_buffer_count\":2,\"combine_scopes\":false}": {
      "compile_time_ms": 875.3760370018426,
      "lower_time_ms": 2605.178566998802,
      "evaluation_times_ms": [
        0.174,
        0.175,
        0.174,
        0.175,
        0.174
      ],
      "metadata": {},
      "peak_memory_mb": 335.568896
    }
  },
  "{\"lhs\":\"bf16[4096,4096]\",\"rhs\":\"bf16[8,4096,4096]\",\"group_sizes\":[4096,0,0,0,0,0,0,0],\"ragged_dot_dimension_numbers\":{\"dot_dimension_numbers\":[[[1],[1]],[[],[]]],\"lhs_ragged_dimensions\":[0],\"rhs_group_dimensions\":[0]},\"precision\":[\"DEFAULT\",\"DEFAULT\"],\"preferred_element_type\":null,\"return_residuals\":true,\"activation\":null}": {
    "{\"tile_m\":512,\"tile_k\":4096,\"tile_n\":1024,\"input_buffer_count\":2,\"combine_scopes\":false}": {
      "compile_time_ms": 8236.005869985092,
      "lower_time_ms": 7633.922315988457,
      "evaluation_times_ms": [
        0.197,
        0.197,
        0.197,
        0.197,
        0.197
      ],
      "metadata": {},
      "peak_memory_mb": 402.668064
    }
  },
  "{\"lhs\":\"bf16[8,4096]\",\"rhs\":\"bf16[8,4096,4096]\",\"group_sizes\":[1,1,1,1,1,1,1,1],\"ragged_dot_dimension_numbers\":{\"dot_dimension_numbers\":[[[1],[1]],[[],[]]],\"lhs_ragged_dimensions\":[0],\"rhs_group_dimensions\":[0]},\"precision\":[\"DEFAULT\",\"DEFAULT\"],\"preferred_element_type\":null,\"return_residuals\":false,\"activation\":null}": {},
  "{\"lhs\":\"bf16[8,4096]\",\"rhs\":\"bf16[8,4096,4096]\",\"group_sizes\":[1,1,1,1,1,1,1,1],\"ragged_dot_dimension_numbers\":{\"dot_dimension_numbers\":[[[1],[1]],[[],[]]],\"lhs_ragged_dimensions\":[0],\"rhs_group_dimensions\":[0]},\"precision\":[\"DEFAULT\",\"DEFAULT\"],\"preferred_element_type\":null,\"return_residuals\":true,\"activation\":null}": {},
  "{\"lhs\":\"bf16[8192,4096]\",\"rhs\":\"bf16[8,4096,14336]\",\"group_sizes\":{\"num_groups\":8,\"total_size\":8192},\"ragged_dot_dimension_numbers\":{\"dot_dimension_numbers\":[[[1],[1]],[[],[]]],\"lhs_ragged_dimensions\":[0],\"rhs_group_dimensions\":[0]},\"precision\":[\"DEFAULT\",\"DEFAULT\"],\"preferred_element_type\":null,\"return_residuals\":false,\"activation\":null}": {
    "{\"tile_m\":512,\"tile_k\":4096,\"tile_n\":1024,\"input_buffer_count\":2,\"combine_scopes\":false}": {
      "compile_time_ms": 71189.07431600383,
      "lower_time_ms": 1382.2092369955499,
      "evaluation_times_ms": [
        1.551,
        1.552,
        1.551,
        1.552,
        1.551
      ],
      "metadata": {},
      "peak_memory_mb": 1241.555456
    }
  },
  "{\"lhs\":\"bf16[8192,4096]\",\"rhs\":\"bf16[8,4096,14336]\",\"group_sizes\":{\"num_groups\":8,\"total_size\":8192},\"ragged_dot_dimension_numbers\":{\"dot_dimension_numbers\":[[[1],[1]],[[],[]]],\"lhs_ragged_dimensions\":[0],\"rhs_group_dimensions\":[0]},\"precision\":[\"DEFAULT\",\"DEFAULT\"],\"preferred_element_type\":null,\"return_residuals\":true,\"activation\":null}": {
    "{\"tile_m\":512,\"tile_k\":4096,\"tile_n\":1024,\"input_buffer_count\":2,\"combine_scopes\":false}": {
      "compile_time_ms": 19022.279404000074,
      "lower_time_ms": 8942.024142000264,
      "evaluation_times_ms": [
        1.701,
        1.701,
        1.701,
        1.702,
        1.7
      ],
      "metadata": {},
      "peak_memory_mb": 1476.436512
    }
  },
  "{\"lhs\":\"bf16[131072,1024]\",\"rhs\":\"bf16[256,7168,1024]\",\"group_sizes\":{\"num_groups\":256,\"total_size\":131072},\"ragged_dot_dimension_numbers\":{\"dot_dimension_numbers\":[[[1],[2]],[[],[]]],\"lhs_ragged_dimensions\":[0],\"rhs_group_dimensions\":[0]},\"precision\":[\"DEFAULT\",\"DEFAULT\"],\"preferred_element_type\":\"bfloat16\",\"return_residuals\":false,\"activation\":null}": {
    "{\"tile_m\":512,\"tile_k\":1024,\"tile_n\":1024,\"input_buffer_count\":2,\"combine_scopes\":false}": {
      "compile_time_ms": 23403.807206000238,
      "lower_time_ms": 21582.128582999758,
      "evaluation_times_ms": [
        6.53,
        6.527,
        6.523,
        6.527,
        6.517
      ],
      "metadata": {},
      "peak_memory_mb": 5905.609728
    }
  },
  "{\"lhs\":\"bf16[131072,7168]\",\"rhs\":\"bf16[131072,1024]\",\"group_sizes\":{\"num_groups\":256,\"total_size\":131072},\"ragged_dot_dimension_numbers\":{\"dot_dimension_numbers\":[[[0],[0]],[[],[]]],\"lhs_ragged_dimensions\":[0],\"rhs_group_dimensions\":[]},\"precision\":[\"DEFAULT\",\"DEFAULT\"],\"preferred_element_type\":\"bfloat16\",\"return_residuals\":false,\"activation\":null}": {
    "{\"tile_m\":256,\"tile_k\":1792,\"tile_n\":1024,\"input_buffer_count\":4,\"combine_scopes\":false}": {
      "compile_time_ms": 10180.688585998723,
      "lower_time_ms": 64859.007575998476,
      "evaluation_times_ms": [
        5.198,
        5.196,
        5.197,
        5.194,
        5.194
      ],
      "metadata": {},
      "peak_memory_mb": 5905.61536
    }
  },
  "{\"lhs\":\"bf16[131072,7168]\",\"rhs\":\"bf16[256,1024,7168]\",\"group_sizes\":{\"num_groups\":256,\"total_size\":131072},\"ragged_dot_dimension_numbers\":{\"dot_dimension_numbers\":[[[1],[2]],[[],[]]],\"lhs_ragged_dimensions\":[0],\"rhs_group_dimensions\":[0]},\"precision\":[\"DEFAULT\",\"DEFAULT\"],\"preferred_element_type\":\"bfloat16\",\"return_residuals\":false,\"activation\":null}": {
    "{\"tile_m\":512,\"tile_k\":1024,\"tile_n\":1024,\"input_buffer_count\":2,\"combine_scopes\":false}": {
      "compile_time_ms": 1561.0056500008795,
      "lower_time_ms": 3285.4066500003682,
      "evaluation_times_ms": [
        6.405,
        6.397,
        6.402,
        6.4,
        6.397
      ],
      "metadata": {},
      "peak_memory_mb": 5905.609728
    }
  },
  "{\"lhs\":\"bf16[131072,1024]\",\"rhs\":\"bf16[131072,7168]\",\"group_sizes\":{\"num_groups\":256,\"total_size\":131072},\"ragged_dot_dimension_numbers\":{\"dot_dimension_numbers\":[[[0],[0]],[[],[]]],\"lhs_ragged_dimensions\":[0],\"rhs_group_dimensions\":[]},\"precision\":[\"DEFAULT\",\"DEFAULT\"],\"preferred_element_type\":\"bfloat16\",\"return_residuals\":false,\"activation\":null}": {
    "{\"tile_m\":256,\"tile_k\":512,\"tile_n\":3584,\"input_buffer_count\":4,\"combine_scopes\":false}": {
      "compile_time_ms": 1412.4609249993227,
      "lower_time_ms": 12107.256950001101,
      "evaluation_times_ms": [
        5.192,
        5.193,
        5.193,
        5.194,
        5.193
      ],
      "metadata": {},
      "peak_memory_mb": 5905.61536
    }
  },
  "{\"lhs\":\"bf16[131072,512]\",\"rhs\":\"bf16[256,7168,512]\",\"group_sizes\":{\"num_groups\":256,\"total_size\":131072},\"ragged_dot_dimension_numbers\":{\"dot_dimension_numbers\":[[[1],[2]],[[],[]]],\"lhs_ragged_dimensions\":[0],\"rhs_group_dimensions\":[0]},\"precision\":[\"DEFAULT\",\"DEFAULT\"],\"preferred_element_type\":\"bfloat16\",\"return_residuals\":false,\"activation\":null}": {
    "{\"tile_m\":256,\"tile_k\":512,\"tile_n\":7168,\"input_buffer_count\":2,\"combine_scopes\":false}": {
      "compile_time_ms": 28868.454345007194,
      "lower_time_ms": 19745.177008997416,
      "evaluation_times_ms": [
        2.46,
        2.462,
        2.461,
        2.461,
        2.46
      ],
      "metadata": {},
      "peak_memory_mb": 3892.34944
    }
  },
  "{\"lhs\":\"bf16[131072,7168]\",\"rhs\":\"bf16[131072,512]\",\"group_sizes\":{\"num_groups\":256,\"total_size\":131072},\"ragged_dot_dimension_numbers\":{\"dot_dimension_numbers\":[[[0],[0]],[[],[]]],\"lhs_ragged_dimensions\":[0],\"rhs_group_dimensions\":[]},\"precision\":[\"DEFAULT\",\"DEFAULT\"],\"preferred_element_type\":\"bfloat16\",\"return_residuals\":false,\"activation\":null}": {
    "{\"tile_m\":256,\"tile_k\":3584,\"tile_n\":512,\"input_buffer_count\":3,\"combine_scopes\":false}": {
      "compile_time_ms": 1523.0014380067587,
      "lower_time_ms": 2167.1282300085295,
      "evaluation_times_ms": [
        2.665,
        2.663,
        2.663,
        2.663,
        2.663
      ],
      "metadata": {},
      "peak_memory_mb": 3892.34944
    },
    "{\"tile_m\":256,\"tile_k\":3584,\"tile_n\":512,\"input_buffer_count\":4,\"combine_scopes\":false}": {
      "compile_time_ms": 39474.224981997395,
      "lower_time_ms": 16176.46928798058,
      "evaluation_times_ms": [
        2.651,
        2.652,
        2.652,
        2.649,
        2.651
      ],
      "metadata": {},
      "peak_memory_mb": 3892.34944
    }
  },
  "{\"lhs\":\"bf16[131072,7168]\",\"rhs\":\"bf16[256,512,7168]\",\"group_sizes\":{\"num_groups\":256,\"total_size\":131072},\"ragged_dot_dimension_numbers\":{\"dot_dimension_numbers\":[[[1],[2]],[[],[]]],\"lhs_ragged_dimensions\":[0],\"rhs_group_dimensions\":[0]},\"precision\":[\"DEFAULT\",\"DEFAULT\"],\"preferred_element_type\":\"bfloat16\",\"return_residuals\":false,\"activation\":null}": {
    "{\"tile_m\":256,\"tile_k\":7168,\"tile_n\":512,\"input_buffer_count\":3,\"combine_scopes\":false}": {
      "compile_time_ms": 42516.8538360158,
      "lower_time_ms": 34566.873421979835,
      "evaluation_times_ms": [
        2.418,
        2.418,
        2.42,
        2.419,
        2.417
      ],
      "metadata": {},
      "peak_memory_mb": 3892.34944
    }
  },
  "{\"lhs\":\"bf16[131072,512]\",\"rhs\":\"bf16[131072,7168]\",\"group_sizes\":{\"num_groups\":256,\"total_size\":131072},\"ragged_dot_dimension_numbers\":{\"dot_dimension_numbers\":[[[0],[0]],[[],[]]],\"lhs_ragged_dimensions\":[0],\"rhs_group_dimensions\":[]},\"precision\":[\"DEFAULT\",\"DEFAULT\"],\"preferred_element_type\":\"bfloat16\",\"return_residuals\":false,\"activation\":null}": {
    "{\"tile_m\":256,\"tile_k\":512,\"tile_n\":3584,\"input_buffer_count\":4,\"combine_scopes\":false}": {
      "compile_time_ms": 28874.726545999692,
      "lower_time_ms": 57594.3389160002,
      "evaluation_times_ms": [
        2.633,
        2.634,
        2.633,
        2.634,
        2.634
      ],
      "metadata": {},
      "peak_memory_mb": 3892.34944
    }
  },
  "{\"lhs\":\"bf16[262144,512]\",\"rhs\":\"bf16[256,7168,512]\",\"group_sizes\":{\"num_groups\":256,\"total_size\":262144},\"ragged_dot_dimension_numbers\":{\"dot_dimension_numbers\":[[[1],[2]],[[],[]]],\"lhs_ragged_dimensions\":[0],\"rhs_group_dimensions\":[0]},\"precision\":[\"DEFAULT\",\"DEFAULT\"],\"preferred_element_type\":\"bfloat16\",\"return_residuals\":false,\"activation\":null}": {
    "{\"tile_m\":256,\"tile_k\":512,\"tile_n\":7168,\"input_buffer_count\":2,\"combine_scopes\":false}": {
      "compile_time_ms": 21278.418780999345,
      "lower_time_ms": 15826.875917000507,
      "evaluation_times_ms": [
        3.701,
        3.703,
        3.704,
        3.701,
        3.704
      ],
      "metadata": {},
      "peak_memory_mb": 5905.633792
    }
  },
  "{\"lhs\":\"bf16[262144,7168]\",\"rhs\":\"bf16[262144,512]\",\"group_sizes\":{\"num_groups\":256,\"total_size\":262144},\"ragged_dot_dimension_numbers\":{\"dot_dimension_numbers\":[[[0],[0]],[[],[]]],\"lhs_ragged_dimensions\":[0],\"rhs_group_dimensions\":[]},\"precision\":[\"DEFAULT\",\"DEFAULT\"],\"preferred_element_type\":\"bfloat16\",\"return_residuals\":false,\"activation\":null}": {
    "{\"tile_m\":256,\"tile_k\":3584,\"tile_n\":512,\"input_buffer_count\":4,\"combine_scopes\":false}": {
      "compile_time_ms": 1520.3556799988291,
      "lower_time_ms": 2901.371822999863,
      "evaluation_times_ms": [
        4.084,
        4.089,
        4.089,
        4.089,
        4.088
      ],
      "metadata": {},
      "peak_memory_mb": 5905.633792
    }
  },
  "{\"lhs\":\"bf16[262144,7168]\",\"rhs\":\"bf16[256,256,7168]\",\"group_sizes\":{\"num_groups\":256,\"total_size\":262144},\"ragged_dot_dimension_numbers\":{\"dot_dimension_numbers\":[[[1],[2]],[[],[]]],\"lhs_ragged_dimensions\":[0],\"rhs_group_dimensions\":[0]},\"precision\":[\"DEFAULT\",\"DEFAULT\"],\"preferred_element_type\":\"bfloat16\",\"return_residuals\":false,\"activation\":null}": {
    "{\"tile_m\":512,\"tile_k\":7168,\"tile_n\":128,\"input_buffer_count\":4,\"combine_scopes\":false}": {
      "compile_time_ms": 23243.727607943583,
      "lower_time_ms": 18750.006362970453,
      "evaluation_times_ms": [
        4.329,
        4.331,
        4.329,
        4.329,
        4.33
      ],
      "metadata": {},
      "peak_memory_mb": 4831.873536
    }
  },
  "{\"lhs\":\"bf16[262144,256]\",\"rhs\":\"bf16[262144,7168]\",\"group_sizes\":{\"num_groups\":256,\"total_size\":262144},\"ragged_dot_dimension_numbers\":{\"dot_dimension_numbers\":[[[0],[0]],[[],[]]],\"lhs_ragged_dimensions\":[0],\"rhs_group_dimensions\":[]},\"precision\":[\"DEFAULT\",\"DEFAULT\"],\"preferred_element_type\":\"bfloat16\",\"return_residuals\":false,\"activation\":null}": {
    "{\"tile_m\":256,\"tile_k\":256,\"tile_n\":7168,\"input_buffer_count\":4,\"combine_scopes\":false}": {
      "compile_time_ms": 25988.252379000187,
      "lower_time_ms": 25763.274404976983,
      "evaluation_times_ms": [
        2.076,
        2.075,
        2.076,
        2.077,
        2.077
      ],
      "metadata": {},
      "peak_memory_mb": 4831.891968
    }
  },
  "{\"lhs\":\"bf16[262144,7168]\",\"rhs\":\"bf16[256,1024,7168]\",\"group_sizes\":{\"num_groups\":256,\"total_size\":262144},\"ragged_dot_dimension_numbers\":{\"dot_dimension_numbers\":[[[1],[2]],[[],[]]],\"lhs_ragged_dimensions\":[0],\"rhs_group_dimensions\":[0]},\"precision\":[\"DEFAULT\",\"DEFAULT\"],\"preferred_element_type\":\"bfloat16\",\"return_residuals\":false,\"activation\":null}": {
    "{\"tile_m\":512,\"tile_k\":1024,\"tile_n\":1024,\"input_buffer_count\":2,\"combine_scopes\":false}": {
      "compile_time_ms": 19450.84941695677,
      "lower_time_ms": 14592.717185034417,
      "evaluation_times_ms": [
        9.576,
        9.567,
        9.574,
        9.579,
        9.573
      ],
      "metadata": {},
      "peak_memory_mb": 8053.099008
    }
  },
  "{\"lhs\":\"bf16[262144,1024]\",\"rhs\":\"bf16[262144,7168]\",\"group_sizes\":{\"num_groups\":256,\"total_size\":262144},\"ragged_dot_dimension_numbers\":{\"dot_dimension_numbers\":[[[0],[0]],[[],[]]],\"lhs_ragged_dimensions\":[0],\"rhs_group_dimensions\":[]},\"precision\":[\"DEFAULT\",\"DEFAULT\"],\"preferred_element_type\":\"bfloat16\",\"return_residuals\":false,\"activation\":null}": {
    "{\"tile_m\":256,\"tile_k\":512,\"tile_n\":3584,\"input_buffer_count\":4,\"combine_scopes\":false}": {
      "compile_time_ms": 14560.811171017122,
      "lower_time_ms": 61009.84217697987,
      "evaluation_times_ms": [
        8.06,
        8.061,
        8.061,
        8.059,
        8.06
      ],
      "metadata": {},
      "peak_memory_mb": 8053.11744
    }
  },
  "{\"lhs\":\"bf16[262144,1024]\",\"rhs\":\"bf16[256,7168,1024]\",\"group_sizes\":{\"num_groups\":256,\"total_size\":262144},\"ragged_dot_dimension_numbers\":{\"dot_dimension_numbers\":[[[1],[2]],[[],[]]],\"lhs_ragged_dimensions\":[0],\"rhs_group_dimensions\":[0]},\"precision\":[\"DEFAULT\",\"DEFAULT\"],\"preferred_element_type\":\"bfloat16\",\"return_residuals\":false,\"activation\":null}": {
    "{\"tile_m\":512,\"tile_k\":1024,\"tile_n\":1024,\"input_buffer_count\":2,\"combine_scopes\":false}": {
      "compile_time_ms": 940.3650349704549,
      "lower_time_ms": 54517.167401034385,
      "evaluation_times_ms": [
        9.213,
        9.215,
        9.209,
        9.218,
        9.211
      ],
      "metadata": {},
      "peak_memory_mb": 8053.099008
    }
  },
  "{\"lhs\":\"bf16[262144,7168]\",\"rhs\":\"bf16[262144,1024]\",\"group_sizes\":{\"num_groups\":256,\"total_size\":262144},\"ragged_dot_dimension_numbers\":{\"dot_dimension_numbers\":[[[0],[0]],[[],[]]],\"lhs_ragged_dimensions\":[0],\"rhs_group_dimensions\":[]},\"precision\":[\"DEFAULT\",\"DEFAULT\"],\"preferred_element_type\":\"bfloat16\",\"return_residuals\":false,\"activation\":null}": {
    "{\"tile_m\":256,\"tile_k\":1792,\"tile_n\":1024,\"input_buffer_count\":4,\"combine_scopes\":false}": {
      "compile_time_ms": 1325.0336190103553,
      "lower_time_ms": 39172.649642045144,
      "evaluation_times_ms": [
        8.068,
        8.067,
        8.069,
        8.073,
        8.065
      ],
      "metadata": {},
      "peak_memory_mb": 8053.11744
    }
  },
  "{\"lhs\":\"bf16[262144,2048]\",\"rhs\":\"bf16[256,7168,2048]\",\"group_sizes\":{\"num_groups\":256,\"total_size\":262144},\"ragged_dot_dimension_numbers\":{\"dot_dimension_numbers\":[[[1],[2]],[[],[]]],\"lhs_ragged_dimensions\":[0],\"rhs_group_dimensions\":[0]},\"precision\":[\"DEFAULT\",\"DEFAULT\"],\"preferred_element_type\":\"bfloat16\",\"return_residuals\":false,\"activation\":null}": {
    "{\"tile_m\":256,\"tile_k\":2048,\"tile_n\":1792,\"input_buffer_count\":2,\"combine_scopes\":false}": {
      "compile_time_ms": 19707.132345996797,
      "lower_time_ms": 26898.738006013446,
      "evaluation_times_ms": [
        13.233,
        13.239,
        13.243,
        13.238,
        13.236
      ],
      "metadata": {},
      "peak_memory_mb": 12348.084736
    }
  },
  "{\"lhs\":\"bf16[262144,7168]\",\"rhs\":\"bf16[262144,2048]\",\"group_sizes\":{\"num_groups\":256,\"total_size\":262144},\"ragged_dot_dimension_numbers\":{\"dot_dimension_numbers\":[[[0],[0]],[[],[]]],\"lhs_ragged_dimensions\":[0],\"rhs_group_dimensions\":[]},\"precision\":[\"DEFAULT\",\"DEFAULT\"],\"preferred_element_type\":\"bfloat16\",\"return_residuals\":false,\"activation\":null}": {
    "{\"tile_m\":256,\"tile_k\":1024,\"tile_n\":2048,\"input_buffer_count\":4,\"combine_scopes\":false}": {
      "compile_time_ms": 15951.760284020565,
      "lower_time_ms": 72981.22051596874,
      "evaluation_times_ms": [
        15.624,
        15.618,
        15.621,
        15.626,
        15.625
      ],
      "metadata": {},
      "peak_memory_mb": 12348.084736
    }
  },
  "{\"lhs\":\"bf16[327680,2880]\",\"rhs\":\"bf16[128,2880,2880]\",\"group_sizes\":{\"num_groups\":128,\"total_size\":327680},\"ragged_dot_dimension_numbers\":{\"dot_dimension_numbers\":[[[1],[2]],[[],[]]],\"lhs_ragged_dimensions\":[0],\"rhs_group_dimensions\":[0]},\"precision\":[\"DEFAULT\",\"DEFAULT\"],\"preferred_element_type\":\"bfloat16\",\"return_residuals\":false,\"activation\":null}": {
    "{\"tile_m\":512,\"tile_k\":2944,\"tile_n\":1536,\"input_buffer_count\":2,\"combine_scopes\":false}": {
      "compile_time_ms": 1364.6728610037826,
      "lower_time_ms": 1334.2939279973507,
      "evaluation_times_ms": [
        15.717,
        15.715,
        15.702,
        15.71,
        15.697
      ],
      "metadata": {},
      "peak_memory_mb": 11927.56736
    }
  },
  "{\"lhs\":\"bf16[327680,2880]\",\"rhs\":\"bf16[327680,2880]\",\"group_sizes\":{\"num_groups\":128,\"total_size\":327680},\"ragged_dot_dimension_numbers\":{\"dot_dimension_numbers\":[[[0],[0]],[[],[]]],\"lhs_ragged_dimensions\":[0],\"rhs_group_dimensions\":[]},\"precision\":[\"DEFAULT\",\"DEFAULT\"],\"preferred_element_type\":\"bfloat16\",\"return_residuals\":false,\"activation\":null}": {
    "{\"tile_m\":256,\"tile_k\":2944,\"tile_n\":1024,\"input_buffer_count\":3,\"combine_scopes\":false}": {
      "compile_time_ms": 2011.0274189792108,
      "lower_time_ms": 1966.2557859846856,
      "evaluation_times_ms": [
        16.641,
        16.645,
        16.618,
        16.64,
        16.641
      ],
      "metadata": {},
      "peak_memory_mb": 9998.18752
    }
  },
  "{\"lhs\":\"bf16[393216,768]\",\"rhs\":\"bf16[128,2048,768]\",\"group_sizes\":{\"num_groups\":128,\"total_size\":393216},\"ragged_dot_dimension_numbers\":{\"dot_dimension_numbers\":[[[1],[2]],[[],[]]],\"lhs_ragged_dimensions\":[0],\"rhs_group_dimensions\":[0]},\"precision\":[\"DEFAULT\",\"DEFAULT\"],\"preferred_element_type\":\"bfloat16\",\"return_residuals\":false,\"activation\":null}": {
    "{\"tile_m\":1024,\"tile_k\":768,\"tile_n\":2048,\"input_buffer_count\":2,\"combine_scopes\":false}": {
      "compile_time_ms": 3859.3771460000426,
      "lower_time_ms": 5898.540391994175,
      "evaluation_times_ms": [
        1.949,
        1.949,
        1.949,
        1.95,
        1.95
      ],
      "metadata": {},
      "peak_memory_mb": 2617.394688
    }
  },
  "{\"lhs\":\"bf16[393216,2048]\",\"rhs\":\"bf16[393216,768]\",\"group_sizes\":{\"num_groups\":128,\"total_size\":393216},\"ragged_dot_dimension_numbers\":{\"dot_dimension_numbers\":[[[0],[0]],[[],[]]],\"lhs_ragged_dimensions\":[0],\"rhs_group_dimensions\":[]},\"precision\":[\"DEFAULT\",\"DEFAULT\"],\"preferred_element_type\":\"bfloat16\",\"return_residuals\":false,\"activation\":null}": {
    "{\"tile_m\":512,\"tile_k\":2048,\"tile_n\":768,\"input_buffer_count\":4,\"combine_scopes\":false}": {
      "compile_time_ms": 8029.2264580202755,
      "lower_time_ms": 38846.70014498988,
      "evaluation_times_ms": [
        2.058,
        2.055,
        2.057,
        2.058,
        2.058
      ],
      "metadata": {},
      "peak_memory_mb": 2617.396736
    }
  },
  "{\"lhs\":\"bf16[393216,2048]\",\"rhs\":\"bf16[128,768,2048]\",\"group_sizes\":{\"num_groups\":128,\"total_size\":393216},\"ragged_dot_dimension_numbers\":{\"dot_dimension_numbers\":[[[1],[2]],[[],[]]],\"lhs_ragged_dimensions\":[0],\"rhs_group_dimensions\":[0]},\"precision\":[\"DEFAULT\",\"DEFAULT\"],\"preferred_element_type\":\"bfloat16\",\"return_residuals\":false,\"activation\":null}": {
    "{\"tile_m\":512,\"tile_k\":2048,\"tile_n\":768,\"input_buffer_count\":2,\"combine_scopes\":false}": {
      "compile_time_ms": 8277.573652012506,
      "lower_time_ms": 5510.896566003794,
      "evaluation_times_ms": [
        1.925,
        1.925,
        1.924,
        1.925,
        1.924
      ],
      "metadata": {},
      "peak_memory_mb": 2617.396736
    }
  },
  "{\"lhs\":\"bf16[393216,768]\",\"rhs\":\"bf16[393216,2048]\",\"group_sizes\":{\"num_groups\":128,\"total_size\":393216},\"ragged_dot_dimension_numbers\":{\"dot_dimension_numbers\":[[[0],[0]],[[],[]]],\"lhs_ragged_dimensions\":[0],\"rhs_group_dimensions\":[]},\"precision\":[\"DEFAULT\",\"DEFAULT\"],\"preferred_element_type\":\"bfloat16\",\"return_residuals\":false,\"activation\":null}": {
    "{\"tile_m\":512,\"tile_k\":768,\"tile_n\":2048,\"input_buffer_count\":4,\"combine_scopes\":false}": {
      "compile_time_ms": 2457.19032199122,
      "lower_time_ms": 30640.685785008827,
      "evaluation_times_ms": [
        2.052,
        2.053,
        2.053,
        2.053,
        2.055
      ],
      "metadata": {},
      "peak_memory_mb": 2617.396736
    }
  },
  "{\"lhs\":\"bf16[524288,1536]\",\"rhs\":\"bf16[128,4096,1536]\",\"group_sizes\":{\"num_groups\":128,\"total_size\":524288},\"ragged_dot_dimension_numbers\":{\"dot_dimension_numbers\":[[[1],[2]],[[],[]]],\"lhs_ragged_dimensions\":[0],\"rhs_group_dimensions\":[0]},\"precision\":[\"DEFAULT\",\"DEFAULT\"],\"preferred_element_type\":\"bfloat16\",\"return_residuals\":false,\"activation\":null}": {
    "{\"tile_m\":1024,\"tile_k\":1536,\"tile_n\":1024,\"input_buffer_count\":2,\"combine_scopes\":false}": {
      "compile_time_ms": 8654.910220997408,
      "lower_time_ms": 15255.478043982293,
      "evaluation_times_ms": [
        9.472,
        9.471,
        9.471,
        9.471,
        9.471
      ],
      "metadata": {},
      "peak_memory_mb": 7516.34176
    }
  },
  "{\"lhs\":\"bf16[524288,4096]\",\"rhs\":\"bf16[524288,1536]\",\"group_sizes\":{\"num_groups\":128,\"total_size\":524288},\"ragged_dot_dimension_numbers\":{\"dot_dimension_numbers\":[[[0],[0]],[[],[]]],\"lhs_ragged_dimensions\":[0],\"rhs_group_dimensions\":[]},\"precision\":[\"DEFAULT\",\"DEFAULT\"],\"preferred_element_type\":\"bfloat16\",\"return_residuals\":false,\"activation\":null}": {
    "{\"tile_m\":256,\"tile_k\":2048,\"tile_n\":1536,\"input_buffer_count\":2,\"combine_scopes\":false}": {
      "compile_time_ms": 15618.018765002489,
      "lower_time_ms": 46697.45017896639,
      "evaluation_times_ms": [
        9.667,
        9.675,
        9.668,
        9.662,
        9.666
      ],
      "metadata": {},
      "peak_memory_mb": 7516.347904
    }
  },
  "{\"lhs\":\"bf16[524288,4096]\",\"rhs\":\"bf16[128,1536,4096]\",\"group_sizes\":{\"num_groups\":128,\"total_size\":524288},\"ragged_dot_dimension_numbers\":{\"dot_dimension_numbers\":[[[1],[2]],[[],[]]],\"lhs_ragged_dimensions\":[0],\"rhs_group_dimensions\":[0]},\"precision\":[\"DEFAULT\",\"DEFAULT\"],\"preferred_element_type\":\"bfloat16\",\"return_residuals\":false,\"activation\":null}": {
    "{\"tile_m\":1024,\"tile_k\":1024,\"tile_n\":1536,\"input_buffer_count\":2,\"combine_scopes\":false}": {
      "compile_time_ms": 13519.153469998855,
      "lower_time_ms": 14009.14963503601,
      "evaluation_times_ms": [
        9.79,
        9.79,
        9.788,
        9.791,
        9.789
      ],
      "metadata": {},
      "peak_memory_mb": 7516.34176
    }
  },
  "{\"lhs\":\"bf16[524288,1536]\",\"rhs\":\"bf16[524288,4096]\",\"group_sizes\":{\"num_groups\":128,\"total_size\":524288},\"ragged_dot_dimension_numbers\":{\"dot_dimension_numbers\":[[[0],[0]],[[],[]]],\"lhs_ragged_dimensions\":[0],\"rhs_group_dimensions\":[]},\"precision\":[\"DEFAULT\",\"DEFAULT\"],\"preferred_element_type\":\"bfloat16\",\"return_residuals\":false,\"activation\":null}": {
    "{\"tile_m\":256,\"tile_k\":768,\"tile_n\":4096,\"input_buffer_count\":3,\"combine_scopes\":false}": {
      "compile_time_ms": 19887.49589305371,
      "lower_time_ms": 20457.512700988445,
      "evaluation_times_ms": [
        9.593,
        9.592,
        9.592,
        9.595,
        9.593
      ],
      "metadata": {},
      "peak_memory_mb": 7516.347904
    }
  },
  "{\"lhs\":\"bf16[524288,2048]\",\"rhs\":\"bf16[256,7168,2048]\",\"group_sizes\":{\"num_groups\":256,\"total_size\":524288},\"ragged_dot_dimension_numbers\":{\"dot_dimension_numbers\":[[[1],[2]],[[],[]]],\"lhs_ragged_dimensions\":[0],\"rhs_group_dimensions\":[0]},\"precision\":[\"DEFAULT\",\"DEFAULT\"],\"preferred_element_type\":\"bfloat16\",\"return_residuals\":false,\"activation\":null}": {
    "{\"tile_m\":512,\"tile_k\":2048,\"tile_n\":1024,\"input_buffer_count\":2,\"combine_scopes\":false}": {
      "compile_time_ms": 5654.107067035511,
      "lower_time_ms": 11587.249652016908,
      "evaluation_times_ms": [
        23.482,
        23.489,
        23.486,
        23.479,
        23.485
      ],
      "metadata": {},
      "peak_memory_mb": 17179.922944
    }
  },
  "{\"lhs\":\"bf16[524288,7168]\",\"rhs\":\"bf16[524288,2048]\",\"group_sizes\":{\"num_groups\":256,\"total_size\":524288},\"ragged_dot_dimension_numbers\":{\"dot_dimension_numbers\":[[[0],[0]],[[],[]]],\"lhs_ragged_dimensions\":[0],\"rhs_group_dimensions\":[]},\"precision\":[\"DEFAULT\",\"DEFAULT\"],\"preferred_element_type\":\"bfloat16\",\"return_residuals\":false,\"activation\":null}": {
    "{\"tile_m\":512,\"tile_k\":1024,\"tile_n\":2048,\"input_buffer_count\":4,\"combine_scopes\":false}": {
      "compile_time_ms": 70632.8011200003,
      "lower_time_ms": 71754.91673000033,
      "evaluation_times_ms": [
        25.903,
        25.905,
        25.906,
        25.903,
        25.905
      ],
      "metadata": {},
      "peak_memory_mb": 17179.922944
    }
  },
  "{\"lhs\":\"bf16[262144,1536]\",\"rhs\":\"bf16[128,4096,1536]\",\"group_sizes\":{\"num_groups\":128,\"total_size\":262144},\"ragged_dot_dimension_numbers\":{\"dot_dimension_numbers\":[[[1],[2]],[[],[]]],\"lhs_ragged_dimensions\":[0],\"rhs_group_dimensions\":[0]},\"precision\":[\"DEFAULT\",\"DEFAULT\"],\"preferred_element_type\":\"bfloat16\",\"return_residuals\":false,\"activation\":null}": {
    "{\"tile_m\":512,\"tile_k\":1536,\"tile_n\":1024,\"input_buffer_count\":2,\"combine_scopes\":false}": {
      "compile_time_ms": 8185.16423499932,
      "lower_time_ms": 19079.176438001014,
      "evaluation_times_ms": [
        5.496,
        5.502,
        5.501,
        5.501,
        5.499
      ],
      "metadata": {},
      "peak_memory_mb": 4563.551744
    }
  },
  "{\"lhs\":\"bf16[262144,4096]\",\"rhs\":\"bf16[262144,1536]\",\"group_sizes\":{\"num_groups\":128,\"total_size\":262144},\"ragged_dot_dimension_numbers\":{\"dot_dimension_numbers\":[[[0],[0]],[[],[]]],\"lhs_ragged_dimensions\":[0],\"rhs_group_dimensions\":[]},\"precision\":[\"DEFAULT\",\"DEFAULT\"],\"preferred_element_type\":\"bfloat16\",\"return_residuals\":false,\"activation\":null}": {
    "{\"tile_m\":256,\"tile_k\":2048,\"tile_n\":1536,\"input_buffer_count\":4,\"combine_scopes\":false}": {
      "compile_time_ms": 1795.3768789993774,
      "lower_time_ms": 1870.4496320006,
      "evaluation_times_ms": [
        5.335,
        5.335,
        5.343,
        5.34,
        5.339
      ],
      "metadata": {},
      "peak_memory_mb": 4563.553792
    }
  },
  "{\"lhs\":\"bf16[262144,4096]\",\"rhs\":\"bf16[128,1536,4096]\",\"group_sizes\":{\"num_groups\":128,\"total_size\":262144},\"ragged_dot_dimension_numbers\":{\"dot_dimension_numbers\":[[[1],[2]],[[],[]]],\"lhs_ragged_dimensions\":[0],\"rhs_group_dimensions\":[0]},\"precision\":[\"DEFAULT\",\"DEFAULT\"],\"preferred_element_type\":\"bfloat16\",\"return_residuals\":false,\"activation\":null}": {
    "{\"tile_m\":1024,\"tile_k\":1024,\"tile_n\":1536,\"input_buffer_count\":2,\"combine_scopes\":false}": {
      "compile_time_ms": 14296.17252800017,
      "lower_time_ms": 14785.700720000023,
      "evaluation_times_ms": [
        5.91,
        5.911,
        5.911,
        5.909,
        5.91
      ],
      "metadata": {},
      "peak_memory_mb": 4563.55072
    }
  },
  "{\"lhs\":\"bf16[262144,1536]\",\"rhs\":\"bf16[262144,4096]\",\"group_sizes\":{\"num_groups\":128,\"total_size\":262144},\"ragged_dot_dimension_numbers\":{\"dot_dimension_numbers\":[[[0],[0]],[[],[]]],\"lhs_ragged_dimensions\":[0],\"rhs_group_dimensions\":[]},\"precision\":[\"DEFAULT\",\"DEFAULT\"],\"preferred_element_type\":\"bfloat16\",\"return_residuals\":false,\"activation\":null}": {
    "{\"tile_m\":256,\"tile_k\":768,\"tile_n\":4096,\"input_buffer_count\":3,\"combine_scopes\":false}": {
      "compile_time_ms": 2238.9170120004565,
      "lower_time_ms": 16461.67213499939,
      "evaluation_times_ms": [
        5.302,
        5.295,
        5.299,
        5.3,
        5.299
      ],
      "metadata": {},
      "peak_memory_mb": 4563.553792
    }
  },
  "{\"lhs\":\"bf16[131072,2048]\",\"rhs\":\"bf16[128,7168,2048]\",\"group_sizes\":{\"num_groups\":128,\"total_size\":131072},\"ragged_dot_dimension_numbers\":{\"dot_dimension_numbers\":[[[1],[2]],[[],[]]],\"lhs_ragged_dimensions\":[0],\"rhs_group_dimensions\":[0]},\"precision\":[\"DEFAULT\",\"DEFAULT\"],\"preferred_element_type\":\"bfloat16\",\"return_residuals\":false,\"activation\":null}": {
    "{\"tile_m\":512,\"tile_k\":2048,\"tile_n\":1024,\"input_buffer_count\":2,\"combine_scopes\":false}": {
      "compile_time_ms": 6370.588409999982,
      "lower_time_ms": 14800.399828999616,
      "evaluation_times_ms": [
        7.131,
        7.134,
        7.132,
        7.132,
        7.134
      ],
      "metadata": {},
      "peak_memory_mb": 6174.163456
    }
  },
  "{\"lhs\":\"bf16[131072,7168]\",\"rhs\":\"bf16[131072,2048]\",\"group_sizes\":{\"num_groups\":128,\"total_size\":131072},\"ragged_dot_dimension_numbers\":{\"dot_dimension_numbers\":[[[0],[0]],[[],[]]],\"lhs_ragged_dimensions\":[0],\"rhs_group_dimensions\":[]},\"precision\":[\"DEFAULT\",\"DEFAULT\"],\"preferred_element_type\":\"bfloat16\",\"return_residuals\":false,\"activation\":null}": {
    "{\"tile_m\":256,\"tile_k\":1024,\"tile_n\":2048,\"input_buffer_count\":4,\"combine_scopes\":false}": {
      "compile_time_ms": 5997.19527400066,
      "lower_time_ms": 62539.44519400011,
      "evaluation_times_ms": [
        7.82,
        7.82,
        7.82,
        7.824,
        7.823
      ],
      "metadata": {},
      "peak_memory_mb": 6174.16448
    }
  },
  "{\"lhs\":\"bf16[131072,768]\",\"rhs\":\"bf16[128,2048,768]\",\"group_sizes\":{\"num_groups\":128,\"total_size\":131072},\"ragged_dot_dimension_numbers\":{\"dot_dimension_numbers\":[[[1],[2]],[[],[]]],\"lhs_ragged_dimensions\":[0],\"rhs_group_dimensions\":[0]},\"precision\":[\"DEFAULT\",\"DEFAULT\"],\"preferred_element_type\":\"bfloat16\",\"return_residuals\":false,\"activation\":null}": {
    "{\"tile_m\":512,\"tile_k\":1024,\"tile_n\":768,\"input_buffer_count\":2,\"combine_scopes\":false}": {
      "compile_time_ms": 1425.7759299998725,
      "lower_time_ms": 3872.0219130009355,
      "evaluation_times_ms": [
        1.624,
        1.623,
        1.628,
        1.625,
        1.625
      ],
      "metadata": {},
      "peak_memory_mb": 1140.998656
    }
  },
  "{\"lhs\":\"bf16[131072,2048]\",\"rhs\":\"bf16[131072,768]\",\"group_sizes\":{\"num_groups\":128,\"total_size\":131072},\"ragged_dot_dimension_numbers\":{\"dot_dimension_numbers\":[[[0],[0]],[[],[]]],\"lhs_ragged_dimensions\":[0],\"rhs_group_dimensions\":[]},\"precision\":[\"DEFAULT\",\"DEFAULT\"],\"preferred_element_type\":\"bfloat16\",\"return_residuals\":false,\"activation\":null}": {
    "{\"tile_m\":256,\"tile_k\":2048,\"tile_n\":768,\"input_buffer_count\":4,\"combine_scopes\":false}": {
      "compile_time_ms": 12560.12594800086,
      "lower_time_ms": 30463.234654998814,
      "evaluation_times_ms": [
        0.961,
        0.963,
        0.964,
        0.964,
        0.962
      ],
      "metadata": {},
      "peak_memory_mb": 1140.99968
    }
  },
  "{\"lhs\":\"bf16[131072,1536]\",\"rhs\":\"bf16[128,4096,1536]\",\"group_sizes\":{\"num_groups\":128,\"total_size\":131072},\"ragged_dot_dimension_numbers\":{\"dot_dimension_numbers\":[[[1],[2]],[[],[]]],\"lhs_ragged_dimensions\":[0],\"rhs_group_dimensions\":[0]},\"precision\":[\"DEFAULT\",\"DEFAULT\"],\"preferred_element_type\":\"bfloat16\",\"return_residuals\":false,\"activation\":null}": {
    "{\"tile_m\":512,\"tile_k\":1536,\"tile_n\":1024,\"input_buffer_count\":2,\"combine_scopes\":false}": {
      "compile_time_ms": 8369.11788999896,
      "lower_time_ms": 18449.393827000677,
      "evaluation_times_ms": [
        3.385,
        3.379,
        3.379,
        3.382,
        3.383
      ],
      "metadata": {},
      "peak_memory_mb": 3087.155712
    }
  },
  "{\"lhs\":\"bf16[131072,4096]\",\"rhs\":\"bf16[131072,1536]\",\"group_sizes\":{\"num_groups\":128,\"total_size\":131072},\"ragged_dot_dimension_numbers\":{\"dot_dimension_numbers\":[[[0],[0]],[[],[]]],\"lhs_ragged_dimensions\":[0],\"rhs_group_dimensions\":[]},\"precision\":[\"DEFAULT\",\"DEFAULT\"],\"preferred_element_type\":\"bfloat16\",\"return_residuals\":false,\"activation\":null}": {
    "{\"tile_m\":256,\"tile_k\":2048,\"tile_n\":1536,\"input_buffer_count\":4,\"combine_scopes\":false}": {
      "compile_time_ms": 25316.324147977866,
      "lower_time_ms": 42269.349591981154,
      "evaluation_times_ms": [
        3.148,
        3.147,
        3.149,
        3.149,
        3.148
      ],
      "metadata": {},
      "peak_memory_mb": 3087.156736
    }
  },
  "{\"lhs\":\"bf16[131072,4096]\",\"rhs\":\"bf16[128,1536,4096]\",\"group_sizes\":{\"num_groups\":128,\"total_size\":131072},\"ragged_dot_dimension_numbers\":{\"dot_dimension_numbers\":[[[1],[2]],[[],[]]],\"lhs_ragged_dimensions\":[0],\"rhs_group_dimensions\":[0]},\"precision\":[\"DEFAULT\",\"DEFAULT\"],\"preferred_element_type\":\"bfloat16\",\"return_residuals\":false,\"activation\":null}": {
    "{\"tile_m\":512,\"tile_k\":1024,\"tile_n\":1536,\"input_buffer_count\":2,\"combine_scopes\":false}": {
      "compile_time_ms": 14124.617147026584,
      "lower_time_ms": 22405.44331201818,
      "evaluation_times_ms": [
        3.574,
        3.574,
        3.57,
        3.573,
        3.574
      ],
      "metadata": {},
      "peak_memory_mb": 3087.155712
    }
  },
  "{\"lhs\":\"bf16[131072,1536]\",\"rhs\":\"bf16[131072,4096]\",\"group_sizes\":{\"num_groups\":128,\"total_size\":131072},\"ragged_dot_dimension_numbers\":{\"dot_dimension_numbers\":[[[0],[0]],[[],[]]],\"lhs_ragged_dimensions\":[0],\"rhs_group_dimensions\":[]},\"precision\":[\"DEFAULT\",\"DEFAULT\"],\"preferred_element_type\":\"bfloat16\",\"return_residuals\":false,\"activation\":null}": {
    "{\"tile_m\":256,\"tile_k\":768,\"tile_n\":4096,\"input_buffer_count\":3,\"combine_scopes\":false}": {
      "compile_time_ms": 1709.2859449912794,
      "lower_time_ms": 1750.6870920187794,
      "evaluation_times_ms": [
        3.126,
        3.125,
        3.125,
        3.127,
        3.127
      ],
      "metadata": {},
      "peak_memory_mb": 3087.156736
    }
  },
  "{\"lhs\":\"bf16[131072,2048]\",\"rhs\":\"bf16[256,7168,2048]\",\"group_sizes\":{\"num_groups\":256,\"total_size\":131072},\"ragged_dot_dimension_numbers\":{\"dot_dimension_numbers\":[[[1],[2]],[[],[]]],\"lhs_ragged_dimensions\":[0],\"rhs_group_dimensions\":[0]},\"precision\":[\"DEFAULT\",\"DEFAULT\"],\"preferred_element_type\":\"bfloat16\",\"return_residuals\":false,\"activation\":null}": {
    "{\"tile_m\":512,\"tile_k\":2048,\"tile_n\":1792,\"input_buffer_count\":2,\"combine_scopes\":false}": {
      "compile_time_ms": 19079.072911990806,
      "lower_time_ms": 14489.552564977203,
      "evaluation_times_ms": [
        8.715,
        8.714,
        8.714,
        8.714,
        8.715
      ],
      "metadata": {},
      "peak_memory_mb": 9932.141568
    }
  },
  "{\"lhs\":\"bf16[131072,7168]\",\"rhs\":\"bf16[131072,2048]\",\"group_sizes\":{\"num_groups\":256,\"total_size\":131072},\"ragged_dot_dimension_numbers\":{\"dot_dimension_numbers\":[[[0],[0]],[[],[]]],\"lhs_ragged_dimensions\":[0],\"rhs_group_dimensions\":[]},\"precision\":[\"DEFAULT\",\"DEFAULT\"],\"preferred_element_type\":\"bfloat16\",\"return_residuals\":false,\"activation\":null}": {
    "{\"tile_m\":256,\"tile_k\":1024,\"tile_n\":2048,\"input_buffer_count\":3,\"combine_scopes\":false}": {
      "compile_time_ms": 21243.738994002342,
      "lower_time_ms": 97698.10284301639,
      "evaluation_times_ms": [
        10.119,
        10.121,
        10.121,
        10.122,
        10.12
      ],
      "metadata": {},
      "peak_memory_mb": 9932.1472
    }
  },
  "{\"lhs\":\"bf16[65536,2048]\",\"rhs\":\"bf16[256,7168,2048]\",\"group_sizes\":{\"num_groups\":256,\"total_size\":65536},\"ragged_dot_dimension_numbers\":{\"dot_dimension_numbers\":[[[1],[2]],[[],[]]],\"lhs_ragged_dimensions\":[0],\"rhs_group_dimensions\":[0]},\"precision\":[\"DEFAULT\",\"DEFAULT\"],\"preferred_element_type\":\"bfloat16\",\"return_residuals\":false,\"activation\":null}": {
    "{\"tile_m\":256,\"tile_k\":2048,\"tile_n\":2048,\"input_buffer_count\":2,\"combine_scopes\":false}": {
      "compile_time_ms": 20827.31261299341,
      "lower_time_ms": 18592.266621999443,
      "evaluation_times_ms": [
        6.358,
        6.356,
        6.365,
        6.366,
        6.365
      ],
      "metadata": {},
      "peak_memory_mb": 8724.182016
    }
  },
  "{\"lhs\":\"bf16[65536,7168]\",\"rhs\":\"bf16[65536,2048]\",\"group_sizes\":{\"num_groups\":256,\"total_size\":65536},\"ragged_dot_dimension_numbers\":{\"dot_dimension_numbers\":[[[0],[0]],[[],[]]],\"lhs_ragged_dimensions\":[0],\"rhs_group_dimensions\":[]},\"precision\":[\"DEFAULT\",\"DEFAULT\"],\"preferred_element_type\":\"bfloat16\",\"return_residuals\":false,\"activation\":null}": {
    "{\"tile_m\":256,\"tile_k\":1024,\"tile_n\":2048,\"input_buffer_count\":4,\"combine_scopes\":false}": {
      "compile_time_ms": 1183.567261992721,
      "lower_time_ms": 16381.493624008726,
      "evaluation_times_ms": [
        7.26,
        7.261,
        7.262,
        7.258,
        7.257
      ],
      "metadata": {},
      "peak_memory_mb": 8724.182016
    }
  },
  "{\"lhs\":\"bf16[262144,7168]\",\"rhs\":\"bf16[256,512,7168]\",\"group_sizes\":{\"num_groups\":256,\"total_size\":262144},\"ragged_dot_dimension_numbers\":{\"dot_dimension_numbers\":[[[1],[2]],[[],[]]],\"lhs_ragged_dimensions\":[0],\"rhs_group_dimensions\":[0]},\"precision\":[\"DEFAULT\",\"DEFAULT\"],\"preferred_element_type\":\"bfloat16\",\"return_residuals\":false,\"activation\":null}": {
    "{\"tile_m\":256,\"tile_k\":7168,\"tile_n\":512,\"input_buffer_count\":2,\"combine_scopes\":false}": {
      "compile_time_ms": 957.6774770002885,
      "lower_time_ms": 30019.2901370001,
      "evaluation_times_ms": [
        3.323,
        3.319,
        3.323,
        3.32,
        3.322
      ],
      "metadata": {},
      "peak_memory_mb": 5905.633792
    }
  },
  "{\"lhs\":\"bf16[262144,512]\",\"rhs\":\"bf16[262144,7168]\",\"group_sizes\":{\"num_groups\":256,\"total_size\":262144},\"ragged_dot_dimension_numbers\":{\"dot_dimension_numbers\":[[[0],[0]],[[],[]]],\"lhs_ragged_dimensions\":[0],\"rhs_group_dimensions\":[]},\"precision\":[\"DEFAULT\",\"DEFAULT\"],\"preferred_element_type\":\"bfloat16\",\"return_residuals\":false,\"activation\":null}": {
    "{\"tile_m\":256,\"tile_k\":512,\"tile_n\":3584,\"input_buffer_count\":4,\"combine_scopes\":false}": {
      "compile_time_ms": 6845.846145999531,
      "lower_time_ms": 44711.31446700019,
      "evaluation_times_ms": [
        4.048,
        4.048,
        4.048,
        4.047,
        4.047
      ],
      "metadata": {},
      "peak_memory_mb": 5905.633792
    }
  },
  "{\"lhs\":\"bf16[262144,7168]\",\"rhs\":\"bf16[256,7168,2048]\",\"group_sizes\":{\"num_groups\":256,\"total_size\":262144},\"ragged_dot_dimension_numbers\":{\"dot_dimension_numbers\":[[[1],[1]],[[],[]]],\"lhs_ragged_dimensions\":[0],\"rhs_group_dimensions\":[0]},\"precision\":[\"DEFAULT\",\"DEFAULT\"],\"preferred_element_type\":null,\"return_residuals\":false,\"activation\":null}": {
    "{\"tile_m\":128,\"tile_k\":7168,\"tile_n\":1024,\"input_buffer_count\":2,\"combine_scopes\":false}": {
      "compile_time_ms": 5454.234956996515,
      "lower_time_ms": 29340.2142690029,
      "evaluation_times_ms": [
        12.395,
        12.401,
        12.4,
        12.405,
        12.402
      ],
      "metadata": {},
      "peak_memory_mb": 12348.105216
    }
  },
  "{\"lhs\":\"bf16[262144,7168]\",\"rhs\":\"bf16[256,7168,2048]\",\"group_sizes\":{\"num_groups\":256,\"total_size\":262144},\"ragged_dot_dimension_numbers\":{\"dot_dimension_numbers\":[[[1],[1]],[[],[]]],\"lhs_ragged_dimensions\":[0],\"rhs_group_dimensions\":[0]},\"precision\":[\"DEFAULT\",\"DEFAULT\"],\"preferred_element_type\":null,\"return_residuals\":true,\"activation\":null}": {
    "{\"tile_m\":128,\"tile_k\":7168,\"tile_n\":1024,\"input_buffer_count\":2,\"combine_scopes\":false}": {
      "compile_time_ms": 4472.078413004056,
      "lower_time_ms": 3143.4333359939046,
      "evaluation_times_ms": [
        13.087,
        13.09,
        13.086,
        13.092,
        13.087
      ],
      "metadata": {},
      "peak_memory_mb": 13421.847072
    }
  },
  "{\"lhs\":\"bf16[327680,2880]\",\"rhs\":\"bf16[128,2880,2880]\",\"group_sizes\":{\"num_groups\":128,\"total_size\":327680},\"ragged_dot_dimension_numbers\":{\"dot_dimension_numbers\":[[[1],[1]],[[],[]]],\"lhs_ragged_dimensions\":[0],\"rhs_group_dimensions\":[0]},\"precision\":[\"DEFAULT\",\"DEFAULT\"],\"preferred_element_type\":null,\"return_residuals\":false,\"activation\":null}": {
    "{\"tile_m\":512,\"tile_k\":2944,\"tile_n\":1536,\"input_buffer_count\":2,\"combine_scopes\":false}": {
      "compile_time_ms": 1331.0609420295805,
      "lower_time_ms": 1252.5529330014251,
      "evaluation_times_ms": [
        15.59,
        15.599,
        15.579,
        15.591,
        15.579
      ],
      "metadata": {},
      "peak_memory_mb": 11927.56736
    }
  },
  "{\"lhs\":\"bf16[327680,2880]\",\"rhs\":\"bf16[128,2880,2880]\",\"group_sizes\":{\"num_groups\":128,\"total_size\":327680},\"ragged_dot_dimension_numbers\":{\"dot_dimension_numbers\":[[[1],[1]],[[],[]]],\"lhs_ragged_dimensions\":[0],\"rhs_group_dimensions\":[0]},\"precision\":[\"DEFAULT\",\"DEFAULT\"],\"preferred_element_type\":null,\"return_residuals\":true,\"activation\":null}": {
    "{\"tile_m\":512,\"tile_k\":2944,\"tile_n\":1536,\"input_buffer_count\":2,\"combine_scopes\":false}": {
      "compile_time_ms": 2921.736627991777,
      "lower_time_ms": 1902.185313985683,
      "evaluation_times_ms": [
        16.751,
        16.756,
        16.744,
        16.742,
        16.755
      ],
      "metadata": {},
      "peak_memory_mb": 13815.004192
    }
  },
  "{\"lhs\":\"bf16[393216,2048]\",\"rhs\":\"bf16[128,2048,768]\",\"group_sizes\":{\"num_groups\":128,\"total_size\":393216},\"ragged_dot_dimension_numbers\":{\"dot_dimension_numbers\":[[[1],[1]],[[],[]]],\"lhs_ragged_dimensions\":[0],\"rhs_group_dimensions\":[0]},\"precision\":[\"DEFAULT\",\"DEFAULT\"],\"preferred_element_type\":null,\"return_residuals\":false,\"activation\":null}": {
    "{\"tile_m\":512,\"tile_k\":2048,\"tile_n\":768,\"input_buffer_count\":2,\"combine_scopes\":false}": {
      "compile_time_ms": 6630.521426006453,
      "lower_time_ms": 20730.0855939975,
      "evaluation_times_ms": [
        1.89,
        1.891,
        1.893,
        1.889,
        1.889
      ],
      "metadata": {},
      "peak_memory_mb": 2617.396736
    }
  },
  "{\"lhs\":\"bf16[393216,2048]\",\"rhs\":\"bf16[128,2048,768]\",\"group_sizes\":{\"num_groups\":128,\"total_size\":393216},\"ragged_dot_dimension_numbers\":{\"dot_dimension_numbers\":[[[1],[1]],[[],[]]],\"lhs_ragged_dimensions\":[0],\"rhs_group_dimensions\":[0]},\"precision\":[\"DEFAULT\",\"DEFAULT\"],\"preferred_element_type\":null,\"return_residuals\":true,\"activation\":null}": {
    "{\"tile_m\":512,\"tile_k\":2048,\"tile_n\":768,\"input_buffer_count\":2,\"combine_scopes\":false}": {
      "compile_time_ms": 2401.818337995792,
      "lower_time_ms": 10872.337886015885,
      "evaluation_times_ms": [
        2.271,
        2.269,
        2.268,
        2.266,
        2.267
      ],
      "metadata": {},
      "peak_memory_mb": 3221.376544
    }
  },
  "{\"lhs\":\"bf16[393216,768]\",\"rhs\":\"bf16[128,768,2048]\",\"group_sizes\":{\"num_groups\":128,\"total_size\":393216},\"ragged_dot_dimension_numbers\":{\"dot_dimension_numbers\":[[[1],[1]],[[],[]]],\"lhs_ragged_dimensions\":[0],\"rhs_group_dimensions\":[0]},\"precision\":[\"DEFAULT\",\"DEFAULT\"],\"preferred_element_type\":null,\"return_residuals\":false,\"activation\":null}": {
    "{\"tile_m\":1024,\"tile_k\":768,\"tile_n\":2048,\"input_buffer_count\":2,\"combine_scopes\":false}": {
      "compile_time_ms": 12344.784015003825,
      "lower_time_ms": 20732.754783006385,
      "evaluation_times_ms": [
        1.932,
        1.932,
        1.931,
        1.933,
        1.932
      ],
      "metadata": {},
      "peak_memory_mb": 2617.394688
    }
  },
  "{\"lhs\":\"bf16[393216,768]\",\"rhs\":\"bf16[128,768,2048]\",\"group_sizes\":{\"num_groups\":128,\"total_size\":393216},\"ragged_dot_dimension_numbers\":{\"dot_dimension_numbers\":[[[1],[1]],[[],[]]],\"lhs_ragged_dimensions\":[0],\"rhs_group_dimensions\":[0]},\"precision\":[\"DEFAULT\",\"DEFAULT\"],\"preferred_element_type\":null,\"return_residuals\":true,\"activation\":null}": {
    "{\"tile_m\":1024,\"tile_k\":768,\"tile_n\":2048,\"input_buffer_count\":2,\"combine_scopes\":false}": {
      "compile_time_ms": 9278.2375329989,
      "lower_time_ms": 6847.455639013788,
      "evaluation_times_ms": [
        2.932,
        2.932,
        2.932,
        2.933,
        2.933
      ],
      "metadata": {},
      "peak_memory_mb": 4228.007456
    }
  },
  "{\"lhs\":\"bf16[524288,4096]\",\"rhs\":\"bf16[128,4096,1536]\",\"group_sizes\":{\"num_groups\":128,\"total_size\":524288},\"ragged_dot_dimension_numbers\":{\"dot_dimension_numbers\":[[[1],[1]],[[],[]]],\"lhs_ragged_dimensions\":[0],\"rhs_group_dimensions\":[0]},\"precision\":[\"DEFAULT\",\"DEFAULT\"],\"preferred_element_type\":null,\"return_residuals\":false,\"activation\":null}": {
    "{\"tile_m\":256,\"tile_k\":4096,\"tile_n\":1536,\"input_buffer_count\":2,\"combine_scopes\":false}": {
      "compile_time_ms": 7833.705740980804,
      "lower_time_ms": 35370.116511010565,
      "evaluation_times_ms": [
        8.155,
        8.153,
        8.153,
        8.153,
        8.15
      ],
      "metadata": {},
      "peak_memory_mb": 7516.347904
    }
  },
  "{\"lhs\":\"bf16[524288,4096]\",\"rhs\":\"bf16[128,4096,1536]\",\"group_sizes\":{\"num_groups\":128,\"total_size\":524288},\"ragged_dot_dimension_numbers\":{\"dot_dimension_numbers\":[[[1],[1]],[[],[]]],\"lhs_ragged_dimensions\":[0],\"rhs_group_dimensions\":[0]},\"precision\":[\"DEFAULT\",\"DEFAULT\"],\"preferred_element_type\":null,\"return_residuals\":true,\"activation\":null}": {
    "{\"tile_m\":256,\"tile_k\":4096,\"tile_n\":1536,\"input_buffer_count\":2,\"combine_scopes\":false}": {
      "compile_time_ms": 1230.6866919998356,
      "lower_time_ms": 17081.363235000026,
      "evaluation_times_ms": [
        9.13,
        9.129,
        9.132,
        9.128,
        9.131
      ],
      "metadata": {},
      "peak_memory_mb": 9126.960672
    }
  },
  "{\"lhs\":\"bf16[524288,1536]\",\"rhs\":\"bf16[128,1536,4096]\",\"group_sizes\":{\"num_groups\":128,\"total_size\":524288},\"ragged_dot_dimension_numbers\":{\"dot_dimension_numbers\":[[[1],[1]],[[],[]]],\"lhs_ragged_dimensions\":[0],\"rhs_group_dimensions\":[0]},\"precision\":[\"DEFAULT\",\"DEFAULT\"],\"preferred_element_type\":null,\"return_residuals\":false,\"activation\":null}": {
    "{\"tile_m\":256,\"tile_k\":1536,\"tile_n\":4096,\"input_buffer_count\":2,\"combine_scopes\":false}": {
      "compile_time_ms": 1165.1336129998526,
      "lower_time_ms": 14327.207975999954,
      "evaluation_times_ms": [
        8.226,
        8.223,
        8.226,
        8.226,
        8.227
      ],
      "metadata": {},
      "peak_memory_mb": 7516.347904
    }
  },
  "{\"lhs\":\"bf16[524288,1536]\",\"rhs\":\"bf16[128,1536,4096]\",\"group_sizes\":{\"num_groups\":128,\"total_size\":524288},\"ragged_dot_dimension_numbers\":{\"dot_dimension_numbers\":[[[1],[1]],[[],[]]],\"lhs_ragged_dimensions\":[0],\"rhs_group_dimensions\":[0]},\"precision\":[\"DEFAULT\",\"DEFAULT\"],\"preferred_element_type\":null,\"return_residuals\":true,\"activation\":null}": {
    "{\"tile_m\":256,\"tile_k\":1536,\"tile_n\":4096,\"input_buffer_count\":2,\"combine_scopes\":false}": {
      "compile_time_ms": 5000.637269999061,
      "lower_time_ms": 1343.8482510009635,
      "evaluation_times_ms": [
        10.868,
        10.863,
        10.865,
        10.868,
        10.869
      ],
      "metadata": {},
      "peak_memory_mb": 11811.315232
    }
  },
  "{\"lhs\":\"bf16[524288,7168]\",\"rhs\":\"bf16[256,7168,2048]\",\"group_sizes\":{\"num_groups\":256,\"total_size\":524288},\"ragged_dot_dimension_numbers\":{\"dot_dimension_numbers\":[[[1],[1]],[[],[]]],\"lhs_ragged_dimensions\":[0],\"rhs_group_dimensions\":[0]},\"precision\":[\"DEFAULT\",\"DEFAULT\"],\"preferred_element_type\":null,\"return_residuals\":false,\"activation\":null}": {
    "{\"tile_m\":512,\"tile_k\":7168,\"tile_n\":512,\"input_buffer_count\":2,\"combine_scopes\":false}": {
      "compile_time_ms": 2356.627204000688,
      "lower_time_ms": 24155.885719999787,
      "evaluation_times_ms": [
        21.37,
        21.381,
        21.382,
        21.369,
        21.377
      ],
      "metadata": {},
      "peak_memory_mb": 17179.922944
    }
  },
  "{\"lhs\":\"bf16[524288,7168]\",\"rhs\":\"bf16[256,7168,2048]\",\"group_sizes\":{\"num_groups\":256,\"total_size\":524288},\"ragged_dot_dimension_numbers\":{\"dot_dimension_numbers\":[[[1],[1]],[[],[]]],\"lhs_ragged_dimensions\":[0],\"rhs_group_dimensions\":[0]},\"precision\":[\"DEFAULT\",\"DEFAULT\"],\"preferred_element_type\":null,\"return_residuals\":true,\"activation\":null}": {
    "{\"tile_m\":512,\"tile_k\":7168,\"tile_n\":512,\"input_buffer_count\":2,\"combine_scopes\":false}": {
      "compile_time_ms": 14724.709015999906,
      "lower_time_ms": 12625.512971000717,
      "evaluation_times_ms": [
        22.701,
        22.704,
        22.706,
        22.702,
        22.699
      ],
      "metadata": {},
      "peak_memory_mb": 19327.406624
    }
  },
  "{\"lhs\":\"bf16[262144,4096]\",\"rhs\":\"bf16[128,4096,1536]\",\"group_sizes\":{\"num_groups\":128,\"total_size\":262144},\"ragged_dot_dimension_numbers\":{\"dot_dimension_numbers\":[[[1],[1]],[[],[]]],\"lhs_ragged_dimensions\":[0],\"rhs_group_dimensions\":[0]},\"precision\":[\"DEFAULT\",\"DEFAULT\"],\"preferred_element_type\":null,\"return_residuals\":false,\"activation\":null}": {
    "{\"tile_m\":256,\"tile_k\":4096,\"tile_n\":1536,\"input_buffer_count\":2,\"combine_scopes\":false}": {
      "compile_time_ms": 1264.169258007314,
      "lower_time_ms": 23242.317092983285,
      "evaluation_times_ms": [
        4.404,
        4.407,
        4.405,
        4.407,
        4.404
      ],
      "metadata": {},
      "peak_memory_mb": 4563.553792
    }
  },
  "{\"lhs\":\"bf16[262144,4096]\",\"rhs\":\"bf16[128,4096,1536]\",\"group_sizes\":{\"num_groups\":128,\"total_size\":262144},\"ragged_dot_dimension_numbers\":{\"dot_dimension_numbers\":[[[1],[1]],[[],[]]],\"lhs_ragged_dimensions\":[0],\"rhs_group_dimensions\":[0]},\"precision\":[\"DEFAULT\",\"DEFAULT\"],\"preferred_element_type\":null,\"return_residuals\":true,\"activation\":null}": {
    "{\"tile_m\":256,\"tile_k\":4096,\"tile_n\":1536,\"input_buffer_count\":2,\"combine_scopes\":false}": {
      "compile_time_ms": 8522.06153399311,
      "lower_time_ms": 11437.546510976972,
      "evaluation_times_ms": [
        4.907,
        4.906,
        4.907,
        4.903,
        4.906
      ],
      "metadata": {},
      "peak_memory_mb": 5368.860192
    }
  },
  "{\"lhs\":\"bf16[262144,1536]\",\"rhs\":\"bf16[128,1536,4096]\",\"group_sizes\":{\"num_groups\":128,\"total_size\":262144},\"ragged_dot_dimension_numbers\":{\"dot_dimension_numbers\":[[[1],[1]],[[],[]]],\"lhs_ragged_dimensions\":[0],\"rhs_group_dimensions\":[0]},\"precision\":[\"DEFAULT\",\"DEFAULT\"],\"preferred_element_type\":null,\"return_residuals\":false,\"activation\":null}": {
    "{\"tile_m\":256,\"tile_k\":1536,\"tile_n\":4096,\"input_buffer_count\":2,\"combine_scopes\":false}": {
      "compile_time_ms": 1597.5867800007109,
      "lower_time_ms": 32574.242595001124,
      "evaluation_times_ms": [
        4.483,
        4.483,
        4.482,
        4.48,
        4.481
      ],
      "metadata": {},
      "peak_memory_mb": 4563.553792
    }
  },
  "{\"lhs\":\"bf16[262144,1536]\",\"rhs\":\"bf16[128,1536,4096]\",\"group_sizes\":{\"num_groups\":128,\"total_size\":262144},\"ragged_dot_dimension_numbers\":{\"dot_dimension_numbers\":[[[1],[1]],[[],[]]],\"lhs_ragged_dimensions\":[0],\"rhs_group_dimensions\":[0]},\"precision\":[\"DEFAULT\",\"DEFAULT\"],\"preferred_element_type\":null,\"return_residuals\":true,\"activation\":null}": {
    "{\"tile_m\":256,\"tile_k\":1536,\"tile_n\":4096,\"input_buffer_count\":2,\"combine_scopes\":false}": {
      "compile_time_ms": 6787.6414920028765,
      "lower_time_ms": 2557.8900610271376,
      "evaluation_times_ms": [
        5.819,
        5.82,
        5.819,
        5.818,
        5.82
      ],
      "metadata": {},
      "peak_memory_mb": 6711.037472
    }
  },
  "{\"lhs\":\"bf16[131072,7168]\",\"rhs\":\"bf16[128,7168,2048]\",\"group_sizes\":{\"num_groups\":128,\"total_size\":131072},\"ragged_dot_dimension_numbers\":{\"dot_dimension_numbers\":[[[1],[1]],[[],[]]],\"lhs_ragged_dimensions\":[0],\"rhs_group_dimensions\":[0]},\"precision\":[\"DEFAULT\",\"DEFAULT\"],\"preferred_element_type\":null,\"return_residuals\":false,\"activation\":null}": {
    "{\"tile_m\":128,\"tile_k\":7168,\"tile_n\":1024,\"input_buffer_count\":2,\"combine_scopes\":false}": {
      "compile_time_ms": 19440.83023298299,
      "lower_time_ms": 15118.843498989008,
      "evaluation_times_ms": [
        6.211,
        6.209,
        6.21,
        6.209,
        6.208
      ],
      "metadata": {},
      "peak_memory_mb": 6174.166528
    }
  },
  "{\"lhs\":\"bf16[131072,7168]\",\"rhs\":\"bf16[128,7168,2048]\",\"group_sizes\":{\"num_groups\":128,\"total_size\":131072},\"ragged_dot_dimension_numbers\":{\"dot_dimension_numbers\":[[[1],[1]],[[],[]]],\"lhs_ragged_dimensions\":[0],\"rhs_group_dimensions\":[0]},\"precision\":[\"DEFAULT\",\"DEFAULT\"],\"preferred_element_type\":null,\"return_residuals\":true,\"activation\":null}": {
    "{\"tile_m\":128,\"tile_k\":7168,\"tile_n\":1024,\"input_buffer_count\":2,\"combine_scopes\":false}": {
      "compile_time_ms": 4219.042415963486,
      "lower_time_ms": 11763.97069398081,
      "evaluation_times_ms": [
        6.549,
        6.548,
        6.552,
        6.545,
        6.549
      ],
      "metadata": {},
      "peak_memory_mb": 6711.037472
    }
  },
  "{\"lhs\":\"bf16[131072,2048]\",\"rhs\":\"bf16[128,2048,768]\",\"group_sizes\":{\"num_groups\":128,\"total_size\":131072},\"ragged_dot_dimension_numbers\":{\"dot_dimension_numbers\":[[[1],[1]],[[],[]]],\"lhs_ragged_dimensions\":[0],\"rhs_group_dimensions\":[0]},\"precision\":[\"DEFAULT\",\"DEFAULT\"],\"preferred_element_type\":null,\"return_residuals\":false,\"activation\":null}": {
    "{\"tile_m\":512,\"tile_k\":2048,\"tile_n\":768,\"input_buffer_count\":2,\"combine_scopes\":false}": {
      "compile_time_ms": 7146.051397954579,
      "lower_time_ms": 30362.619650026318,
      "evaluation_times_ms": [
        0.858,
        0.859,
        0.859,
        0.858,
        0.859
      ],
      "metadata": {},
      "peak_memory_mb": 1140.998656
    }
  },
  "{\"lhs\":\"bf16[131072,2048]\",\"rhs\":\"bf16[128,2048,768]\",\"group_sizes\":{\"num_groups\":128,\"total_size\":131072},\"ragged_dot_dimension_numbers\":{\"dot_dimension_numbers\":[[[1],[1]],[[],[]]],\"lhs_ragged_dimensions\":[0],\"rhs_group_dimensions\":[0]},\"precision\":[\"DEFAULT\",\"DEFAULT\"],\"preferred_element_type\":null,\"return_residuals\":true,\"activation\":null}": {
    "{\"tile_m\":512,\"tile_k\":2048,\"tile_n\":768,\"input_buffer_count\":2,\"combine_scopes\":false}": {
      "compile_time_ms": 12153.67312496528,
      "lower_time_ms": 10157.087914994918,
      "evaluation_times_ms": [
        0.983,
        0.984,
        0.984,
        0.985,
        0.985
      ],
      "metadata": {},
      "peak_memory_mb": 1342.32528
    }
  },
  "{\"lhs\":\"bf16[131072,4096]\",\"rhs\":\"bf16[128,4096,1536]\",\"group_sizes\":{\"num_groups\":128,\"total_size\":131072},\"ragged_dot_dimension_numbers\":{\"dot_dimension_numbers\":[[[1],[1]],[[],[]]],\"lhs_ragged_dimensions\":[0],\"rhs_group_dimensions\":[0]},\"precision\":[\"DEFAULT\",\"DEFAULT\"],\"preferred_element_type\":null,\"return_residuals\":false,\"activation\":null}": {
    "{\"tile_m\":256,\"tile_k\":4096,\"tile_n\":1536,\"input_buffer_count\":2,\"combine_scopes\":false}": {
      "compile_time_ms": 4322.469651000574,
      "lower_time_ms": 11402.423520979937,
      "evaluation_times_ms": [
        2.546,
        2.546,
        2.545,
        2.55,
        2.549
      ],
      "metadata": {},
      "peak_memory_mb": 3087.156736
    }
  },
  "{\"lhs\":\"bf16[131072,4096]\",\"rhs\":\"bf16[128,4096,1536]\",\"group_sizes\":{\"num_groups\":128,\"total_size\":131072},\"ragged_dot_dimension_numbers\":{\"dot_dimension_numbers\":[[[1],[1]],[[],[]]],\"lhs_ragged_dimensions\":[0],\"rhs_group_dimensions\":[0]},\"precision\":[\"DEFAULT\",\"DEFAULT\"],\"preferred_element_type\":null,\"return_residuals\":true,\"activation\":null}": {
    "{\"tile_m\":256,\"tile_k\":4096,\"tile_n\":1536,\"input_buffer_count\":2,\"combine_scopes\":false}": {
      "compile_time_ms": 16713.947208947502,
      "lower_time_ms": 4904.5388249796815,
      "evaluation_times_ms": [
        2.795,
        2.795,
        2.795,
        2.795,
        2.794
      ],
      "metadata": {},
      "peak_memory_mb": 3489.809952
    }
  },
  "{\"lhs\":\"bf16[131072,1536]\",\"rhs\":\"bf16[128,1536,4096]\",\"group_sizes\":{\"num_groups\":128,\"total_size\":131072},\"ragged_dot_dimension_numbers\":{\"dot_dimension_numbers\":[[[1],[1]],[[],[]]],\"lhs_ragged_dimensions\":[0],\"rhs_group_dimensions\":[0]},\"precision\":[\"DEFAULT\",\"DEFAULT\"],\"preferred_element_type\":null,\"return_residuals\":false,\"activation\":null}": {
    "{\"tile_m\":256,\"tile_k\":1536,\"tile_n\":4096,\"input_buffer_count\":2,\"combine_scopes\":false}": {
      "compile_time_ms": 1278.475045983214,
      "lower_time_ms": 34643.32710398594,
      "evaluation_times_ms": [
        2.62,
        2.621,
        2.618,
        2.621,
        2.624
      ],
      "metadata": {},
      "peak_memory_mb": 3087.156736
    }
  },
  "{\"lhs\":\"bf16[131072,1536]\",\"rhs\":\"bf16[128,1536,4096]\",\"group_sizes\":{\"num_groups\":128,\"total_size\":131072},\"ragged_dot_dimension_numbers\":{\"dot_dimension_numbers\":[[[1],[1]],[[],[]]],\"lhs_ragged_dimensions\":[0],\"rhs_group_dimensions\":[0]},\"precision\":[\"DEFAULT\",\"DEFAULT\"],\"preferred_element_type\":null,\"return_residuals\":true,\"activation\":null}": {
    "{\"tile_m\":256,\"tile_k\":1536,\"tile_n\":4096,\"input_buffer_count\":2,\"combine_scopes\":false}": {
      "compile_time_ms": 3550.4293950507417,
      "lower_time_ms": 1613.1724839797243,
      "evaluation_times_ms": [
        3.279,
        3.281,
        3.283,
        3.279,
        3.285
      ],
      "metadata": {},
      "peak_memory_mb": 4160.898592
    }
  },
  "{\"lhs\":\"bf16[131072,7168]\",\"rhs\":\"bf16[256,7168,2048]\",\"group_sizes\":{\"num_groups\":256,\"total_size\":131072},\"ragged_dot_dimension_numbers\":{\"dot_dimension_numbers\":[[[1],[1]],[[],[]]],\"lhs_ragged_dimensions\":[0],\"rhs_group_dimensions\":[0]},\"precision\":[\"DEFAULT\",\"DEFAULT\"],\"preferred_element_type\":null,\"return_residuals\":false,\"activation\":null}": {
    "{\"tile_m\":128,\"tile_k\":7168,\"tile_n\":1024,\"input_buffer_count\":2,\"combine_scopes\":false}": {
      "compile_time_ms": 8085.74311202392,
      "lower_time_ms": 30422.07158601377,
      "evaluation_times_ms": [
        7.628,
        7.631,
        7.636,
        7.634,
        7.629
      ],
      "metadata": {},
      "peak_memory_mb": 9932.165632
    }
  },
  "{\"lhs\":\"bf16[131072,7168]\",\"rhs\":\"bf16[256,7168,2048]\",\"group_sizes\":{\"num_groups\":256,\"total_size\":131072},\"ragged_dot_dimension_numbers\":{\"dot_dimension_numbers\":[[[1],[1]],[[],[]]],\"lhs_ragged_dimensions\":[0],\"rhs_group_dimensions\":[0]},\"precision\":[\"DEFAULT\",\"DEFAULT\"],\"preferred_element_type\":null,\"return_residuals\":true,\"activation\":null}": {
    "{\"tile_m\":128,\"tile_k\":7168,\"tile_n\":1024,\"input_buffer_count\":2,\"combine_scopes\":false}": {
      "compile_time_ms": 18276.844741019886,
      "lower_time_ms": 3917.0600660145283,
      "evaluation_times_ms": [
        7.984,
        7.982,
        7.984,
        7.984,
        7.991
      ],
      "metadata": {},
      "peak_memory_mb": 10469.036576
    }
  },
  "{\"lhs\":\"bf16[65536,7168]\",\"rhs\":\"bf16[256,7168,2048]\",\"group_sizes\":{\"num_groups\":256,\"total_size\":65536},\"ragged_dot_dimension_numbers\":{\"dot_dimension_numbers\":[[[1],[1]],[[],[]]],\"lhs_ragged_dimensions\":[0],\"rhs_group_dimensions\":[0]},\"precision\":[\"DEFAULT\",\"DEFAULT\"],\"preferred_element_type\":null,\"return_residuals\":false,\"activation\":null}": {
    "{\"tile_m\":128,\"tile_k\":7168,\"tile_n\":1024,\"input_buffer_count\":2,\"combine_scopes\":false}": {
      "compile_time_ms": 4589.691099012271,
      "lower_time_ms": 37862.229718011804,
      "evaluation_times_ms": [
        5.281,
        5.284,
        5.279,
        5.282,
        5.281
      ],
      "metadata": {},
      "peak_memory_mb": 8724.187648
    }
  },
  "{\"lhs\":\"bf16[65536,7168]\",\"rhs\":\"bf16[256,7168,2048]\",\"group_sizes\":{\"num_groups\":256,\"total_size\":65536},\"ragged_dot_dimension_numbers\":{\"dot_dimension_numbers\":[[[1],[1]],[[],[]]],\"lhs_ragged_dimensions\":[0],\"rhs_group_dimensions\":[0]},\"precision\":[\"DEFAULT\",\"DEFAULT\"],\"preferred_element_type\":null,\"return_residuals\":true,\"activation\":null}": {
    "{\"tile_m\":128,\"tile_k\":7168,\"tile_n\":1024,\"input_buffer_count\":2,\"combine_scopes\":false}": {
      "compile_time_ms": 7355.230070999937,
      "lower_time_ms": 25056.224668000028,
      "evaluation_times_ms": [
        5.423,
        5.421,
        5.421,
        5.418,
        5.419
      ],
      "metadata": {},
      "peak_memory_mb": 8992.623136
    }
  }
}
