{
  "{\"lhs\":\"bf16[262144,7168]\",\"rhs\":\"bf16[256,7168,2048]\",\"group_sizes\":{\"num_groups\":256,\"total_size\":262144},\"ragged_dot_dimension_numbers\":{\"dot_dimension_numbers\":[[[1],[1]],[[],[]]],\"lhs_ragged_dimensions\":[0],\"rhs_group_dimensions\":[0]},\"precision\":[\"DEFAULT\",\"DEFAULT\"],\"preferred_element_type\":null,\"return_residuals\":false,\"activation\":null}": {
    "{\"block_m\":128,\"block_n\":128,\"block_k\":128,\"num_stages\":2,\"split_k\":1,\"split_m\":2,\"persistent\":false,\"async_store\":false,\"post_scale\":false,\"collective\":true,\"grid_minor_dim\":0,\"grid_tile_width\":2}": {
      "compile_time_ms": 772.8798359999018,
      "lower_time_ms": 251.32531400004154,
      "evaluation_times_ms": [
        8.759207,
        8.784324999999999,
        8.793541000000001,
        8.796389,
        8.783462
      ],
      "metadata": {},
      "peak_memory_mb": 18944.01951599121
    }
  },
  "{\"lhs\":\"bf16[327680,2880]\",\"rhs\":\"bf16[128,2880,2880]\",\"group_sizes\":{\"num_groups\":128,\"total_size\":327680},\"ragged_dot_dimension_numbers\":{\"dot_dimension_numbers\":[[[1],[1]],[[],[]]],\"lhs_ragged_dimensions\":[0],\"rhs_group_dimensions\":[0]},\"precision\":[\"DEFAULT\",\"DEFAULT\"],\"preferred_element_type\":null,\"return_residuals\":false,\"activation\":null}": {
    "{\"block_m\":128,\"block_n\":128,\"block_k\":128,\"num_stages\":2,\"split_k\":1,\"split_m\":2,\"persistent\":false,\"async_store\":false,\"post_scale\":false,\"collective\":true,\"grid_minor_dim\":0,\"grid_tile_width\":2}": {
      "compile_time_ms": 780.8331869996437,
      "lower_time_ms": 433.54177299988805,
      "evaluation_times_ms": [
        4.9455849999999995,
        4.922514,
        4.927154,
        4.916881,
        4.918225
      ],
      "metadata": {},
      "peak_memory_mb": 7650.021469116211
    }
  },
  "{\"lhs\":\"bf16[393216,2048]\",\"rhs\":\"bf16[128,2048,768]\",\"group_sizes\":{\"num_groups\":128,\"total_size\":393216},\"ragged_dot_dimension_numbers\":{\"dot_dimension_numbers\":[[[1],[1]],[[],[]]],\"lhs_ragged_dimensions\":[0],\"rhs_group_dimensions\":[0]},\"precision\":[\"DEFAULT\",\"DEFAULT\"],\"preferred_element_type\":null,\"return_residuals\":false,\"activation\":null}": {
    "{\"block_m\":128,\"block_n\":128,\"block_k\":128,\"num_stages\":2,\"split_k\":1,\"split_m\":1,\"persistent\":false,\"async_store\":false,\"post_scale\":false,\"collective\":true,\"grid_minor_dim\":0,\"grid_tile_width\":8}": {
      "compile_time_ms": 150.0451250003607,
      "lower_time_ms": 320.833140999639,
      "evaluation_times_ms": [
        1.090765,
        1.08654,
        1.084876,
        1.085549,
        1.087084
      ],
      "metadata": {},
      "peak_memory_mb": 2880.025375366211
    }
  },
  "{\"lhs\":\"bf16[393216,768]\",\"rhs\":\"bf16[128,768,2048]\",\"group_sizes\":{\"num_groups\":128,\"total_size\":393216},\"ragged_dot_dimension_numbers\":{\"dot_dimension_numbers\":[[[1],[1]],[[],[]]],\"lhs_ragged_dimensions\":[0],\"rhs_group_dimensions\":[0]},\"precision\":[\"DEFAULT\",\"DEFAULT\"],\"preferred_element_type\":null,\"return_residuals\":false,\"activation\":null}": {
    "{\"block_m\":128,\"block_n\":128,\"block_k\":128,\"num_stages\":2,\"split_k\":1,\"split_m\":2,\"persistent\":false,\"async_store\":false,\"post_scale\":false,\"collective\":true,\"grid_minor_dim\":0,\"grid_tile_width\":8}": {
      "compile_time_ms": 1347.051515000203,
      "lower_time_ms": 1518.1370599998445,
      "evaluation_times_ms": [
        1.131591,
        1.126662,
        1.129638,
        1.127399,
        1.127461
      ],
      "metadata": {},
      "peak_memory_mb": 2880.025375366211
    }
  },
  "{\"lhs\":\"bf16[524288,4096]\",\"rhs\":\"bf16[128,4096,1536]\",\"group_sizes\":{\"num_groups\":128,\"total_size\":524288},\"ragged_dot_dimension_numbers\":{\"dot_dimension_numbers\":[[[1],[1]],[[],[]]],\"lhs_ragged_dimensions\":[0],\"rhs_group_dimensions\":[0]},\"precision\":[\"DEFAULT\",\"DEFAULT\"],\"preferred_element_type\":null,\"return_residuals\":false,\"activation\":null}": {
    "{\"block_m\":128,\"block_n\":128,\"block_k\":128,\"num_stages\":2,\"split_k\":1,\"split_m\":1,\"persistent\":false,\"async_store\":false,\"post_scale\":false,\"collective\":true,\"grid_minor_dim\":0,\"grid_tile_width\":4}": {
      "compile_time_ms": 806.4184790000581,
      "lower_time_ms": 533.5296869998274,
      "evaluation_times_ms": [
        5.191131,
        5.175098,
        5.178811,
        5.243995,
        5.243068
      ],
      "metadata": {},
      "peak_memory_mb": 8704.033187866211
    },
    "{\"block_m\":128,\"block_n\":128,\"block_k\":128,\"num_stages\":2,\"split_k\":1,\"split_m\":2,\"persistent\":false,\"async_store\":false,\"post_scale\":false,\"collective\":true,\"grid_minor_dim\":0,\"grid_tile_width\":4}": {
      "compile_time_ms": 128.56283100001065,
      "lower_time_ms": 261.408026999959,
      "evaluation_times_ms": [
        5.182993,
        5.159029,
        5.167668000000001,
        5.162165000000001,
        5.154327
      ],
      "metadata": {},
      "peak_memory_mb": 8704.033187866211
    }
  },
  "{\"lhs\":\"bf16[524288,1536]\",\"rhs\":\"bf16[128,1536,4096]\",\"group_sizes\":{\"num_groups\":128,\"total_size\":524288},\"ragged_dot_dimension_numbers\":{\"dot_dimension_numbers\":[[[1],[1]],[[],[]]],\"lhs_ragged_dimensions\":[0],\"rhs_group_dimensions\":[0]},\"precision\":[\"DEFAULT\",\"DEFAULT\"],\"preferred_element_type\":null,\"return_residuals\":false,\"activation\":null}": {
    "{\"block_m\":128,\"block_n\":128,\"block_k\":128,\"num_stages\":2,\"split_k\":1,\"split_m\":2,\"persistent\":false,\"async_store\":false,\"post_scale\":false,\"collective\":true,\"grid_minor_dim\":0,\"grid_tile_width\":4}": {
      "compile_time_ms": 124.0770629999588,
      "lower_time_ms": 269.6561800000836,
      "evaluation_times_ms": [
        5.334758,
        5.324516,
        5.32599,
        5.325381,
        5.316356
      ],
      "metadata": {},
      "peak_memory_mb": 8704.033187866211
    }
  },
  "{\"lhs\":\"bf16[262144,4096]\",\"rhs\":\"bf16[128,4096,1536]\",\"group_sizes\":{\"num_groups\":128,\"total_size\":262144},\"ragged_dot_dimension_numbers\":{\"dot_dimension_numbers\":[[[1],[1]],[[],[]]],\"lhs_ragged_dimensions\":[0],\"rhs_group_dimensions\":[0]},\"precision\":[\"DEFAULT\",\"DEFAULT\"],\"preferred_element_type\":null,\"return_residuals\":false,\"activation\":null}": {
    "{\"block_m\":128,\"block_n\":128,\"block_k\":128,\"num_stages\":2,\"split_k\":1,\"split_m\":2,\"persistent\":false,\"async_store\":false,\"post_scale\":false,\"collective\":true,\"grid_minor_dim\":0,\"grid_tile_width\":2}": {
      "compile_time_ms": 774.751212999945,
      "lower_time_ms": 261.74306799975966,
      "evaluation_times_ms": [
        3.010093,
        3.0083979999999997,
        3.0044299999999997,
        2.998733,
        3.003438
      ],
      "metadata": {},
      "peak_memory_mb": 5888.017562866211
    }
  },
  "{\"lhs\":\"bf16[262144,1536]\",\"rhs\":\"bf16[128,1536,4096]\",\"group_sizes\":{\"num_groups\":128,\"total_size\":262144},\"ragged_dot_dimension_numbers\":{\"dot_dimension_numbers\":[[[1],[1]],[[],[]]],\"lhs_ragged_dimensions\":[0],\"rhs_group_dimensions\":[0]},\"precision\":[\"DEFAULT\",\"DEFAULT\"],\"preferred_element_type\":null,\"return_residuals\":false,\"activation\":null}": {
    "{\"block_m\":128,\"block_n\":128,\"block_k\":128,\"num_stages\":2,\"split_k\":1,\"split_m\":1,\"persistent\":false,\"async_store\":false,\"post_scale\":false,\"collective\":true,\"grid_minor_dim\":0,\"grid_tile_width\":4}": {
      "compile_time_ms": 803.8728139999876,
      "lower_time_ms": 309.6112210000683,
      "evaluation_times_ms": [
        3.017565,
        3.023516,
        3.019101,
        3.020702,
        3.020574
      ],
      "metadata": {},
      "peak_memory_mb": 5888.017562866211
    }
  },
  "{\"lhs\":\"bf16[131072,7168]\",\"rhs\":\"bf16[128,7168,2048]\",\"group_sizes\":{\"num_groups\":128,\"total_size\":131072},\"ragged_dot_dimension_numbers\":{\"dot_dimension_numbers\":[[[1],[1]],[[],[]]],\"lhs_ragged_dimensions\":[0],\"rhs_group_dimensions\":[0]},\"precision\":[\"DEFAULT\",\"DEFAULT\"],\"preferred_element_type\":null,\"return_residuals\":false,\"activation\":null}": {
    "{\"block_m\":128,\"block_n\":128,\"block_k\":128,\"num_stages\":2,\"split_k\":1,\"split_m\":1,\"persistent\":false,\"async_store\":false,\"post_scale\":false,\"collective\":true,\"grid_minor_dim\":0,\"grid_tile_width\":1}": {
      "compile_time_ms": 116.20562999996764,
      "lower_time_ms": 286.33030900027734,
      "evaluation_times_ms": [
        4.490289,
        4.483121000000001,
        4.485426,
        4.478929,
        4.478865
      ],
      "metadata": {},
      "peak_memory_mb": 9472.009750366211
    }
  },
  "{\"lhs\":\"bf16[131072,2048]\",\"rhs\":\"bf16[128,2048,768]\",\"group_sizes\":{\"num_groups\":128,\"total_size\":131072},\"ragged_dot_dimension_numbers\":{\"dot_dimension_numbers\":[[[1],[1]],[[],[]]],\"lhs_ragged_dimensions\":[0],\"rhs_group_dimensions\":[0]},\"precision\":[\"DEFAULT\",\"DEFAULT\"],\"preferred_element_type\":null,\"return_residuals\":false,\"activation\":null}": {
    "{\"block_m\":64,\"block_n\":128,\"block_k\":256,\"num_stages\":2,\"split_k\":1,\"split_m\":1,\"persistent\":true,\"async_store\":false,\"post_scale\":false,\"collective\":true,\"grid_minor_dim\":0,\"grid_tile_width\":8}": {
      "compile_time_ms": 137.86927699993612,
      "lower_time_ms": 248.2818230000703,
      "evaluation_times_ms": [
        0.49395,
        0.48751900000000004,
        0.48854299999999995,
        0.49027,
        0.488703
      ],
      "metadata": {},
      "peak_memory_mb": 1472.017562866211
    }
  },
  "{\"lhs\":\"bf16[131072,4096]\",\"rhs\":\"bf16[128,4096,1536]\",\"group_sizes\":{\"num_groups\":128,\"total_size\":131072},\"ragged_dot_dimension_numbers\":{\"dot_dimension_numbers\":[[[1],[1]],[[],[]]],\"lhs_ragged_dimensions\":[0],\"rhs_group_dimensions\":[0]},\"precision\":[\"DEFAULT\",\"DEFAULT\"],\"preferred_element_type\":null,\"return_residuals\":false,\"activation\":null}": {
    "{\"block_m\":64,\"block_n\":128,\"block_k\":256,\"num_stages\":2,\"split_k\":1,\"split_m\":2,\"persistent\":true,\"async_store\":false,\"post_scale\":true,\"collective\":true,\"grid_minor_dim\":0,\"grid_tile_width\":4}": {
      "compile_time_ms": 1289.3786780000482,
      "lower_time_ms": 1156.5762790000917,
      "evaluation_times_ms": [
        1.8784699999999999,
        1.877701,
        1.8806129999999999,
        1.8805809999999998,
        1.878022
      ],
      "metadata": {},
      "peak_memory_mb": 4480.017562866211
    }
  },
  "{\"lhs\":\"bf16[131072,1536]\",\"rhs\":\"bf16[128,1536,4096]\",\"group_sizes\":{\"num_groups\":128,\"total_size\":131072},\"ragged_dot_dimension_numbers\":{\"dot_dimension_numbers\":[[[1],[1]],[[],[]]],\"lhs_ragged_dimensions\":[0],\"rhs_group_dimensions\":[0]},\"precision\":[\"DEFAULT\",\"DEFAULT\"],\"preferred_element_type\":null,\"return_residuals\":false,\"activation\":null}": {
    "{\"block_m\":128,\"block_n\":128,\"block_k\":128,\"num_stages\":2,\"split_k\":1,\"split_m\":1,\"persistent\":false,\"async_store\":false,\"post_scale\":false,\"collective\":true,\"grid_minor_dim\":0,\"grid_tile_width\":4}": {
      "compile_time_ms": 829.1015740001058,
      "lower_time_ms": 414.55697200012764,
      "evaluation_times_ms": [
        1.8764220000000003,
        1.875047,
        1.878855,
        1.878663,
        1.8754300000000002
      ],
      "metadata": {},
      "peak_memory_mb": 4480.009750366211
    }
  },
  "{\"lhs\":\"bf16[131072,7168]\",\"rhs\":\"bf16[256,7168,2048]\",\"group_sizes\":{\"num_groups\":256,\"total_size\":131072},\"ragged_dot_dimension_numbers\":{\"dot_dimension_numbers\":[[[1],[1]],[[],[]]],\"lhs_ragged_dimensions\":[0],\"rhs_group_dimensions\":[0]},\"precision\":[\"DEFAULT\",\"DEFAULT\"],\"preferred_element_type\":null,\"return_residuals\":false,\"activation\":null}": {
    "{\"block_m\":128,\"block_n\":128,\"block_k\":128,\"num_stages\":2,\"split_k\":1,\"split_m\":2,\"persistent\":false,\"async_store\":false,\"post_scale\":false,\"collective\":true,\"grid_minor_dim\":0,\"grid_tile_width\":1}": {
      "compile_time_ms": 868.8712130001477,
      "lower_time_ms": 288.29789300016273,
      "evaluation_times_ms": [
        5.979419,
        5.985851,
        5.9800260000000005,
        5.9844100000000005,
        5.981435
      ],
      "metadata": {},
      "peak_memory_mb": 16640.01170349121
    }
  },
  "{\"lhs\":\"bf16[65536,7168]\",\"rhs\":\"bf16[256,7168,2048]\",\"group_sizes\":{\"num_groups\":256,\"total_size\":65536},\"ragged_dot_dimension_numbers\":{\"dot_dimension_numbers\":[[[1],[1]],[[],[]]],\"lhs_ragged_dimensions\":[0],\"rhs_group_dimensions\":[0]},\"precision\":[\"DEFAULT\",\"DEFAULT\"],\"preferred_element_type\":null,\"return_residuals\":false,\"activation\":null}": {
    "{\"block_m\":64,\"block_n\":128,\"block_k\":256,\"num_stages\":2,\"split_k\":1,\"split_m\":2,\"persistent\":true,\"async_store\":false,\"post_scale\":true,\"collective\":true,\"grid_minor_dim\":1,\"grid_tile_width\":8}": {
      "compile_time_ms": 153.85594700001093,
      "lower_time_ms": 225.20188500038785,
      "evaluation_times_ms": [
        4.441453,
        4.443757,
        4.44667,
        4.460557,
        4.455277000000001
      ],
      "metadata": {},
      "peak_memory_mb": 15488.011703491211
    }
  },
  "{\"lhs\":\"bf16[131072,7168]\",\"rhs\":\"bf16[256,7168,512]\",\"group_sizes\":{\"num_groups\":256,\"total_size\":131072},\"ragged_dot_dimension_numbers\":{\"dot_dimension_numbers\":[[[1],[1]],[[],[]]],\"lhs_ragged_dimensions\":[0],\"rhs_group_dimensions\":[0]},\"precision\":[\"DEFAULT\",\"DEFAULT\"],\"preferred_element_type\":null,\"return_residuals\":false,\"activation\":null}": {
    "{\"block_m\":128,\"block_n\":128,\"block_k\":128,\"num_stages\":2,\"split_k\":1,\"split_m\":1,\"persistent\":false,\"async_store\":false,\"post_scale\":false,\"collective\":true,\"grid_minor_dim\":1,\"grid_tile_width\":8}": {
      "compile_time_ms": 127.07883999974001,
      "lower_time_ms": 253.28761600030703,
      "evaluation_times_ms": [
        1.5401319999999998,
        1.531237,
        1.528197,
        1.532227,
        1.535396
      ],
      "metadata": {},
      "peak_memory_mb": 5504.011703491211
    }
  },
  "{\"lhs\":\"bf16[131072,512]\",\"rhs\":\"bf16[256,512,7168]\",\"group_sizes\":{\"num_groups\":256,\"total_size\":131072},\"ragged_dot_dimension_numbers\":{\"dot_dimension_numbers\":[[[1],[1]],[[],[]]],\"lhs_ragged_dimensions\":[0],\"rhs_group_dimensions\":[0]},\"precision\":[\"DEFAULT\",\"DEFAULT\"],\"preferred_element_type\":null,\"return_residuals\":false,\"activation\":null}": {
    "{\"block_m\":64,\"block_n\":128,\"block_k\":256,\"num_stages\":2,\"split_k\":1,\"split_m\":2,\"persistent\":true,\"async_store\":false,\"post_scale\":false,\"collective\":true,\"grid_minor_dim\":0,\"grid_tile_width\":1}": {
      "compile_time_ms": 2022.4746180001603,
      "lower_time_ms": 2384.0452469999036,
      "evaluation_times_ms": [
        1.595456,
        1.596159,
        1.6027170000000002,
        1.6079620000000001,
        1.608187
      ],
      "metadata": {},
      "peak_memory_mb": 5504.019515991211
    }
  },
  "{\"lhs\":\"bf16[4096,4096]\",\"rhs\":\"bf16[8,4096,4096]\",\"group_sizes\":[4096,0,0,0,0,0,0,0],\"ragged_dot_dimension_numbers\":{\"dot_dimension_numbers\":[[[1],[1]],[[],[]]],\"lhs_ragged_dimensions\":[0],\"rhs_group_dimensions\":[0]},\"precision\":[\"DEFAULT\",\"DEFAULT\"],\"preferred_element_type\":null,\"return_residuals\":false,\"activation\":null}": {
    "{\"block_m\":64,\"block_n\":128,\"block_k\":256,\"num_stages\":2,\"split_k\":1,\"split_m\":1,\"persistent\":true,\"async_store\":false,\"post_scale\":false,\"collective\":true,\"grid_minor_dim\":0,\"grid_tile_width\":1}": {
      "compile_time_ms": 105.06452799995714,
      "lower_time_ms": 244.84716200004186,
      "evaluation_times_ms": [
        0.200596,
        0.196915,
        0.19742800000000002,
        0.196947,
        0.19592400000000001
      ],
      "metadata": {},
      "peak_memory_mb": 576.0005950927734
    }
  },
  "{\"lhs\":\"bf16[8,4096]\",\"rhs\":\"bf16[8,4096,4096]\",\"group_sizes\":[1,1,1,1,1,1,1,1],\"ragged_dot_dimension_numbers\":{\"dot_dimension_numbers\":[[[1],[1]],[[],[]]],\"lhs_ragged_dimensions\":[0],\"rhs_group_dimensions\":[0]},\"precision\":[\"DEFAULT\",\"DEFAULT\"],\"preferred_element_type\":null,\"return_residuals\":false,\"activation\":null}": {
    "{\"block_m\":8,\"block_n\":128,\"block_k\":256,\"num_stages\":2,\"split_k\":1,\"split_m\":2,\"persistent\":true,\"async_store\":false,\"post_scale\":true,\"collective\":false,\"grid_minor_dim\":1,\"grid_tile_width\":2}": {
      "compile_time_ms": 23382.633226000053,
      "lower_time_ms": 162.82754500025476,
      "evaluation_times_ms": [
        0.143648,
        0.142559,
        0.14304,
        0.1432,
        0.142848
      ],
      "metadata": {},
      "peak_memory_mb": 512.1250915527344
    }
  },
  "{\"lhs\":\"bf16[8192,4096]\",\"rhs\":\"bf16[8,4096,14336]\",\"group_sizes\":{\"num_groups\":8,\"total_size\":8192},\"ragged_dot_dimension_numbers\":{\"dot_dimension_numbers\":[[[1],[1]],[[],[]]],\"lhs_ragged_dimensions\":[0],\"rhs_group_dimensions\":[0]},\"precision\":[\"DEFAULT\",\"DEFAULT\"],\"preferred_element_type\":null,\"return_residuals\":false,\"activation\":null}": {
    "{\"block_m\":128,\"block_n\":128,\"block_k\":128,\"num_stages\":2,\"split_k\":1,\"split_m\":2,\"persistent\":false,\"async_store\":false,\"post_scale\":false,\"collective\":true,\"grid_minor_dim\":0,\"grid_tile_width\":4}": {
      "compile_time_ms": 19494.430602999728,
      "lower_time_ms": 263.0322589998286,
      "evaluation_times_ms": [
        1.055991,
        1.05023,
        1.048822,
        1.049335,
        1.049718
      ],
      "metadata": {},
      "peak_memory_mb": 2080.0010414123535
    }
  },
  "{\"lhs\":\"bf16[262144,2048]\",\"rhs\":\"bf16[256,7168,2048]\",\"group_sizes\":{\"num_groups\":256,\"total_size\":262144},\"ragged_dot_dimension_numbers\":{\"dot_dimension_numbers\":[[[1],[2]],[[],[]]],\"lhs_ragged_dimensions\":[0],\"rhs_group_dimensions\":[0]},\"precision\":[\"DEFAULT\",\"DEFAULT\"],\"preferred_element_type\":null,\"return_residuals\":false,\"activation\":null}": {
    "{\"block_m\":128,\"block_n\":128,\"block_k\":128,\"num_stages\":2,\"split_k\":1,\"split_m\":2,\"persistent\":false,\"async_store\":false,\"post_scale\":false,\"collective\":true,\"grid_minor_dim\":0,\"grid_tile_width\":1}": {
      "compile_time_ms": 810.2533220003352,
      "lower_time_ms": 458.49386899999445,
      "evaluation_times_ms": [
        6.273673,
        6.268937,
        6.271913,
        6.270249,
        6.228264
      ],
      "metadata": {},
      "peak_memory_mb": 11776.019515991211
    }
  },
  "{\"lhs\":\"bf16[262144,7168]\",\"rhs\":\"bf16[262144,2048]\",\"group_sizes\":{\"num_groups\":262144,\"total_size\":262144},\"ragged_dot_dimension_numbers\":{\"dot_dimension_numbers\":[[[0],[0]],[[],[]]],\"lhs_ragged_dimensions\":[0],\"rhs_group_dimensions\":[]},\"precision\":[\"DEFAULT\",\"DEFAULT\"],\"preferred_element_type\":null,\"return_residuals\":false,\"activation\":null}": {},
  "{\"lhs\":\"bf16[327680,2880]\",\"rhs\":\"bf16[128,2880,2880]\",\"group_sizes\":{\"num_groups\":128,\"total_size\":327680},\"ragged_dot_dimension_numbers\":{\"dot_dimension_numbers\":[[[1],[2]],[[],[]]],\"lhs_ragged_dimensions\":[0],\"rhs_group_dimensions\":[0]},\"precision\":[\"DEFAULT\",\"DEFAULT\"],\"preferred_element_type\":null,\"return_residuals\":false,\"activation\":null}": {
    "{\"block_m\":128,\"block_n\":128,\"block_k\":128,\"num_stages\":2,\"split_k\":1,\"split_m\":2,\"persistent\":false,\"async_store\":false,\"post_scale\":false,\"collective\":true,\"grid_minor_dim\":0,\"grid_tile_width\":2}": {
      "compile_time_ms": 716.2415199998122,
      "lower_time_ms": 235.96701500014206,
      "evaluation_times_ms": [
        4.331796,
        4.338452,
        4.335124,
        4.334228,
        4.33314
      ],
      "metadata": {},
      "peak_memory_mb": 5625.021469116211
    }
  },
  "{\"lhs\":\"bf16[327680,2880]\",\"rhs\":\"bf16[327680,2880]\",\"group_sizes\":{\"num_groups\":327680,\"total_size\":327680},\"ragged_dot_dimension_numbers\":{\"dot_dimension_numbers\":[[[0],[0]],[[],[]]],\"lhs_ragged_dimensions\":[0],\"rhs_group_dimensions\":[]},\"precision\":[\"DEFAULT\",\"DEFAULT\"],\"preferred_element_type\":null,\"return_residuals\":false,\"activation\":null}": {},
  "{\"lhs\":\"bf16[393216,768]\",\"rhs\":\"bf16[128,2048,768]\",\"group_sizes\":{\"num_groups\":128,\"total_size\":393216},\"ragged_dot_dimension_numbers\":{\"dot_dimension_numbers\":[[[1],[2]],[[],[]]],\"lhs_ragged_dimensions\":[0],\"rhs_group_dimensions\":[0]},\"precision\":[\"DEFAULT\",\"DEFAULT\"],\"preferred_element_type\":null,\"return_residuals\":false,\"activation\":null}": {
    "{\"block_m\":128,\"block_n\":128,\"block_k\":128,\"num_stages\":2,\"split_k\":1,\"split_m\":1,\"persistent\":false,\"async_store\":false,\"post_scale\":false,\"collective\":true,\"grid_minor_dim\":0,\"grid_tile_width\":8}": {
      "compile_time_ms": 93.27277300008063,
      "lower_time_ms": 240.66696299996693,
      "evaluation_times_ms": [
        1.023874,
        1.017762,
        1.016513,
        1.018753,
        1.017857
      ],
      "metadata": {},
      "peak_memory_mb": 2496.025375366211
    }
  },
  "{\"lhs\":\"bf16[393216,2048]\",\"rhs\":\"bf16[393216,768]\",\"group_sizes\":{\"num_groups\":393216,\"total_size\":393216},\"ragged_dot_dimension_numbers\":{\"dot_dimension_numbers\":[[[0],[0]],[[],[]]],\"lhs_ragged_dimensions\":[0],\"rhs_group_dimensions\":[]},\"precision\":[\"DEFAULT\",\"DEFAULT\"],\"preferred_element_type\":null,\"return_residuals\":false,\"activation\":null}": {},
  "{\"lhs\":\"bf16[393216,2048]\",\"rhs\":\"bf16[128,768,2048]\",\"group_sizes\":{\"num_groups\":128,\"total_size\":393216},\"ragged_dot_dimension_numbers\":{\"dot_dimension_numbers\":[[[1],[2]],[[],[]]],\"lhs_ragged_dimensions\":[0],\"rhs_group_dimensions\":[0]},\"precision\":[\"DEFAULT\",\"DEFAULT\"],\"preferred_element_type\":null,\"return_residuals\":false,\"activation\":null}": {
    "{\"block_m\":128,\"block_n\":128,\"block_k\":128,\"num_stages\":2,\"split_k\":1,\"split_m\":2,\"persistent\":false,\"async_store\":false,\"post_scale\":false,\"collective\":true,\"grid_minor_dim\":0,\"grid_tile_width\":8}": {
      "compile_time_ms": 1257.9973119999295,
      "lower_time_ms": 515.355956999997,
      "evaluation_times_ms": [
        0.980609,
        0.973441,
        0.972321,
        0.970529,
        0.969697
      ],
      "metadata": {},
      "peak_memory_mb": 2496.025375366211
    }
  },
  "{\"lhs\":\"bf16[393216,768]\",\"rhs\":\"bf16[393216,2048]\",\"group_sizes\":{\"num_groups\":393216,\"total_size\":393216},\"ragged_dot_dimension_numbers\":{\"dot_dimension_numbers\":[[[0],[0]],[[],[]]],\"lhs_ragged_dimensions\":[0],\"rhs_group_dimensions\":[]},\"precision\":[\"DEFAULT\",\"DEFAULT\"],\"preferred_element_type\":null,\"return_residuals\":false,\"activation\":null}": {},
  "{\"lhs\":\"bf16[524288,1536]\",\"rhs\":\"bf16[128,4096,1536]\",\"group_sizes\":{\"num_groups\":128,\"total_size\":524288},\"ragged_dot_dimension_numbers\":{\"dot_dimension_numbers\":[[[1],[2]],[[],[]]],\"lhs_ragged_dimensions\":[0],\"rhs_group_dimensions\":[0]},\"precision\":[\"DEFAULT\",\"DEFAULT\"],\"preferred_element_type\":null,\"return_residuals\":false,\"activation\":null}": {
    "{\"block_m\":128,\"block_n\":128,\"block_k\":128,\"num_stages\":2,\"split_k\":1,\"split_m\":1,\"persistent\":false,\"async_store\":false,\"post_scale\":false,\"collective\":true,\"grid_minor_dim\":0,\"grid_tile_width\":4}": {
      "compile_time_ms": 770.9908100000575,
      "lower_time_ms": 356.3605959998313,
      "evaluation_times_ms": [
        4.923682,
        4.779585,
        4.779522,
        4.780673,
        4.786401
      ],
      "metadata": {},
      "peak_memory_mb": 7168.033187866211
    }
  },
  "{\"lhs\":\"bf16[524288,4096]\",\"rhs\":\"bf16[524288,1536]\",\"group_sizes\":{\"num_groups\":524288,\"total_size\":524288},\"ragged_dot_dimension_numbers\":{\"dot_dimension_numbers\":[[[0],[0]],[[],[]]],\"lhs_ragged_dimensions\":[0],\"rhs_group_dimensions\":[]},\"precision\":[\"DEFAULT\",\"DEFAULT\"],\"preferred_element_type\":null,\"return_residuals\":false,\"activation\":null}": {},
  "{\"lhs\":\"bf16[524288,4096]\",\"rhs\":\"bf16[128,1536,4096]\",\"group_sizes\":{\"num_groups\":128,\"total_size\":524288},\"ragged_dot_dimension_numbers\":{\"dot_dimension_numbers\":[[[1],[2]],[[],[]]],\"lhs_ragged_dimensions\":[0],\"rhs_group_dimensions\":[0]},\"precision\":[\"DEFAULT\",\"DEFAULT\"],\"preferred_element_type\":null,\"return_residuals\":false,\"activation\":null}": {
    "{\"block_m\":128,\"block_n\":128,\"block_k\":128,\"num_stages\":2,\"split_k\":1,\"split_m\":1,\"persistent\":false,\"async_store\":false,\"post_scale\":false,\"collective\":true,\"grid_minor_dim\":0,\"grid_tile_width\":4}": {
      "compile_time_ms": 958.7766130000546,
      "lower_time_ms": 262.452046999897,
      "evaluation_times_ms": [
        4.819834,
        4.714681,
        4.723066,
        4.721434,
        4.719098
      ],
      "metadata": {},
      "peak_memory_mb": 7168.033187866211
    }
  },
  "{\"lhs\":\"bf16[524288,1536]\",\"rhs\":\"bf16[524288,4096]\",\"group_sizes\":{\"num_groups\":524288,\"total_size\":524288},\"ragged_dot_dimension_numbers\":{\"dot_dimension_numbers\":[[[0],[0]],[[],[]]],\"lhs_ragged_dimensions\":[0],\"rhs_group_dimensions\":[]},\"precision\":[\"DEFAULT\",\"DEFAULT\"],\"preferred_element_type\":null,\"return_residuals\":false,\"activation\":null}": {},
  "{\"lhs\":\"bf16[262144,1536]\",\"rhs\":\"bf16[128,4096,1536]\",\"group_sizes\":{\"num_groups\":128,\"total_size\":262144},\"ragged_dot_dimension_numbers\":{\"dot_dimension_numbers\":[[[1],[2]],[[],[]]],\"lhs_ragged_dimensions\":[0],\"rhs_group_dimensions\":[0]},\"precision\":[\"DEFAULT\",\"DEFAULT\"],\"preferred_element_type\":null,\"return_residuals\":false,\"activation\":null}": {
    "{\"block_m\":128,\"block_n\":128,\"block_k\":128,\"num_stages\":2,\"split_k\":1,\"split_m\":1,\"persistent\":false,\"async_store\":false,\"post_scale\":false,\"collective\":true,\"grid_minor_dim\":0,\"grid_tile_width\":4}": {
      "compile_time_ms": 952.8693280000198,
      "lower_time_ms": 272.8659010000456,
      "evaluation_times_ms": [
        2.500487,
        2.518439,
        2.518375,
        2.51668,
        2.515079
      ],
      "metadata": {},
      "peak_memory_mb": 4352.017562866211
    }
  },
  "{\"lhs\":\"bf16[262144,4096]\",\"rhs\":\"bf16[262144,1536]\",\"group_sizes\":{\"num_groups\":262144,\"total_size\":262144},\"ragged_dot_dimension_numbers\":{\"dot_dimension_numbers\":[[[0],[0]],[[],[]]],\"lhs_ragged_dimensions\":[0],\"rhs_group_dimensions\":[]},\"precision\":[\"DEFAULT\",\"DEFAULT\"],\"preferred_element_type\":null,\"return_residuals\":false,\"activation\":null}": {},
  "{\"lhs\":\"bf16[262144,4096]\",\"rhs\":\"bf16[128,1536,4096]\",\"group_sizes\":{\"num_groups\":128,\"total_size\":262144},\"ragged_dot_dimension_numbers\":{\"dot_dimension_numbers\":[[[1],[2]],[[],[]]],\"lhs_ragged_dimensions\":[0],\"rhs_group_dimensions\":[0]},\"precision\":[\"DEFAULT\",\"DEFAULT\"],\"preferred_element_type\":null,\"return_residuals\":false,\"activation\":null}": {
    "{\"block_m\":128,\"block_n\":128,\"block_k\":128,\"num_stages\":2,\"split_k\":1,\"split_m\":2,\"persistent\":false,\"async_store\":false,\"post_scale\":false,\"collective\":true,\"grid_minor_dim\":0,\"grid_tile_width\":2}": {
      "compile_time_ms": 1269.1895159998694,
      "lower_time_ms": 263.506604999975,
      "evaluation_times_ms": [
        2.555285,
        2.559702,
        2.519093,
        2.516564,
        2.522709
      ],
      "metadata": {},
      "peak_memory_mb": 4352.017562866211
    }
  },
  "{\"lhs\":\"bf16[262144,1536]\",\"rhs\":\"bf16[262144,4096]\",\"group_sizes\":{\"num_groups\":262144,\"total_size\":262144},\"ragged_dot_dimension_numbers\":{\"dot_dimension_numbers\":[[[0],[0]],[[],[]]],\"lhs_ragged_dimensions\":[0],\"rhs_group_dimensions\":[]},\"precision\":[\"DEFAULT\",\"DEFAULT\"],\"preferred_element_type\":null,\"return_residuals\":false,\"activation\":null}": {},
  "{\"lhs\":\"bf16[131072,2048]\",\"rhs\":\"bf16[128,7168,2048]\",\"group_sizes\":{\"num_groups\":128,\"total_size\":131072},\"ragged_dot_dimension_numbers\":{\"dot_dimension_numbers\":[[[1],[2]],[[],[]]],\"lhs_ragged_dimensions\":[0],\"rhs_group_dimensions\":[0]},\"precision\":[\"DEFAULT\",\"DEFAULT\"],\"preferred_element_type\":null,\"return_residuals\":false,\"activation\":null}": {
    "{\"block_m\":128,\"block_n\":128,\"block_k\":128,\"num_stages\":2,\"split_k\":1,\"split_m\":2,\"persistent\":false,\"async_store\":false,\"post_scale\":false,\"collective\":true,\"grid_minor_dim\":0,\"grid_tile_width\":2}": {
      "compile_time_ms": 667.4030429999789,
      "lower_time_ms": 242.5043819999928,
      "evaluation_times_ms": [
        3.091077,
        3.078088,
        3.075049,
        3.073993,
        3.075912
      ],
      "metadata": {},
      "peak_memory_mb": 5888.009750366211
    }
  },
  "{\"lhs\":\"bf16[131072,7168]\",\"rhs\":\"bf16[131072,2048]\",\"group_sizes\":{\"num_groups\":131072,\"total_size\":131072},\"ragged_dot_dimension_numbers\":{\"dot_dimension_numbers\":[[[0],[0]],[[],[]]],\"lhs_ragged_dimensions\":[0],\"rhs_group_dimensions\":[]},\"precision\":[\"DEFAULT\",\"DEFAULT\"],\"preferred_element_type\":null,\"return_residuals\":false,\"activation\":null}": {},
  "{\"lhs\":\"bf16[131072,768]\",\"rhs\":\"bf16[128,2048,768]\",\"group_sizes\":{\"num_groups\":128,\"total_size\":131072},\"ragged_dot_dimension_numbers\":{\"dot_dimension_numbers\":[[[1],[2]],[[],[]]],\"lhs_ragged_dimensions\":[0],\"rhs_group_dimensions\":[0]},\"precision\":[\"DEFAULT\",\"DEFAULT\"],\"preferred_element_type\":null,\"return_residuals\":false,\"activation\":null}": {
    "{\"block_m\":128,\"block_n\":128,\"block_k\":128,\"num_stages\":2,\"split_k\":1,\"split_m\":2,\"persistent\":false,\"async_store\":false,\"post_scale\":false,\"collective\":true,\"grid_minor_dim\":0,\"grid_tile_width\":8}": {
      "compile_time_ms": 1654.2927010000312,
      "lower_time_ms": 547.5398670000686,
      "evaluation_times_ms": [
        0.382335,
        0.374178,
        0.37341,
        0.375552,
        0.37485
      ],
      "metadata": {},
      "peak_memory_mb": 1088.009750366211
    }
  },
  "{\"lhs\":\"bf16[131072,2048]\",\"rhs\":\"bf16[131072,768]\",\"group_sizes\":{\"num_groups\":131072,\"total_size\":131072},\"ragged_dot_dimension_numbers\":{\"dot_dimension_numbers\":[[[0],[0]],[[],[]]],\"lhs_ragged_dimensions\":[0],\"rhs_group_dimensions\":[]},\"precision\":[\"DEFAULT\",\"DEFAULT\"],\"preferred_element_type\":null,\"return_residuals\":false,\"activation\":null}": {},
  "{\"lhs\":\"bf16[131072,1536]\",\"rhs\":\"bf16[128,4096,1536]\",\"group_sizes\":{\"num_groups\":128,\"total_size\":131072},\"ragged_dot_dimension_numbers\":{\"dot_dimension_numbers\":[[[1],[2]],[[],[]]],\"lhs_ragged_dimensions\":[0],\"rhs_group_dimensions\":[0]},\"precision\":[\"DEFAULT\",\"DEFAULT\"],\"preferred_element_type\":null,\"return_residuals\":false,\"activation\":null}": {
    "{\"block_m\":128,\"block_n\":128,\"block_k\":128,\"num_stages\":2,\"split_k\":1,\"split_m\":1,\"persistent\":false,\"async_store\":false,\"post_scale\":false,\"collective\":true,\"grid_minor_dim\":0,\"grid_tile_width\":4}": {
      "compile_time_ms": 847.4344740000106,
      "lower_time_ms": 375.4757189999509,
      "evaluation_times_ms": [
        1.36019,
        1.359038,
        1.36131,
        1.359358,
        1.357694
      ],
      "metadata": {},
      "peak_memory_mb": 2944.009750366211
    }
  },
  "{\"lhs\":\"bf16[131072,4096]\",\"rhs\":\"bf16[131072,1536]\",\"group_sizes\":{\"num_groups\":131072,\"total_size\":131072},\"ragged_dot_dimension_numbers\":{\"dot_dimension_numbers\":[[[0],[0]],[[],[]]],\"lhs_ragged_dimensions\":[0],\"rhs_group_dimensions\":[]},\"precision\":[\"DEFAULT\",\"DEFAULT\"],\"preferred_element_type\":null,\"return_residuals\":false,\"activation\":null}": {},
  "{\"lhs\":\"bf16[131072,4096]\",\"rhs\":\"bf16[128,1536,4096]\",\"group_sizes\":{\"num_groups\":128,\"total_size\":131072},\"ragged_dot_dimension_numbers\":{\"dot_dimension_numbers\":[[[1],[2]],[[],[]]],\"lhs_ragged_dimensions\":[0],\"rhs_group_dimensions\":[0]},\"precision\":[\"DEFAULT\",\"DEFAULT\"],\"preferred_element_type\":null,\"return_residuals\":false,\"activation\":null}": {
    "{\"block_m\":64,\"block_n\":128,\"block_k\":256,\"num_stages\":2,\"split_k\":1,\"split_m\":2,\"persistent\":true,\"async_store\":false,\"post_scale\":false,\"collective\":true,\"grid_minor_dim\":0,\"grid_tile_width\":4}": {
      "compile_time_ms": 121.27931899999567,
      "lower_time_ms": 290.94947900000534,
      "evaluation_times_ms": [
        1.377528,
        1.385562,
        1.382618,
        1.379448,
        1.378873
      ],
      "metadata": {},
      "peak_memory_mb": 2944.017562866211
    }
  },
  "{\"lhs\":\"bf16[131072,1536]\",\"rhs\":\"bf16[131072,4096]\",\"group_sizes\":{\"num_groups\":131072,\"total_size\":131072},\"ragged_dot_dimension_numbers\":{\"dot_dimension_numbers\":[[[0],[0]],[[],[]]],\"lhs_ragged_dimensions\":[0],\"rhs_group_dimensions\":[]},\"precision\":[\"DEFAULT\",\"DEFAULT\"],\"preferred_element_type\":null,\"return_residuals\":false,\"activation\":null}": {},
  "{\"lhs\":\"bf16[131072,2048]\",\"rhs\":\"bf16[256,7168,2048]\",\"group_sizes\":{\"num_groups\":256,\"total_size\":131072},\"ragged_dot_dimension_numbers\":{\"dot_dimension_numbers\":[[[1],[2]],[[],[]]],\"lhs_ragged_dimensions\":[0],\"rhs_group_dimensions\":[0]},\"precision\":[\"DEFAULT\",\"DEFAULT\"],\"preferred_element_type\":null,\"return_residuals\":false,\"activation\":null}": {
    "{\"block_m\":64,\"block_n\":128,\"block_k\":256,\"num_stages\":2,\"split_k\":1,\"split_m\":1,\"persistent\":true,\"async_store\":false,\"post_scale\":true,\"collective\":true,\"grid_minor_dim\":0,\"grid_tile_width\":1}": {
      "compile_time_ms": 98.81244000007428,
      "lower_time_ms": 214.25276499985557,
      "evaluation_times_ms": [
        3.60335,
        3.603254,
        3.601493,
        3.600565,
        3.58139
      ],
      "metadata": {},
      "peak_memory_mb": 9472.019515991211
    }
  },
  "{\"lhs\":\"bf16[65536,2048]\",\"rhs\":\"bf16[256,7168,2048]\",\"group_sizes\":{\"num_groups\":256,\"total_size\":65536},\"ragged_dot_dimension_numbers\":{\"dot_dimension_numbers\":[[[1],[2]],[[],[]]],\"lhs_ragged_dimensions\":[0],\"rhs_group_dimensions\":[0]},\"precision\":[\"DEFAULT\",\"DEFAULT\"],\"preferred_element_type\":null,\"return_residuals\":false,\"activation\":null}": {
    "{\"block_m\":64,\"block_n\":128,\"block_k\":256,\"num_stages\":2,\"split_k\":1,\"split_m\":1,\"persistent\":true,\"async_store\":false,\"post_scale\":false,\"collective\":true,\"grid_minor_dim\":0,\"grid_tile_width\":1}": {
      "compile_time_ms": 80.08812399998533,
      "lower_time_ms": 215.06549900004757,
      "evaluation_times_ms": [
        2.078141,
        2.084765,
        2.086716,
        2.095197,
        2.092348
      ],
      "metadata": {},
      "peak_memory_mb": 8320.011703491211
    }
  },
  "{\"lhs\":\"bf16[65536,7168]\",\"rhs\":\"bf16[65536,2048]\",\"group_sizes\":{\"num_groups\":65536,\"total_size\":65536},\"ragged_dot_dimension_numbers\":{\"dot_dimension_numbers\":[[[0],[0]],[[],[]]],\"lhs_ragged_dimensions\":[0],\"rhs_group_dimensions\":[]},\"precision\":[\"DEFAULT\",\"DEFAULT\"],\"preferred_element_type\":null,\"return_residuals\":false,\"activation\":null}": {},
  "{\"lhs\":\"bf16[131072,512]\",\"rhs\":\"bf16[256,7168,512]\",\"group_sizes\":{\"num_groups\":256,\"total_size\":131072},\"ragged_dot_dimension_numbers\":{\"dot_dimension_numbers\":[[[1],[2]],[[],[]]],\"lhs_ragged_dimensions\":[0],\"rhs_group_dimensions\":[0]},\"precision\":[\"DEFAULT\",\"DEFAULT\"],\"preferred_element_type\":null,\"return_residuals\":false,\"activation\":null}": {
    "{\"block_m\":64,\"block_n\":128,\"block_k\":256,\"num_stages\":2,\"split_k\":1,\"split_m\":2,\"persistent\":true,\"async_store\":false,\"post_scale\":true,\"collective\":true,\"grid_minor_dim\":0,\"grid_tile_width\":2}": {
      "compile_time_ms": 94.50771799993163,
      "lower_time_ms": 1576.8366050001532,
      "evaluation_times_ms": [
        1.027035,
        1.022492,
        1.014588,
        1.01462,
        1.013404
      ],
      "metadata": {},
      "peak_memory_mb": 3712.019515991211
    }
  },
  "{\"lhs\":\"bf16[131072,7168]\",\"rhs\":\"bf16[131072,512]\",\"group_sizes\":{\"num_groups\":131072,\"total_size\":131072},\"ragged_dot_dimension_numbers\":{\"dot_dimension_numbers\":[[[0],[0]],[[],[]]],\"lhs_ragged_dimensions\":[0],\"rhs_group_dimensions\":[]},\"precision\":[\"DEFAULT\",\"DEFAULT\"],\"preferred_element_type\":null,\"return_residuals\":false,\"activation\":null}": {},
  "{\"lhs\":\"bf16[131072,7168]\",\"rhs\":\"bf16[256,512,7168]\",\"group_sizes\":{\"num_groups\":256,\"total_size\":131072},\"ragged_dot_dimension_numbers\":{\"dot_dimension_numbers\":[[[1],[2]],[[],[]]],\"lhs_ragged_dimensions\":[0],\"rhs_group_dimensions\":[0]},\"precision\":[\"DEFAULT\",\"DEFAULT\"],\"preferred_element_type\":null,\"return_residuals\":false,\"activation\":null}": {
    "{\"block_m\":128,\"block_n\":128,\"block_k\":128,\"num_stages\":2,\"split_k\":1,\"split_m\":2,\"persistent\":false,\"async_store\":false,\"post_scale\":false,\"collective\":true,\"grid_minor_dim\":1,\"grid_tile_width\":4}": {
      "compile_time_ms": 860.126173000026,
      "lower_time_ms": 431.97963900001923,
      "evaluation_times_ms": [
        0.949693,
        0.947838,
        0.943901,
        0.94419,
        0.943325
      ],
      "metadata": {},
      "peak_memory_mb": 3712.011703491211
    }
  }
}