{
  "{\"residuals\":[\"f32[32,32,4096]\",\"f32[32,32,4096]\"],\"out\":\"bf16[32,4096,32,128]\",\"dout\":\"bf16[32,4096,32,128]\",\"q\":\"bf16[32,4096,32,128]\",\"k\":\"bf16[32,4096,8,128]\",\"v\":\"bf16[32,4096,8,128]\",\"precision\":[[\"DEFAULT\",\"DEFAULT\"],[\"DEFAULT\",\"DEFAULT\"]],\"logits_dtype\":\"float32\",\"logits_scale\":0.08838834764831843,\"bias\":null,\"logits_soft_cap\":null,\"mask\":{\"bool_mask\":null,\"q_start\":null,\"q_end\":null,\"k_start\":null,\"k_end\":null,\"is_causal\":true},\"dropout_mask\":null,\"dropout_rate\":0.0,\"paging_info\":null,\"q_indices\":null,\"k_indices\":null,\"normalize_output\":true,\"return_residuals\":false}": {
    "{\"block_q_dkv\":2048,\"block_kv_dkv\":2048,\"block_kv_dkv_compute\":512,\"use_base2_exp\":true}": {
      "compile_time_ms": 12226.300178968813,
      "lower_time_ms": 1642.914944968652,
      "evaluation_times_ms": [
        45.206,
        45.196,
        45.201,
        45.209,
        45.205
      ],
      "metadata": {
        "peak_memory_mb": 8992.001007080078
      }
    }
  },
  "{\"residuals\":[\"f32[512,16,1024]\",\"f32[512,16,1024]\"],\"out\":\"bf16[512,1024,16,128]\",\"dout\":\"bf16[512,1024,16,128]\",\"q\":\"bf16[512,1024,16,192]\",\"k\":\"bf16[512,1024,16,192]\",\"v\":\"bf16[512,1024,16,128]\",\"precision\":[[\"DEFAULT\",\"DEFAULT\"],[\"DEFAULT\",\"DEFAULT\"]],\"logits_dtype\":\"float32\",\"logits_scale\":0.07216878364870323,\"bias\":null,\"logits_soft_cap\":null,\"mask\":{\"bool_mask\":null,\"q_start\":null,\"q_end\":null,\"k_start\":null,\"k_end\":null,\"is_causal\":true},\"dropout_mask\":null,\"dropout_rate\":0.0,\"paging_info\":null,\"q_indices\":null,\"k_indices\":null,\"normalize_output\":true,\"return_residuals\":false}": {
    "{\"block_q_dkv\":1024,\"block_kv_dkv\":1024,\"block_kv_dkv_compute\":1024,\"use_base2_exp\":true}": {
      "compile_time_ms": 1640.1303590391763,
      "lower_time_ms": 119.55735099036247,
      "evaluation_times_ms": [
        61.921,
        61.886,
        61.901,
        61.891,
        61.907
      ],
      "metadata": {
        "peak_memory_mb": 39232.00051879883
      }
    }
  },
  "{\"residuals\":[\"f32[384,4,384]\",\"f32[384,4,384]\"],\"out\":\"bf16[384,384,4,32]\",\"dout\":\"bf16[384,384,4,32]\",\"q\":\"bf16[384,384,4,32]\",\"k\":\"bf16[384,384,4,32]\",\"v\":\"bf16[384,384,4,32]\",\"precision\":[[\"DEFAULT\",\"DEFAULT\"],[\"DEFAULT\",\"DEFAULT\"]],\"logits_dtype\":\"float32\",\"logits_scale\":0.17677669529663687,\"bias\":\"bf16[1,4,384,384]\",\"logits_soft_cap\":null,\"mask\":{\"bool_mask\":\"bool[384,1,1,384]\",\"q_start\":null,\"q_end\":null,\"k_start\":null,\"k_end\":null,\"is_causal\":false},\"dropout_mask\":null,\"dropout_rate\":0.0,\"paging_info\":null,\"q_indices\":null,\"k_indices\":null,\"normalize_output\":true,\"return_residuals\":false}": {},
  "{\"residuals\":[\"f32[384,4,384]\",\"f32[384,4,384]\"],\"out\":\"bf16[384,384,4,64]\",\"dout\":\"bf16[384,384,4,64]\",\"q\":\"bf16[384,384,4,64]\",\"k\":\"bf16[384,384,4,64]\",\"v\":\"bf16[384,384,4,64]\",\"precision\":[[\"DEFAULT\",\"DEFAULT\"],[\"DEFAULT\",\"DEFAULT\"]],\"logits_dtype\":\"float32\",\"logits_scale\":0.125,\"bias\":\"bf16[1,4,384,384]\",\"logits_soft_cap\":null,\"mask\":{\"bool_mask\":\"bool[384,1,1,384]\",\"q_start\":null,\"q_end\":null,\"k_start\":null,\"k_end\":null,\"is_causal\":false},\"dropout_mask\":null,\"dropout_rate\":0.0,\"paging_info\":null,\"q_indices\":null,\"k_indices\":null,\"normalize_output\":true,\"return_residuals\":false}": {},
  "{\"residuals\":[\"f32[768,4,768]\",\"f32[768,4,768]\"],\"out\":\"bf16[768,768,4,64]\",\"dout\":\"bf16[768,768,4,64]\",\"q\":\"bf16[768,768,4,64]\",\"k\":\"bf16[768,768,4,64]\",\"v\":\"bf16[768,768,4,64]\",\"precision\":[[\"DEFAULT\",\"DEFAULT\"],[\"DEFAULT\",\"DEFAULT\"]],\"logits_dtype\":\"float32\",\"logits_scale\":0.125,\"bias\":\"bf16[1,4,768,768]\",\"logits_soft_cap\":null,\"mask\":{\"bool_mask\":\"bool[768,1,1,768]\",\"q_start\":null,\"q_end\":null,\"k_start\":null,\"k_end\":null,\"is_causal\":false},\"dropout_mask\":null,\"dropout_rate\":0.0,\"paging_info\":null,\"q_indices\":null,\"k_indices\":null,\"normalize_output\":true,\"return_residuals\":false}": {},
  "{\"residuals\":[\"f32[32,32,512]\",\"f32[32,32,512]\"],\"out\":\"bf16[32,512,32,64]\",\"dout\":\"bf16[32,512,32,64]\",\"q\":\"bf16[32,512,32,64]\",\"k\":\"bf16[32,512,32,64]\",\"v\":\"bf16[32,512,32,64]\",\"precision\":[[\"DEFAULT\",\"DEFAULT\"],[\"DEFAULT\",\"DEFAULT\"]],\"logits_dtype\":\"float32\",\"logits_scale\":0.125,\"bias\":null,\"logits_soft_cap\":null,\"mask\":{\"bool_mask\":null,\"q_start\":null,\"q_end\":null,\"k_start\":null,\"k_end\":null,\"is_causal\":true},\"dropout_mask\":null,\"dropout_rate\":0.0,\"paging_info\":null,\"q_indices\":null,\"k_indices\":null,\"normalize_output\":true,\"return_residuals\":false}": {
    "{\"block_q_dkv\":512,\"block_kv_dkv\":512,\"block_kv_dkv_compute\":512,\"use_base2_exp\":true}": {
      "compile_time_ms": 1422.0261659938842,
      "lower_time_ms": 203.86631099972874,
      "evaluation_times_ms": [
        2.58,
        2.587,
        2.585,
        2.584,
        2.586
      ],
      "metadata": {
        "peak_memory_mb": 1412.0005187988281
      }
    }
  },
  "{\"residuals\":[\"f32[8,32,2048]\",\"f32[8,32,2048]\"],\"out\":\"f16[8,2048,32,64]\",\"dout\":\"f16[8,2048,32,64]\",\"q\":\"f16[8,2048,32,64]\",\"k\":\"f16[8,2048,32,64]\",\"v\":\"f16[8,2048,32,64]\",\"precision\":[\"BF16_BF16_F32\",\"BF16_BF16_F32\"],\"logits_dtype\":\"float32\",\"logits_scale\":0.125,\"bias\":null,\"logits_soft_cap\":null,\"mask\":{\"bool_mask\":null,\"q_start\":null,\"q_end\":null,\"k_start\":null,\"k_end\":null,\"is_causal\":true},\"dropout_mask\":null,\"dropout_rate\":0.0,\"paging_info\":null,\"q_indices\":null,\"k_indices\":null,\"normalize_output\":true,\"return_residuals\":false}": {},
  "{\"residuals\":[\"f32[8,32,2048]\",\"f32[8,32,2048]\"],\"out\":\"bf16[8,2048,32,64]\",\"dout\":\"bf16[8,2048,32,64]\",\"q\":\"bf16[8,2048,32,64]\",\"k\":\"bf16[8,2048,32,64]\",\"v\":\"bf16[8,2048,32,64]\",\"precision\":[[\"DEFAULT\",\"DEFAULT\"],[\"DEFAULT\",\"DEFAULT\"]],\"logits_dtype\":\"float32\",\"logits_scale\":0.125,\"bias\":null,\"logits_soft_cap\":null,\"mask\":{\"bool_mask\":null,\"q_start\":null,\"q_end\":null,\"k_start\":null,\"k_end\":null,\"is_causal\":false},\"dropout_mask\":null,\"dropout_rate\":0.0,\"paging_info\":null,\"q_indices\":null,\"k_indices\":null,\"normalize_output\":true,\"return_residuals\":false}": {
    "{\"block_q_dkv\":2048,\"block_kv_dkv\":2048,\"block_kv_dkv_compute\":512,\"use_base2_exp\":true}": {
      "compile_time_ms": 4033.2294680410996,
      "lower_time_ms": 642.5607829587534,
      "evaluation_times_ms": [
        4.476,
        4.476,
        4.484,
        4.48,
        4.478
      ],
      "metadata": {
        "peak_memory_mb": 1412.0000305175781
      }
    }
  },
  "{\"residuals\":[\"f32[8,32,2048]\",\"f32[8,32,2048]\"],\"out\":\"f16[8,2048,32,64]\",\"dout\":\"f16[8,2048,32,64]\",\"q\":\"f16[8,2048,32,64]\",\"k\":\"f16[8,2048,32,64]\",\"v\":\"f16[8,2048,32,64]\",\"precision\":[\"BF16_BF16_F32\",\"BF16_BF16_F32\"],\"logits_dtype\":\"float32\",\"logits_scale\":0.125,\"bias\":null,\"logits_soft_cap\":null,\"mask\":{\"bool_mask\":null,\"q_start\":null,\"q_end\":null,\"k_start\":null,\"k_end\":null,\"is_causal\":false},\"dropout_mask\":null,\"dropout_rate\":0.0,\"paging_info\":null,\"q_indices\":null,\"k_indices\":null,\"normalize_output\":true,\"return_residuals\":false}": {},
  "{\"residuals\":[\"f32[8,16,2048]\",\"f32[8,16,2048]\"],\"out\":\"bf16[8,2048,16,128]\",\"dout\":\"bf16[8,2048,16,128]\",\"q\":\"bf16[8,2048,16,128]\",\"k\":\"bf16[8,2048,16,128]\",\"v\":\"bf16[8,2048,16,128]\",\"precision\":[[\"DEFAULT\",\"DEFAULT\"],[\"DEFAULT\",\"DEFAULT\"]],\"logits_dtype\":\"float32\",\"logits_scale\":0.08838834764831843,\"bias\":null,\"logits_soft_cap\":null,\"mask\":{\"bool_mask\":null,\"q_start\":null,\"q_end\":null,\"k_start\":null,\"k_end\":null,\"is_causal\":true},\"dropout_mask\":null,\"dropout_rate\":0.0,\"paging_info\":null,\"q_indices\":null,\"k_indices\":null,\"normalize_output\":true,\"return_residuals\":false}": {
    "{\"block_q_dkv\":1024,\"block_kv_dkv\":1024,\"block_kv_dkv_compute\":512,\"use_base2_exp\":true}": {
      "compile_time_ms": 3001.168131013401,
      "lower_time_ms": 663.041642983444,
      "evaluation_times_ms": [
        2.1,
        2.099,
        2.1,
        2.101,
        2.1
      ],
      "metadata": {
        "peak_memory_mb": 834.0010070800781
      }
    }
  },
  "{\"residuals\":[\"f32[8,16,2048]\",\"f32[8,16,2048]\"],\"out\":\"f16[8,2048,16,128]\",\"dout\":\"f16[8,2048,16,128]\",\"q\":\"f16[8,2048,16,128]\",\"k\":\"f16[8,2048,16,128]\",\"v\":\"f16[8,2048,16,128]\",\"precision\":[\"BF16_BF16_F32\",\"BF16_BF16_F32\"],\"logits_dtype\":\"float32\",\"logits_scale\":0.08838834764831843,\"bias\":null,\"logits_soft_cap\":null,\"mask\":{\"bool_mask\":null,\"q_start\":null,\"q_end\":null,\"k_start\":null,\"k_end\":null,\"is_causal\":true},\"dropout_mask\":null,\"dropout_rate\":0.0,\"paging_info\":null,\"q_indices\":null,\"k_indices\":null,\"normalize_output\":true,\"return_residuals\":false}": {},
  "{\"residuals\":[\"f32[8,16,2048]\",\"f32[8,16,2048]\"],\"out\":\"bf16[8,2048,16,128]\",\"dout\":\"bf16[8,2048,16,128]\",\"q\":\"bf16[8,2048,16,128]\",\"k\":\"bf16[8,2048,16,128]\",\"v\":\"bf16[8,2048,16,128]\",\"precision\":[[\"DEFAULT\",\"DEFAULT\"],[\"DEFAULT\",\"DEFAULT\"]],\"logits_dtype\":\"float32\",\"logits_scale\":0.08838834764831843,\"bias\":null,\"logits_soft_cap\":null,\"mask\":{\"bool_mask\":null,\"q_start\":null,\"q_end\":null,\"k_start\":null,\"k_end\":null,\"is_causal\":false},\"dropout_mask\":null,\"dropout_rate\":0.0,\"paging_info\":null,\"q_indices\":null,\"k_indices\":null,\"normalize_output\":true,\"return_residuals\":false}": {
    "{\"block_q_dkv\":2048,\"block_kv_dkv\":2048,\"block_kv_dkv_compute\":512,\"use_base2_exp\":true}": {
      "compile_time_ms": 2819.377413019538,
      "lower_time_ms": 266.0695379599929,
      "evaluation_times_ms": [
        2.022,
        2.022,
        2.023,
        2.021,
        2.023
      ],
      "metadata": {
        "peak_memory_mb": 770.0000305175781
      }
    }
  },
  "{\"residuals\":[\"f32[8,16,2048]\",\"f32[8,16,2048]\"],\"out\":\"f16[8,2048,16,128]\",\"dout\":\"f16[8,2048,16,128]\",\"q\":\"f16[8,2048,16,128]\",\"k\":\"f16[8,2048,16,128]\",\"v\":\"f16[8,2048,16,128]\",\"precision\":[\"BF16_BF16_F32\",\"BF16_BF16_F32\"],\"logits_dtype\":\"float32\",\"logits_scale\":0.08838834764831843,\"bias\":null,\"logits_soft_cap\":null,\"mask\":{\"bool_mask\":null,\"q_start\":null,\"q_end\":null,\"k_start\":null,\"k_end\":null,\"is_causal\":false},\"dropout_mask\":null,\"dropout_rate\":0.0,\"paging_info\":null,\"q_indices\":null,\"k_indices\":null,\"normalize_output\":true,\"return_residuals\":false}": {},
  "{\"residuals\":[\"f32[8,8,2048]\",\"f32[8,8,2048]\"],\"out\":\"bf16[8,2048,8,256]\",\"dout\":\"bf16[8,2048,8,256]\",\"q\":\"bf16[8,2048,8,256]\",\"k\":\"bf16[8,2048,8,256]\",\"v\":\"bf16[8,2048,8,256]\",\"precision\":[[\"DEFAULT\",\"DEFAULT\"],[\"DEFAULT\",\"DEFAULT\"]],\"logits_dtype\":\"float32\",\"logits_scale\":0.0625,\"bias\":null,\"logits_soft_cap\":null,\"mask\":{\"bool_mask\":null,\"q_start\":null,\"q_end\":null,\"k_start\":null,\"k_end\":null,\"is_causal\":true},\"dropout_mask\":null,\"dropout_rate\":0.0,\"paging_info\":null,\"q_indices\":null,\"k_indices\":null,\"normalize_output\":true,\"return_residuals\":false}": {
    "{\"block_q_dkv\":2048,\"block_kv_dkv\":2048,\"block_kv_dkv_compute\":512,\"use_base2_exp\":true}": {
      "compile_time_ms": 8975.826957030222,
      "lower_time_ms": 653.7683170172386,
      "evaluation_times_ms": [
        1.505,
        1.505,
        1.504,
        1.504,
        1.504
      ],
      "metadata": {
        "peak_memory_mb": 769.0005187988281
      }
    }
  },
  "{\"residuals\":[\"f32[8,8,2048]\",\"f32[8,8,2048]\"],\"out\":\"f16[8,2048,8,256]\",\"dout\":\"f16[8,2048,8,256]\",\"q\":\"f16[8,2048,8,256]\",\"k\":\"f16[8,2048,8,256]\",\"v\":\"f16[8,2048,8,256]\",\"precision\":[\"BF16_BF16_F32\",\"BF16_BF16_F32\"],\"logits_dtype\":\"float32\",\"logits_scale\":0.0625,\"bias\":null,\"logits_soft_cap\":null,\"mask\":{\"bool_mask\":null,\"q_start\":null,\"q_end\":null,\"k_start\":null,\"k_end\":null,\"is_causal\":true},\"dropout_mask\":null,\"dropout_rate\":0.0,\"paging_info\":null,\"q_indices\":null,\"k_indices\":null,\"normalize_output\":true,\"return_residuals\":false}": {},
  "{\"residuals\":[\"f32[8,8,2048]\",\"f32[8,8,2048]\"],\"out\":\"bf16[8,2048,8,256]\",\"dout\":\"bf16[8,2048,8,256]\",\"q\":\"bf16[8,2048,8,256]\",\"k\":\"bf16[8,2048,8,256]\",\"v\":\"bf16[8,2048,8,256]\",\"precision\":[[\"DEFAULT\",\"DEFAULT\"],[\"DEFAULT\",\"DEFAULT\"]],\"logits_dtype\":\"float32\",\"logits_scale\":0.0625,\"bias\":null,\"logits_soft_cap\":null,\"mask\":{\"bool_mask\":null,\"q_start\":null,\"q_end\":null,\"k_start\":null,\"k_end\":null,\"is_causal\":false},\"dropout_mask\":null,\"dropout_rate\":0.0,\"paging_info\":null,\"q_indices\":null,\"k_indices\":null,\"normalize_output\":true,\"return_residuals\":false}": {
    "{\"block_q_dkv\":2048,\"block_kv_dkv\":2048,\"block_kv_dkv_compute\":512,\"use_base2_exp\":true}": {
      "compile_time_ms": 5174.748510005884,
      "lower_time_ms": 387.0832810061984,
      "evaluation_times_ms": [
        1.388,
        1.39,
        1.39,
        1.389,
        1.389
      ],
      "metadata": {
        "peak_memory_mb": 769.0000305175781
      }
    }
  },
  "{\"residuals\":[\"f32[8,8,2048]\",\"f32[8,8,2048]\"],\"out\":\"f16[8,2048,8,256]\",\"dout\":\"f16[8,2048,8,256]\",\"q\":\"f16[8,2048,8,256]\",\"k\":\"f16[8,2048,8,256]\",\"v\":\"f16[8,2048,8,256]\",\"precision\":[\"BF16_BF16_F32\",\"BF16_BF16_F32\"],\"logits_dtype\":\"float32\",\"logits_scale\":0.0625,\"bias\":null,\"logits_soft_cap\":null,\"mask\":{\"bool_mask\":null,\"q_start\":null,\"q_end\":null,\"k_start\":null,\"k_end\":null,\"is_causal\":false},\"dropout_mask\":null,\"dropout_rate\":0.0,\"paging_info\":null,\"q_indices\":null,\"k_indices\":null,\"normalize_output\":true,\"return_residuals\":false}": {},
  "{\"residuals\":[\"f32[4,32,4096]\",\"f32[4,32,4096]\"],\"out\":\"bf16[4,4096,32,64]\",\"dout\":\"bf16[4,4096,32,64]\",\"q\":\"bf16[4,4096,32,64]\",\"k\":\"bf16[4,4096,32,64]\",\"v\":\"bf16[4,4096,32,64]\",\"precision\":[[\"DEFAULT\",\"DEFAULT\"],[\"DEFAULT\",\"DEFAULT\"]],\"logits_dtype\":\"float32\",\"logits_scale\":0.125,\"bias\":null,\"logits_soft_cap\":null,\"mask\":{\"bool_mask\":null,\"q_start\":null,\"q_end\":null,\"k_start\":null,\"k_end\":null,\"is_causal\":true},\"dropout_mask\":null,\"dropout_rate\":0.0,\"paging_info\":null,\"q_indices\":null,\"k_indices\":null,\"normalize_output\":true,\"return_residuals\":false}": {
    "{\"block_q_dkv\":2048,\"block_kv_dkv\":2048,\"block_kv_dkv_compute\":512,\"use_base2_exp\":true}": {
      "compile_time_ms": 6664.091891958378,
      "lower_time_ms": 994.8024700279348,
      "evaluation_times_ms": [
        6.376,
        6.378,
        6.378,
        6.375,
        6.379
      ],
      "metadata": {
        "peak_memory_mb": 1540.0010070800781
      }
    }
  },
  "{\"residuals\":[\"f32[4,32,4096]\",\"f32[4,32,4096]\"],\"out\":\"f16[4,4096,32,64]\",\"dout\":\"f16[4,4096,32,64]\",\"q\":\"f16[4,4096,32,64]\",\"k\":\"f16[4,4096,32,64]\",\"v\":\"f16[4,4096,32,64]\",\"precision\":[\"BF16_BF16_F32\",\"BF16_BF16_F32\"],\"logits_dtype\":\"float32\",\"logits_scale\":0.125,\"bias\":null,\"logits_soft_cap\":null,\"mask\":{\"bool_mask\":null,\"q_start\":null,\"q_end\":null,\"k_start\":null,\"k_end\":null,\"is_causal\":true},\"dropout_mask\":null,\"dropout_rate\":0.0,\"paging_info\":null,\"q_indices\":null,\"k_indices\":null,\"normalize_output\":true,\"return_residuals\":false}": {},
  "{\"residuals\":[\"f32[4,32,4096]\",\"f32[4,32,4096]\"],\"out\":\"bf16[4,4096,32,64]\",\"dout\":\"bf16[4,4096,32,64]\",\"q\":\"bf16[4,4096,32,64]\",\"k\":\"bf16[4,4096,32,64]\",\"v\":\"bf16[4,4096,32,64]\",\"precision\":[[\"DEFAULT\",\"DEFAULT\"],[\"DEFAULT\",\"DEFAULT\"]],\"logits_dtype\":\"float32\",\"logits_scale\":0.125,\"bias\":null,\"logits_soft_cap\":null,\"mask\":{\"bool_mask\":null,\"q_start\":null,\"q_end\":null,\"k_start\":null,\"k_end\":null,\"is_causal\":false},\"dropout_mask\":null,\"dropout_rate\":0.0,\"paging_info\":null,\"q_indices\":null,\"k_indices\":null,\"normalize_output\":true,\"return_residuals\":false}": {
    "{\"block_q_dkv\":1024,\"block_kv_dkv\":4096,\"block_kv_dkv_compute\":512,\"use_base2_exp\":true}": {
      "compile_time_ms": 6872.308332996909,
      "lower_time_ms": 1337.6803880091757,
      "evaluation_times_ms": [
        7.333,
        7.334,
        7.328,
        7.331,
        7.331
      ],
      "metadata": {
        "peak_memory_mb": 1412.0000305175781
      }
    }
  },
  "{\"residuals\":[\"f32[4,32,4096]\",\"f32[4,32,4096]\"],\"out\":\"f16[4,4096,32,64]\",\"dout\":\"f16[4,4096,32,64]\",\"q\":\"f16[4,4096,32,64]\",\"k\":\"f16[4,4096,32,64]\",\"v\":\"f16[4,4096,32,64]\",\"precision\":[\"BF16_BF16_F32\",\"BF16_BF16_F32\"],\"logits_dtype\":\"float32\",\"logits_scale\":0.125,\"bias\":null,\"logits_soft_cap\":null,\"mask\":{\"bool_mask\":null,\"q_start\":null,\"q_end\":null,\"k_start\":null,\"k_end\":null,\"is_causal\":false},\"dropout_mask\":null,\"dropout_rate\":0.0,\"paging_info\":null,\"q_indices\":null,\"k_indices\":null,\"normalize_output\":true,\"return_residuals\":false}": {},
  "{\"residuals\":[\"f32[4,16,4096]\",\"f32[4,16,4096]\"],\"out\":\"bf16[4,4096,16,128]\",\"dout\":\"bf16[4,4096,16,128]\",\"q\":\"bf16[4,4096,16,128]\",\"k\":\"bf16[4,4096,16,128]\",\"v\":\"bf16[4,4096,16,128]\",\"precision\":[[\"DEFAULT\",\"DEFAULT\"],[\"DEFAULT\",\"DEFAULT\"]],\"logits_dtype\":\"float32\",\"logits_scale\":0.08838834764831843,\"bias\":null,\"logits_soft_cap\":null,\"mask\":{\"bool_mask\":null,\"q_start\":null,\"q_end\":null,\"k_start\":null,\"k_end\":null,\"is_causal\":true},\"dropout_mask\":null,\"dropout_rate\":0.0,\"paging_info\":null,\"q_indices\":null,\"k_indices\":null,\"normalize_output\":true,\"return_residuals\":false}": {
    "{\"block_q_dkv\":2048,\"block_kv_dkv\":2048,\"block_kv_dkv_compute\":512,\"use_base2_exp\":true}": {
      "compile_time_ms": 8150.7541699684225,
      "lower_time_ms": 818.6621390050277,
      "evaluation_times_ms": [
        3.083,
        3.082,
        3.08,
        3.079,
        3.079
      ],
      "metadata": {
        "peak_memory_mb": 834.0010070800781
      }
    }
  },
  "{\"residuals\":[\"f32[4,16,4096]\",\"f32[4,16,4096]\"],\"out\":\"f16[4,4096,16,128]\",\"dout\":\"f16[4,4096,16,128]\",\"q\":\"f16[4,4096,16,128]\",\"k\":\"f16[4,4096,16,128]\",\"v\":\"f16[4,4096,16,128]\",\"precision\":[\"BF16_BF16_F32\",\"BF16_BF16_F32\"],\"logits_dtype\":\"float32\",\"logits_scale\":0.08838834764831843,\"bias\":null,\"logits_soft_cap\":null,\"mask\":{\"bool_mask\":null,\"q_start\":null,\"q_end\":null,\"k_start\":null,\"k_end\":null,\"is_causal\":true},\"dropout_mask\":null,\"dropout_rate\":0.0,\"paging_info\":null,\"q_indices\":null,\"k_indices\":null,\"normalize_output\":true,\"return_residuals\":false}": {},
  "{\"residuals\":[\"f32[4,16,4096]\",\"f32[4,16,4096]\"],\"out\":\"bf16[4,4096,16,128]\",\"dout\":\"bf16[4,4096,16,128]\",\"q\":\"bf16[4,4096,16,128]\",\"k\":\"bf16[4,4096,16,128]\",\"v\":\"bf16[4,4096,16,128]\",\"precision\":[[\"DEFAULT\",\"DEFAULT\"],[\"DEFAULT\",\"DEFAULT\"]],\"logits_dtype\":\"float32\",\"logits_scale\":0.08838834764831843,\"bias\":null,\"logits_soft_cap\":null,\"mask\":{\"bool_mask\":null,\"q_start\":null,\"q_end\":null,\"k_start\":null,\"k_end\":null,\"is_causal\":false},\"dropout_mask\":null,\"dropout_rate\":0.0,\"paging_info\":null,\"q_indices\":null,\"k_indices\":null,\"normalize_output\":true,\"return_residuals\":false}": {
    "{\"block_q_dkv\":2048,\"block_kv_dkv\":4096,\"block_kv_dkv_compute\":512,\"use_base2_exp\":true}": {
      "compile_time_ms": 10344.619876006618,
      "lower_time_ms": 787.8845360246487,
      "evaluation_times_ms": [
        3.459,
        3.46,
        3.458,
        3.459,
        3.458
      ],
      "metadata": {
        "peak_memory_mb": 770.0000305175781
      }
    }
  },
  "{\"residuals\":[\"f32[4,16,4096]\",\"f32[4,16,4096]\"],\"out\":\"f16[4,4096,16,128]\",\"dout\":\"f16[4,4096,16,128]\",\"q\":\"f16[4,4096,16,128]\",\"k\":\"f16[4,4096,16,128]\",\"v\":\"f16[4,4096,16,128]\",\"precision\":[\"BF16_BF16_F32\",\"BF16_BF16_F32\"],\"logits_dtype\":\"float32\",\"logits_scale\":0.08838834764831843,\"bias\":null,\"logits_soft_cap\":null,\"mask\":{\"bool_mask\":null,\"q_start\":null,\"q_end\":null,\"k_start\":null,\"k_end\":null,\"is_causal\":false},\"dropout_mask\":null,\"dropout_rate\":0.0,\"paging_info\":null,\"q_indices\":null,\"k_indices\":null,\"normalize_output\":true,\"return_residuals\":false}": {},
  "{\"residuals\":[\"f32[4,8,4096]\",\"f32[4,8,4096]\"],\"out\":\"bf16[4,4096,8,256]\",\"dout\":\"bf16[4,4096,8,256]\",\"q\":\"bf16[4,4096,8,256]\",\"k\":\"bf16[4,4096,8,256]\",\"v\":\"bf16[4,4096,8,256]\",\"precision\":[[\"DEFAULT\",\"DEFAULT\"],[\"DEFAULT\",\"DEFAULT\"]],\"logits_dtype\":\"float32\",\"logits_scale\":0.0625,\"bias\":null,\"logits_soft_cap\":null,\"mask\":{\"bool_mask\":null,\"q_start\":null,\"q_end\":null,\"k_start\":null,\"k_end\":null,\"is_causal\":true},\"dropout_mask\":null,\"dropout_rate\":0.0,\"paging_info\":null,\"q_indices\":null,\"k_indices\":null,\"normalize_output\":true,\"return_residuals\":false}": {
    "{\"block_q_dkv\":2048,\"block_kv_dkv\":2048,\"block_kv_dkv_compute\":512,\"use_base2_exp\":true}": {
      "compile_time_ms": 9066.171512997244,
      "lower_time_ms": 1091.9126200024039,
      "evaluation_times_ms": [
        1.912,
        1.913,
        1.912,
        1.913,
        1.911
      ],
      "metadata": {
        "peak_memory_mb": 833.0010070800781
      }
    }
  },
  "{\"residuals\":[\"f32[4,8,4096]\",\"f32[4,8,4096]\"],\"out\":\"f16[4,4096,8,256]\",\"dout\":\"f16[4,4096,8,256]\",\"q\":\"f16[4,4096,8,256]\",\"k\":\"f16[4,4096,8,256]\",\"v\":\"f16[4,4096,8,256]\",\"precision\":[\"BF16_BF16_F32\",\"BF16_BF16_F32\"],\"logits_dtype\":\"float32\",\"logits_scale\":0.0625,\"bias\":null,\"logits_soft_cap\":null,\"mask\":{\"bool_mask\":null,\"q_start\":null,\"q_end\":null,\"k_start\":null,\"k_end\":null,\"is_causal\":true},\"dropout_mask\":null,\"dropout_rate\":0.0,\"paging_info\":null,\"q_indices\":null,\"k_indices\":null,\"normalize_output\":true,\"return_residuals\":false}": {},
  "{\"residuals\":[\"f32[4,8,4096]\",\"f32[4,8,4096]\"],\"out\":\"bf16[4,4096,8,256]\",\"dout\":\"bf16[4,4096,8,256]\",\"q\":\"bf16[4,4096,8,256]\",\"k\":\"bf16[4,4096,8,256]\",\"v\":\"bf16[4,4096,8,256]\",\"precision\":[[\"DEFAULT\",\"DEFAULT\"],[\"DEFAULT\",\"DEFAULT\"]],\"logits_dtype\":\"float32\",\"logits_scale\":0.0625,\"bias\":null,\"logits_soft_cap\":null,\"mask\":{\"bool_mask\":null,\"q_start\":null,\"q_end\":null,\"k_start\":null,\"k_end\":null,\"is_causal\":false},\"dropout_mask\":null,\"dropout_rate\":0.0,\"paging_info\":null,\"q_indices\":null,\"k_indices\":null,\"normalize_output\":true,\"return_residuals\":false}": {
    "{\"block_q_dkv\":1024,\"block_kv_dkv\":4096,\"block_kv_dkv_compute\":512,\"use_base2_exp\":true}": {
      "compile_time_ms": 7584.252658998594,
      "lower_time_ms": 1295.1824929914437,
      "evaluation_times_ms": [
        2.036,
        2.036,
        2.035,
        2.035,
        2.036
      ],
      "metadata": {
        "peak_memory_mb": 769.0000305175781
      }
    }
  },
  "{\"residuals\":[\"f32[4,8,4096]\",\"f32[4,8,4096]\"],\"out\":\"f16[4,4096,8,256]\",\"dout\":\"f16[4,4096,8,256]\",\"q\":\"f16[4,4096,8,256]\",\"k\":\"f16[4,4096,8,256]\",\"v\":\"f16[4,4096,8,256]\",\"precision\":[\"BF16_BF16_F32\",\"BF16_BF16_F32\"],\"logits_dtype\":\"float32\",\"logits_scale\":0.0625,\"bias\":null,\"logits_soft_cap\":null,\"mask\":{\"bool_mask\":null,\"q_start\":null,\"q_end\":null,\"k_start\":null,\"k_end\":null,\"is_causal\":false},\"dropout_mask\":null,\"dropout_rate\":0.0,\"paging_info\":null,\"q_indices\":null,\"k_indices\":null,\"normalize_output\":true,\"return_residuals\":false}": {},
  "{\"residuals\":[\"f32[2,32,8192]\",\"f32[2,32,8192]\"],\"out\":\"bf16[2,8192,32,64]\",\"dout\":\"bf16[2,8192,32,64]\",\"q\":\"bf16[2,8192,32,64]\",\"k\":\"bf16[2,8192,32,64]\",\"v\":\"bf16[2,8192,32,64]\",\"precision\":[[\"DEFAULT\",\"DEFAULT\"],[\"DEFAULT\",\"DEFAULT\"]],\"logits_dtype\":\"float32\",\"logits_scale\":0.125,\"bias\":null,\"logits_soft_cap\":null,\"mask\":{\"bool_mask\":null,\"q_start\":null,\"q_end\":null,\"k_start\":null,\"k_end\":null,\"is_causal\":true},\"dropout_mask\":null,\"dropout_rate\":0.0,\"paging_info\":null,\"q_indices\":null,\"k_indices\":null,\"normalize_output\":true,\"return_residuals\":false}": {
    "{\"block_q_dkv\":2048,\"block_kv_dkv\":2048,\"block_kv_dkv_compute\":512,\"use_base2_exp\":true}": {
      "compile_time_ms": 10557.54899297608,
      "lower_time_ms": 2605.563160032034,
      "evaluation_times_ms": [
        9.7,
        9.707,
        9.704,
        9.705,
        9.707
      ],
      "metadata": {
        "peak_memory_mb": 1796.0010070800781
      }
    }
  },
  "{\"residuals\":[\"f32[2,32,8192]\",\"f32[2,32,8192]\"],\"out\":\"f16[2,8192,32,64]\",\"dout\":\"f16[2,8192,32,64]\",\"q\":\"f16[2,8192,32,64]\",\"k\":\"f16[2,8192,32,64]\",\"v\":\"f16[2,8192,32,64]\",\"precision\":[\"BF16_BF16_F32\",\"BF16_BF16_F32\"],\"logits_dtype\":\"float32\",\"logits_scale\":0.125,\"bias\":null,\"logits_soft_cap\":null,\"mask\":{\"bool_mask\":null,\"q_start\":null,\"q_end\":null,\"k_start\":null,\"k_end\":null,\"is_causal\":true},\"dropout_mask\":null,\"dropout_rate\":0.0,\"paging_info\":null,\"q_indices\":null,\"k_indices\":null,\"normalize_output\":true,\"return_residuals\":false}": {},
  "{\"residuals\":[\"f32[2,32,8192]\",\"f32[2,32,8192]\"],\"out\":\"bf16[2,8192,32,64]\",\"dout\":\"bf16[2,8192,32,64]\",\"q\":\"bf16[2,8192,32,64]\",\"k\":\"bf16[2,8192,32,64]\",\"v\":\"bf16[2,8192,32,64]\",\"precision\":[[\"DEFAULT\",\"DEFAULT\"],[\"DEFAULT\",\"DEFAULT\"]],\"logits_dtype\":\"float32\",\"logits_scale\":0.125,\"bias\":null,\"logits_soft_cap\":null,\"mask\":{\"bool_mask\":null,\"q_start\":null,\"q_end\":null,\"k_start\":null,\"k_end\":null,\"is_causal\":false},\"dropout_mask\":null,\"dropout_rate\":0.0,\"paging_info\":null,\"q_indices\":null,\"k_indices\":null,\"normalize_output\":true,\"return_residuals\":false}": {
    "{\"block_q_dkv\":2048,\"block_kv_dkv\":4096,\"block_kv_dkv_compute\":512,\"use_base2_exp\":true}": {
      "compile_time_ms": 10690.380264015403,
      "lower_time_ms": 2172.819482977502,
      "evaluation_times_ms": [
        13.179,
        13.175,
        13.177,
        13.17,
        13.175
      ],
      "metadata": {
        "peak_memory_mb": 1540.0005187988281
      }
    }
  },
  "{\"residuals\":[\"f32[2,32,8192]\",\"f32[2,32,8192]\"],\"out\":\"f16[2,8192,32,64]\",\"dout\":\"f16[2,8192,32,64]\",\"q\":\"f16[2,8192,32,64]\",\"k\":\"f16[2,8192,32,64]\",\"v\":\"f16[2,8192,32,64]\",\"precision\":[\"BF16_BF16_F32\",\"BF16_BF16_F32\"],\"logits_dtype\":\"float32\",\"logits_scale\":0.125,\"bias\":null,\"logits_soft_cap\":null,\"mask\":{\"bool_mask\":null,\"q_start\":null,\"q_end\":null,\"k_start\":null,\"k_end\":null,\"is_causal\":false},\"dropout_mask\":null,\"dropout_rate\":0.0,\"paging_info\":null,\"q_indices\":null,\"k_indices\":null,\"normalize_output\":true,\"return_residuals\":false}": {},
  "{\"residuals\":[\"f32[2,16,8192]\",\"f32[2,16,8192]\"],\"out\":\"bf16[2,8192,16,128]\",\"dout\":\"bf16[2,8192,16,128]\",\"q\":\"bf16[2,8192,16,128]\",\"k\":\"bf16[2,8192,16,128]\",\"v\":\"bf16[2,8192,16,128]\",\"precision\":[[\"DEFAULT\",\"DEFAULT\"],[\"DEFAULT\",\"DEFAULT\"]],\"logits_dtype\":\"float32\",\"logits_scale\":0.08838834764831843,\"bias\":null,\"logits_soft_cap\":null,\"mask\":{\"bool_mask\":null,\"q_start\":null,\"q_end\":null,\"k_start\":null,\"k_end\":null,\"is_causal\":true},\"dropout_mask\":null,\"dropout_rate\":0.0,\"paging_info\":null,\"q_indices\":null,\"k_indices\":null,\"normalize_output\":true,\"return_residuals\":false}": {
    "{\"block_q_dkv\":2048,\"block_kv_dkv\":2048,\"block_kv_dkv_compute\":512,\"use_base2_exp\":true}": {
      "compile_time_ms": 9183.802675979678,
      "lower_time_ms": 2933.8883730233647,
      "evaluation_times_ms": [
        4.737,
        4.739,
        4.739,
        4.737,
        4.741
      ],
      "metadata": {
        "peak_memory_mb": 962.0010070800781
      }
    }
  },
  "{\"residuals\":[\"f32[2,16,8192]\",\"f32[2,16,8192]\"],\"out\":\"f16[2,8192,16,128]\",\"dout\":\"f16[2,8192,16,128]\",\"q\":\"f16[2,8192,16,128]\",\"k\":\"f16[2,8192,16,128]\",\"v\":\"f16[2,8192,16,128]\",\"precision\":[\"BF16_BF16_F32\",\"BF16_BF16_F32\"],\"logits_dtype\":\"float32\",\"logits_scale\":0.08838834764831843,\"bias\":null,\"logits_soft_cap\":null,\"mask\":{\"bool_mask\":null,\"q_start\":null,\"q_end\":null,\"k_start\":null,\"k_end\":null,\"is_causal\":true},\"dropout_mask\":null,\"dropout_rate\":0.0,\"paging_info\":null,\"q_indices\":null,\"k_indices\":null,\"normalize_output\":true,\"return_residuals\":false}": {},
  "{\"residuals\":[\"f32[2,16,8192]\",\"f32[2,16,8192]\"],\"out\":\"bf16[2,8192,16,128]\",\"dout\":\"bf16[2,8192,16,128]\",\"q\":\"bf16[2,8192,16,128]\",\"k\":\"bf16[2,8192,16,128]\",\"v\":\"bf16[2,8192,16,128]\",\"precision\":[[\"DEFAULT\",\"DEFAULT\"],[\"DEFAULT\",\"DEFAULT\"]],\"logits_dtype\":\"float32\",\"logits_scale\":0.08838834764831843,\"bias\":null,\"logits_soft_cap\":null,\"mask\":{\"bool_mask\":null,\"q_start\":null,\"q_end\":null,\"k_start\":null,\"k_end\":null,\"is_causal\":false},\"dropout_mask\":null,\"dropout_rate\":0.0,\"paging_info\":null,\"q_indices\":null,\"k_indices\":null,\"normalize_output\":true,\"return_residuals\":false}": {
    "{\"block_q_dkv\":2048,\"block_kv_dkv\":4096,\"block_kv_dkv_compute\":512,\"use_base2_exp\":true}": {
      "compile_time_ms": 6205.942803004291,
      "lower_time_ms": 981.9218550110236,
      "evaluation_times_ms": [
        6.405,
        6.407,
        6.408,
        6.408,
        6.407
      ],
      "metadata": {
        "peak_memory_mb": 834.0005187988281
      }
    }
  },
  "{\"residuals\":[\"f32[32,32,512]\",\"f32[32,32,512]\"],\"out\":\"f16[32,512,32,64]\",\"dout\":\"f16[32,512,32,64]\",\"q\":\"f16[32,512,32,64]\",\"k\":\"f16[32,512,32,64]\",\"v\":\"f16[32,512,32,64]\",\"precision\":[\"BF16_BF16_F32\",\"BF16_BF16_F32\"],\"logits_dtype\":\"float32\",\"logits_scale\":0.125,\"bias\":null,\"logits_soft_cap\":null,\"mask\":{\"bool_mask\":null,\"q_start\":null,\"q_end\":null,\"k_start\":null,\"k_end\":null,\"is_causal\":true},\"dropout_mask\":null,\"dropout_rate\":0.0,\"paging_info\":null,\"q_indices\":null,\"k_indices\":null,\"normalize_output\":true,\"return_residuals\":false}": {},
  "{\"residuals\":[\"f32[32,32,512]\",\"f32[32,32,512]\"],\"out\":\"bf16[32,512,32,64]\",\"dout\":\"bf16[32,512,32,64]\",\"q\":\"bf16[32,512,32,64]\",\"k\":\"bf16[32,512,32,64]\",\"v\":\"bf16[32,512,32,64]\",\"precision\":[[\"DEFAULT\",\"DEFAULT\"],[\"DEFAULT\",\"DEFAULT\"]],\"logits_dtype\":\"float32\",\"logits_scale\":0.125,\"bias\":null,\"logits_soft_cap\":null,\"mask\":{\"bool_mask\":null,\"q_start\":null,\"q_end\":null,\"k_start\":null,\"k_end\":null,\"is_causal\":false},\"dropout_mask\":null,\"dropout_rate\":0.0,\"paging_info\":null,\"q_indices\":null,\"k_indices\":null,\"normalize_output\":true,\"return_residuals\":false}": {
    "{\"block_q_dkv\":512,\"block_kv_dkv\":512,\"block_kv_dkv_compute\":512,\"use_base2_exp\":true}": {
      "compile_time_ms": 1303.9035400142893,
      "lower_time_ms": 198.91080999514088,
      "evaluation_times_ms": [
        2.619,
        2.61,
        2.612,
        2.608,
        2.61
      ],
      "metadata": {
        "peak_memory_mb": 1412.0000305175781
      }
    }
  },
  "{\"residuals\":[\"f32[32,32,512]\",\"f32[32,32,512]\"],\"out\":\"f16[32,512,32,64]\",\"dout\":\"f16[32,512,32,64]\",\"q\":\"f16[32,512,32,64]\",\"k\":\"f16[32,512,32,64]\",\"v\":\"f16[32,512,32,64]\",\"precision\":[\"BF16_BF16_F32\",\"BF16_BF16_F32\"],\"logits_dtype\":\"float32\",\"logits_scale\":0.125,\"bias\":null,\"logits_soft_cap\":null,\"mask\":{\"bool_mask\":null,\"q_start\":null,\"q_end\":null,\"k_start\":null,\"k_end\":null,\"is_causal\":false},\"dropout_mask\":null,\"dropout_rate\":0.0,\"paging_info\":null,\"q_indices\":null,\"k_indices\":null,\"normalize_output\":true,\"return_residuals\":false}": {},
  "{\"residuals\":[\"f32[2,16,8192]\",\"f32[2,16,8192]\"],\"out\":\"f16[2,8192,16,128]\",\"dout\":\"f16[2,8192,16,128]\",\"q\":\"f16[2,8192,16,128]\",\"k\":\"f16[2,8192,16,128]\",\"v\":\"f16[2,8192,16,128]\",\"precision\":[\"BF16_BF16_F32\",\"BF16_BF16_F32\"],\"logits_dtype\":\"float32\",\"logits_scale\":0.08838834764831843,\"bias\":null,\"logits_soft_cap\":null,\"mask\":{\"bool_mask\":null,\"q_start\":null,\"q_end\":null,\"k_start\":null,\"k_end\":null,\"is_causal\":false},\"dropout_mask\":null,\"dropout_rate\":0.0,\"paging_info\":null,\"q_indices\":null,\"k_indices\":null,\"normalize_output\":true,\"return_residuals\":false}": {},
  "{\"residuals\":[\"f32[2,8,8192]\",\"f32[2,8,8192]\"],\"out\":\"bf16[2,8192,8,256]\",\"dout\":\"bf16[2,8192,8,256]\",\"q\":\"bf16[2,8192,8,256]\",\"k\":\"bf16[2,8192,8,256]\",\"v\":\"bf16[2,8192,8,256]\",\"precision\":[[\"DEFAULT\",\"DEFAULT\"],[\"DEFAULT\",\"DEFAULT\"]],\"logits_dtype\":\"float32\",\"logits_scale\":0.0625,\"bias\":null,\"logits_soft_cap\":null,\"mask\":{\"bool_mask\":null,\"q_start\":null,\"q_end\":null,\"k_start\":null,\"k_end\":null,\"is_causal\":true},\"dropout_mask\":null,\"dropout_rate\":0.0,\"paging_info\":null,\"q_indices\":null,\"k_indices\":null,\"normalize_output\":true,\"return_residuals\":false}": {
    "{\"block_q_dkv\":2048,\"block_kv_dkv\":2048,\"block_kv_dkv_compute\":512,\"use_base2_exp\":true}": {
      "compile_time_ms": 21655.82781797275,
      "lower_time_ms": 2391.1286829970777,
      "evaluation_times_ms": [
        2.927,
        2.926,
        2.928,
        2.927,
        2.927
      ],
      "metadata": {
        "peak_memory_mb": 961.0010070800781
      }
    }
  },
  "{\"residuals\":[\"f32[2,8,8192]\",\"f32[2,8,8192]\"],\"out\":\"f16[2,8192,8,256]\",\"dout\":\"f16[2,8192,8,256]\",\"q\":\"f16[2,8192,8,256]\",\"k\":\"f16[2,8192,8,256]\",\"v\":\"f16[2,8192,8,256]\",\"precision\":[\"BF16_BF16_F32\",\"BF16_BF16_F32\"],\"logits_dtype\":\"float32\",\"logits_scale\":0.0625,\"bias\":null,\"logits_soft_cap\":null,\"mask\":{\"bool_mask\":null,\"q_start\":null,\"q_end\":null,\"k_start\":null,\"k_end\":null,\"is_causal\":true},\"dropout_mask\":null,\"dropout_rate\":0.0,\"paging_info\":null,\"q_indices\":null,\"k_indices\":null,\"normalize_output\":true,\"return_residuals\":false}": {},
  "{\"residuals\":[\"f32[2,8,8192]\",\"f32[2,8,8192]\"],\"out\":\"bf16[2,8192,8,256]\",\"dout\":\"bf16[2,8192,8,256]\",\"q\":\"bf16[2,8192,8,256]\",\"k\":\"bf16[2,8192,8,256]\",\"v\":\"bf16[2,8192,8,256]\",\"precision\":[[\"DEFAULT\",\"DEFAULT\"],[\"DEFAULT\",\"DEFAULT\"]],\"logits_dtype\":\"float32\",\"logits_scale\":0.0625,\"bias\":null,\"logits_soft_cap\":null,\"mask\":{\"bool_mask\":null,\"q_start\":null,\"q_end\":null,\"k_start\":null,\"k_end\":null,\"is_causal\":false},\"dropout_mask\":null,\"dropout_rate\":0.0,\"paging_info\":null,\"q_indices\":null,\"k_indices\":null,\"normalize_output\":true,\"return_residuals\":false}": {
    "{\"block_q_dkv\":1024,\"block_kv_dkv\":4096,\"block_kv_dkv_compute\":512,\"use_base2_exp\":true}": {
      "compile_time_ms": 7030.351055029314,
      "lower_time_ms": 2098.0234059970826,
      "evaluation_times_ms": [
        3.703,
        3.701,
        3.704,
        3.702,
        3.702
      ],
      "metadata": {
        "peak_memory_mb": 833.0005187988281
      }
    }
  },
  "{\"residuals\":[\"f32[2,8,8192]\",\"f32[2,8,8192]\"],\"out\":\"f16[2,8192,8,256]\",\"dout\":\"f16[2,8192,8,256]\",\"q\":\"f16[2,8192,8,256]\",\"k\":\"f16[2,8192,8,256]\",\"v\":\"f16[2,8192,8,256]\",\"precision\":[\"BF16_BF16_F32\",\"BF16_BF16_F32\"],\"logits_dtype\":\"float32\",\"logits_scale\":0.0625,\"bias\":null,\"logits_soft_cap\":null,\"mask\":{\"bool_mask\":null,\"q_start\":null,\"q_end\":null,\"k_start\":null,\"k_end\":null,\"is_causal\":false},\"dropout_mask\":null,\"dropout_rate\":0.0,\"paging_info\":null,\"q_indices\":null,\"k_indices\":null,\"normalize_output\":true,\"return_residuals\":false}": {},
  "{\"residuals\":[\"f32[1,32,16384]\",\"f32[1,32,16384]\"],\"out\":\"bf16[1,16384,32,64]\",\"dout\":\"bf16[1,16384,32,64]\",\"q\":\"bf16[1,16384,32,64]\",\"k\":\"bf16[1,16384,32,64]\",\"v\":\"bf16[1,16384,32,64]\",\"precision\":[[\"DEFAULT\",\"DEFAULT\"],[\"DEFAULT\",\"DEFAULT\"]],\"logits_dtype\":\"float32\",\"logits_scale\":0.125,\"bias\":null,\"logits_soft_cap\":null,\"mask\":{\"bool_mask\":null,\"q_start\":null,\"q_end\":null,\"k_start\":null,\"k_end\":null,\"is_causal\":true},\"dropout_mask\":null,\"dropout_rate\":0.0,\"paging_info\":null,\"q_indices\":null,\"k_indices\":null,\"normalize_output\":true,\"return_residuals\":false}": {
    "{\"block_q_dkv\":2048,\"block_kv_dkv\":2048,\"block_kv_dkv_compute\":512,\"use_base2_exp\":true}": {
      "compile_time_ms": 10567.509923013858,
      "lower_time_ms": 6656.457078002859,
      "evaluation_times_ms": [
        16.768,
        16.771,
        16.765,
        16.774,
        16.773
      ],
      "metadata": {
        "peak_memory_mb": 3332.001007080078
      }
    }
  },
  "{\"residuals\":[\"f32[1,32,16384]\",\"f32[1,32,16384]\"],\"out\":\"f16[1,16384,32,64]\",\"dout\":\"f16[1,16384,32,64]\",\"q\":\"f16[1,16384,32,64]\",\"k\":\"f16[1,16384,32,64]\",\"v\":\"f16[1,16384,32,64]\",\"precision\":[\"BF16_BF16_F32\",\"BF16_BF16_F32\"],\"logits_dtype\":\"float32\",\"logits_scale\":0.125,\"bias\":null,\"logits_soft_cap\":null,\"mask\":{\"bool_mask\":null,\"q_start\":null,\"q_end\":null,\"k_start\":null,\"k_end\":null,\"is_causal\":true},\"dropout_mask\":null,\"dropout_rate\":0.0,\"paging_info\":null,\"q_indices\":null,\"k_indices\":null,\"normalize_output\":true,\"return_residuals\":false}": {},
  "{\"residuals\":[\"f32[1,32,16384]\",\"f32[1,32,16384]\"],\"out\":\"bf16[1,16384,32,64]\",\"dout\":\"bf16[1,16384,32,64]\",\"q\":\"bf16[1,16384,32,64]\",\"k\":\"bf16[1,16384,32,64]\",\"v\":\"bf16[1,16384,32,64]\",\"precision\":[[\"DEFAULT\",\"DEFAULT\"],[\"DEFAULT\",\"DEFAULT\"]],\"logits_dtype\":\"float32\",\"logits_scale\":0.125,\"bias\":null,\"logits_soft_cap\":null,\"mask\":{\"bool_mask\":null,\"q_start\":null,\"q_end\":null,\"k_start\":null,\"k_end\":null,\"is_causal\":false},\"dropout_mask\":null,\"dropout_rate\":0.0,\"paging_info\":null,\"q_indices\":null,\"k_indices\":null,\"normalize_output\":true,\"return_residuals\":false}": {
    "{\"block_q_dkv\":2048,\"block_kv_dkv\":4096,\"block_kv_dkv_compute\":512,\"use_base2_exp\":true}": {
      "compile_time_ms": 9192.596179957036,
      "lower_time_ms": 4650.208915001713,
      "evaluation_times_ms": [
        24.864,
        24.866,
        24.865,
        24.864,
        24.867
      ],
      "metadata": {
        "peak_memory_mb": 1796.0005187988281
      }
    }
  },
  "{\"residuals\":[\"f32[1,32,16384]\",\"f32[1,32,16384]\"],\"out\":\"f16[1,16384,32,64]\",\"dout\":\"f16[1,16384,32,64]\",\"q\":\"f16[1,16384,32,64]\",\"k\":\"f16[1,16384,32,64]\",\"v\":\"f16[1,16384,32,64]\",\"precision\":[\"BF16_BF16_F32\",\"BF16_BF16_F32\"],\"logits_dtype\":\"float32\",\"logits_scale\":0.125,\"bias\":null,\"logits_soft_cap\":null,\"mask\":{\"bool_mask\":null,\"q_start\":null,\"q_end\":null,\"k_start\":null,\"k_end\":null,\"is_causal\":false},\"dropout_mask\":null,\"dropout_rate\":0.0,\"paging_info\":null,\"q_indices\":null,\"k_indices\":null,\"normalize_output\":true,\"return_residuals\":false}": {},
  "{\"residuals\":[\"f32[1,16,16384]\",\"f32[1,16,16384]\"],\"out\":\"bf16[1,16384,16,128]\",\"dout\":\"bf16[1,16384,16,128]\",\"q\":\"bf16[1,16384,16,128]\",\"k\":\"bf16[1,16384,16,128]\",\"v\":\"bf16[1,16384,16,128]\",\"precision\":[[\"DEFAULT\",\"DEFAULT\"],[\"DEFAULT\",\"DEFAULT\"]],\"logits_dtype\":\"float32\",\"logits_scale\":0.08838834764831843,\"bias\":null,\"logits_soft_cap\":null,\"mask\":{\"bool_mask\":null,\"q_start\":null,\"q_end\":null,\"k_start\":null,\"k_end\":null,\"is_causal\":true},\"dropout_mask\":null,\"dropout_rate\":0.0,\"paging_info\":null,\"q_indices\":null,\"k_indices\":null,\"normalize_output\":true,\"return_residuals\":false}": {
    "{\"block_q_dkv\":2048,\"block_kv_dkv\":2048,\"block_kv_dkv_compute\":512,\"use_base2_exp\":true}": {
      "compile_time_ms": 8945.95321296947,
      "lower_time_ms": 7366.022645030171,
      "evaluation_times_ms": [
        8.277,
        8.278,
        8.276,
        8.275,
        8.278
      ],
      "metadata": {
        "peak_memory_mb": 1730.0010070800781
      }
    }
  },
  "{\"residuals\":[\"f32[1,16,16384]\",\"f32[1,16,16384]\"],\"out\":\"f16[1,16384,16,128]\",\"dout\":\"f16[1,16384,16,128]\",\"q\":\"f16[1,16384,16,128]\",\"k\":\"f16[1,16384,16,128]\",\"v\":\"f16[1,16384,16,128]\",\"precision\":[\"BF16_BF16_F32\",\"BF16_BF16_F32\"],\"logits_dtype\":\"float32\",\"logits_scale\":0.08838834764831843,\"bias\":null,\"logits_soft_cap\":null,\"mask\":{\"bool_mask\":null,\"q_start\":null,\"q_end\":null,\"k_start\":null,\"k_end\":null,\"is_causal\":true},\"dropout_mask\":null,\"dropout_rate\":0.0,\"paging_info\":null,\"q_indices\":null,\"k_indices\":null,\"normalize_output\":true,\"return_residuals\":false}": {},
  "{\"residuals\":[\"f32[1,16,16384]\",\"f32[1,16,16384]\"],\"out\":\"bf16[1,16384,16,128]\",\"dout\":\"bf16[1,16384,16,128]\",\"q\":\"bf16[1,16384,16,128]\",\"k\":\"bf16[1,16384,16,128]\",\"v\":\"bf16[1,16384,16,128]\",\"precision\":[[\"DEFAULT\",\"DEFAULT\"],[\"DEFAULT\",\"DEFAULT\"]],\"logits_dtype\":\"float32\",\"logits_scale\":0.08838834764831843,\"bias\":null,\"logits_soft_cap\":null,\"mask\":{\"bool_mask\":null,\"q_start\":null,\"q_end\":null,\"k_start\":null,\"k_end\":null,\"is_causal\":false},\"dropout_mask\":null,\"dropout_rate\":0.0,\"paging_info\":null,\"q_indices\":null,\"k_indices\":null,\"normalize_output\":true,\"return_residuals\":false}": {
    "{\"block_q_dkv\":2048,\"block_kv_dkv\":4096,\"block_kv_dkv_compute\":512,\"use_base2_exp\":true}": {
      "compile_time_ms": 6106.658722972497,
      "lower_time_ms": 3588.0171440076083,
      "evaluation_times_ms": [
        12.183,
        12.18,
        12.183,
        12.182,
        12.181
      ],
      "metadata": {
        "peak_memory_mb": 962.0005187988281
      }
    }
  },
  "{\"residuals\":[\"f32[32,16,512]\",\"f32[32,16,512]\"],\"out\":\"bf16[32,512,16,128]\",\"dout\":\"bf16[32,512,16,128]\",\"q\":\"bf16[32,512,16,128]\",\"k\":\"bf16[32,512,16,128]\",\"v\":\"bf16[32,512,16,128]\",\"precision\":[[\"DEFAULT\",\"DEFAULT\"],[\"DEFAULT\",\"DEFAULT\"]],\"logits_dtype\":\"float32\",\"logits_scale\":0.08838834764831843,\"bias\":null,\"logits_soft_cap\":null,\"mask\":{\"bool_mask\":null,\"q_start\":null,\"q_end\":null,\"k_start\":null,\"k_end\":null,\"is_causal\":true},\"dropout_mask\":null,\"dropout_rate\":0.0,\"paging_info\":null,\"q_indices\":null,\"k_indices\":null,\"normalize_output\":true,\"return_residuals\":false}": {
    "{\"block_q_dkv\":512,\"block_kv_dkv\":512,\"block_kv_dkv_compute\":512,\"use_base2_exp\":true}": {
      "compile_time_ms": 1874.3570969672874,
      "lower_time_ms": 225.66644998732954,
      "evaluation_times_ms": [
        1.205,
        1.205,
        1.202,
        1.206,
        1.204
      ],
      "metadata": {
        "peak_memory_mb": 770.0005187988281
      }
    }
  },
  "{\"residuals\":[\"f32[32,16,512]\",\"f32[32,16,512]\"],\"out\":\"f16[32,512,16,128]\",\"dout\":\"f16[32,512,16,128]\",\"q\":\"f16[32,512,16,128]\",\"k\":\"f16[32,512,16,128]\",\"v\":\"f16[32,512,16,128]\",\"precision\":[\"BF16_BF16_F32\",\"BF16_BF16_F32\"],\"logits_dtype\":\"float32\",\"logits_scale\":0.08838834764831843,\"bias\":null,\"logits_soft_cap\":null,\"mask\":{\"bool_mask\":null,\"q_start\":null,\"q_end\":null,\"k_start\":null,\"k_end\":null,\"is_causal\":true},\"dropout_mask\":null,\"dropout_rate\":0.0,\"paging_info\":null,\"q_indices\":null,\"k_indices\":null,\"normalize_output\":true,\"return_residuals\":false}": {},
  "{\"residuals\":[\"f32[32,16,512]\",\"f32[32,16,512]\"],\"out\":\"bf16[32,512,16,128]\",\"dout\":\"bf16[32,512,16,128]\",\"q\":\"bf16[32,512,16,128]\",\"k\":\"bf16[32,512,16,128]\",\"v\":\"bf16[32,512,16,128]\",\"precision\":[[\"DEFAULT\",\"DEFAULT\"],[\"DEFAULT\",\"DEFAULT\"]],\"logits_dtype\":\"float32\",\"logits_scale\":0.08838834764831843,\"bias\":null,\"logits_soft_cap\":null,\"mask\":{\"bool_mask\":null,\"q_start\":null,\"q_end\":null,\"k_start\":null,\"k_end\":null,\"is_causal\":false},\"dropout_mask\":null,\"dropout_rate\":0.0,\"paging_info\":null,\"q_indices\":null,\"k_indices\":null,\"normalize_output\":true,\"return_residuals\":false}": {
    "{\"block_q_dkv\":512,\"block_kv_dkv\":512,\"block_kv_dkv_compute\":512,\"use_base2_exp\":true}": {
      "compile_time_ms": 627.071364026051,
      "lower_time_ms": 83.42247497057542,
      "evaluation_times_ms": [
        1.19,
        1.188,
        1.187,
        1.188,
        1.189
      ],
      "metadata": {
        "peak_memory_mb": 770.0000305175781
      }
    }
  },
  "{\"residuals\":[\"f32[32,16,512]\",\"f32[32,16,512]\"],\"out\":\"f16[32,512,16,128]\",\"dout\":\"f16[32,512,16,128]\",\"q\":\"f16[32,512,16,128]\",\"k\":\"f16[32,512,16,128]\",\"v\":\"f16[32,512,16,128]\",\"precision\":[\"BF16_BF16_F32\",\"BF16_BF16_F32\"],\"logits_dtype\":\"float32\",\"logits_scale\":0.08838834764831843,\"bias\":null,\"logits_soft_cap\":null,\"mask\":{\"bool_mask\":null,\"q_start\":null,\"q_end\":null,\"k_start\":null,\"k_end\":null,\"is_causal\":false},\"dropout_mask\":null,\"dropout_rate\":0.0,\"paging_info\":null,\"q_indices\":null,\"k_indices\":null,\"normalize_output\":true,\"return_residuals\":false}": {},
  "{\"residuals\":[\"f32[32,8,512]\",\"f32[32,8,512]\"],\"out\":\"bf16[32,512,8,256]\",\"dout\":\"bf16[32,512,8,256]\",\"q\":\"bf16[32,512,8,256]\",\"k\":\"bf16[32,512,8,256]\",\"v\":\"bf16[32,512,8,256]\",\"precision\":[[\"DEFAULT\",\"DEFAULT\"],[\"DEFAULT\",\"DEFAULT\"]],\"logits_dtype\":\"float32\",\"logits_scale\":0.0625,\"bias\":null,\"logits_soft_cap\":null,\"mask\":{\"bool_mask\":null,\"q_start\":null,\"q_end\":null,\"k_start\":null,\"k_end\":null,\"is_causal\":true},\"dropout_mask\":null,\"dropout_rate\":0.0,\"paging_info\":null,\"q_indices\":null,\"k_indices\":null,\"normalize_output\":true,\"return_residuals\":false}": {
    "{\"block_q_dkv\":512,\"block_kv_dkv\":512,\"block_kv_dkv_compute\":512,\"use_base2_exp\":true}": {
      "compile_time_ms": 1755.01061900286,
      "lower_time_ms": 221.85875700233737,
      "evaluation_times_ms": [
        1.013,
        1.013,
        1.014,
        1.015,
        1.012
      ],
      "metadata": {
        "peak_memory_mb": 769.0005187988281
      }
    }
  },
  "{\"residuals\":[\"f32[32,8,512]\",\"f32[32,8,512]\"],\"out\":\"f16[32,512,8,256]\",\"dout\":\"f16[32,512,8,256]\",\"q\":\"f16[32,512,8,256]\",\"k\":\"f16[32,512,8,256]\",\"v\":\"f16[32,512,8,256]\",\"precision\":[\"BF16_BF16_F32\",\"BF16_BF16_F32\"],\"logits_dtype\":\"float32\",\"logits_scale\":0.0625,\"bias\":null,\"logits_soft_cap\":null,\"mask\":{\"bool_mask\":null,\"q_start\":null,\"q_end\":null,\"k_start\":null,\"k_end\":null,\"is_causal\":true},\"dropout_mask\":null,\"dropout_rate\":0.0,\"paging_info\":null,\"q_indices\":null,\"k_indices\":null,\"normalize_output\":true,\"return_residuals\":false}": {},
  "{\"residuals\":[\"f32[32,8,512]\",\"f32[32,8,512]\"],\"out\":\"bf16[32,512,8,256]\",\"dout\":\"bf16[32,512,8,256]\",\"q\":\"bf16[32,512,8,256]\",\"k\":\"bf16[32,512,8,256]\",\"v\":\"bf16[32,512,8,256]\",\"precision\":[[\"DEFAULT\",\"DEFAULT\"],[\"DEFAULT\",\"DEFAULT\"]],\"logits_dtype\":\"float32\",\"logits_scale\":0.0625,\"bias\":null,\"logits_soft_cap\":null,\"mask\":{\"bool_mask\":null,\"q_start\":null,\"q_end\":null,\"k_start\":null,\"k_end\":null,\"is_causal\":false},\"dropout_mask\":null,\"dropout_rate\":0.0,\"paging_info\":null,\"q_indices\":null,\"k_indices\":null,\"normalize_output\":true,\"return_residuals\":false}": {
    "{\"block_q_dkv\":512,\"block_kv_dkv\":512,\"block_kv_dkv_compute\":512,\"use_base2_exp\":true}": {
      "compile_time_ms": 1749.2769270320423,
      "lower_time_ms": 212.32664899434894,
      "evaluation_times_ms": [
        0.991,
        0.989,
        0.988,
        0.989,
        0.988
      ],
      "metadata": {
        "peak_memory_mb": 769.0000305175781
      }
    }
  },
  "{\"residuals\":[\"f32[32,8,512]\",\"f32[32,8,512]\"],\"out\":\"f16[32,512,8,256]\",\"dout\":\"f16[32,512,8,256]\",\"q\":\"f16[32,512,8,256]\",\"k\":\"f16[32,512,8,256]\",\"v\":\"f16[32,512,8,256]\",\"precision\":[\"BF16_BF16_F32\",\"BF16_BF16_F32\"],\"logits_dtype\":\"float32\",\"logits_scale\":0.0625,\"bias\":null,\"logits_soft_cap\":null,\"mask\":{\"bool_mask\":null,\"q_start\":null,\"q_end\":null,\"k_start\":null,\"k_end\":null,\"is_causal\":false},\"dropout_mask\":null,\"dropout_rate\":0.0,\"paging_info\":null,\"q_indices\":null,\"k_indices\":null,\"normalize_output\":true,\"return_residuals\":false}": {},
  "{\"residuals\":[\"f32[16,32,1024]\",\"f32[16,32,1024]\"],\"out\":\"bf16[16,1024,32,64]\",\"dout\":\"bf16[16,1024,32,64]\",\"q\":\"bf16[16,1024,32,64]\",\"k\":\"bf16[16,1024,32,64]\",\"v\":\"bf16[16,1024,32,64]\",\"precision\":[[\"DEFAULT\",\"DEFAULT\"],[\"DEFAULT\",\"DEFAULT\"]],\"logits_dtype\":\"float32\",\"logits_scale\":0.125,\"bias\":null,\"logits_soft_cap\":null,\"mask\":{\"bool_mask\":null,\"q_start\":null,\"q_end\":null,\"k_start\":null,\"k_end\":null,\"is_causal\":true},\"dropout_mask\":null,\"dropout_rate\":0.0,\"paging_info\":null,\"q_indices\":null,\"k_indices\":null,\"normalize_output\":true,\"return_residuals\":false}": {
    "{\"block_q_dkv\":1024,\"block_kv_dkv\":1024,\"block_kv_dkv_compute\":512,\"use_base2_exp\":true}": {
      "compile_time_ms": 1421.892504033167,
      "lower_time_ms": 104.67373701976612,
      "evaluation_times_ms": [
        3.055,
        3.058,
        3.06,
        3.058,
        3.058
      ],
      "metadata": {
        "peak_memory_mb": 1412.0005187988281
      }
    }
  },
  "{\"residuals\":[\"f32[16,32,1024]\",\"f32[16,32,1024]\"],\"out\":\"f16[16,1024,32,64]\",\"dout\":\"f16[16,1024,32,64]\",\"q\":\"f16[16,1024,32,64]\",\"k\":\"f16[16,1024,32,64]\",\"v\":\"f16[16,1024,32,64]\",\"precision\":[\"BF16_BF16_F32\",\"BF16_BF16_F32\"],\"logits_dtype\":\"float32\",\"logits_scale\":0.125,\"bias\":null,\"logits_soft_cap\":null,\"mask\":{\"bool_mask\":null,\"q_start\":null,\"q_end\":null,\"k_start\":null,\"k_end\":null,\"is_causal\":true},\"dropout_mask\":null,\"dropout_rate\":0.0,\"paging_info\":null,\"q_indices\":null,\"k_indices\":null,\"normalize_output\":true,\"return_residuals\":false}": {},
  "{\"residuals\":[\"f32[16,32,1024]\",\"f32[16,32,1024]\"],\"out\":\"bf16[16,1024,32,64]\",\"dout\":\"bf16[16,1024,32,64]\",\"q\":\"bf16[16,1024,32,64]\",\"k\":\"bf16[16,1024,32,64]\",\"v\":\"bf16[16,1024,32,64]\",\"precision\":[[\"DEFAULT\",\"DEFAULT\"],[\"DEFAULT\",\"DEFAULT\"]],\"logits_dtype\":\"float32\",\"logits_scale\":0.125,\"bias\":null,\"logits_soft_cap\":null,\"mask\":{\"bool_mask\":null,\"q_start\":null,\"q_end\":null,\"k_start\":null,\"k_end\":null,\"is_causal\":false},\"dropout_mask\":null,\"dropout_rate\":0.0,\"paging_info\":null,\"q_indices\":null,\"k_indices\":null,\"normalize_output\":true,\"return_residuals\":false}": {
    "{\"block_q_dkv\":1024,\"block_kv_dkv\":1024,\"block_kv_dkv_compute\":1024,\"use_base2_exp\":true}": {
      "compile_time_ms": 1701.9389039996895,
      "lower_time_ms": 241.71759800083237,
      "evaluation_times_ms": [
        3.113,
        3.114,
        3.109,
        3.113,
        3.109
      ],
      "metadata": {
        "peak_memory_mb": 1412.0000305175781
      }
    }
  },
  "{\"residuals\":[\"f32[16,32,1024]\",\"f32[16,32,1024]\"],\"out\":\"f16[16,1024,32,64]\",\"dout\":\"f16[16,1024,32,64]\",\"q\":\"f16[16,1024,32,64]\",\"k\":\"f16[16,1024,32,64]\",\"v\":\"f16[16,1024,32,64]\",\"precision\":[\"BF16_BF16_F32\",\"BF16_BF16_F32\"],\"logits_dtype\":\"float32\",\"logits_scale\":0.125,\"bias\":null,\"logits_soft_cap\":null,\"mask\":{\"bool_mask\":null,\"q_start\":null,\"q_end\":null,\"k_start\":null,\"k_end\":null,\"is_causal\":false},\"dropout_mask\":null,\"dropout_rate\":0.0,\"paging_info\":null,\"q_indices\":null,\"k_indices\":null,\"normalize_output\":true,\"return_residuals\":false}": {},
  "{\"residuals\":[\"f32[16,16,1024]\",\"f32[16,16,1024]\"],\"out\":\"bf16[16,1024,16,128]\",\"dout\":\"bf16[16,1024,16,128]\",\"q\":\"bf16[16,1024,16,128]\",\"k\":\"bf16[16,1024,16,128]\",\"v\":\"bf16[16,1024,16,128]\",\"precision\":[[\"DEFAULT\",\"DEFAULT\"],[\"DEFAULT\",\"DEFAULT\"]],\"logits_dtype\":\"float32\",\"logits_scale\":0.08838834764831843,\"bias\":null,\"logits_soft_cap\":null,\"mask\":{\"bool_mask\":null,\"q_start\":null,\"q_end\":null,\"k_start\":null,\"k_end\":null,\"is_causal\":true},\"dropout_mask\":null,\"dropout_rate\":0.0,\"paging_info\":null,\"q_indices\":null,\"k_indices\":null,\"normalize_output\":true,\"return_residuals\":false}": {
    "{\"block_q_dkv\":1024,\"block_kv_dkv\":1024,\"block_kv_dkv_compute\":512,\"use_base2_exp\":true}": {
      "compile_time_ms": 2501.568751002196,
      "lower_time_ms": 298.6170000003767,
      "evaluation_times_ms": [
        1.423,
        1.422,
        1.424,
        1.422,
        1.423
      ],
      "metadata": {
        "peak_memory_mb": 770.0005187988281
      }
    }
  },
  "{\"residuals\":[\"f32[16,16,1024]\",\"f32[16,16,1024]\"],\"out\":\"f16[16,1024,16,128]\",\"dout\":\"f16[16,1024,16,128]\",\"q\":\"f16[16,1024,16,128]\",\"k\":\"f16[16,1024,16,128]\",\"v\":\"f16[16,1024,16,128]\",\"precision\":[\"BF16_BF16_F32\",\"BF16_BF16_F32\"],\"logits_dtype\":\"float32\",\"logits_scale\":0.08838834764831843,\"bias\":null,\"logits_soft_cap\":null,\"mask\":{\"bool_mask\":null,\"q_start\":null,\"q_end\":null,\"k_start\":null,\"k_end\":null,\"is_causal\":true},\"dropout_mask\":null,\"dropout_rate\":0.0,\"paging_info\":null,\"q_indices\":null,\"k_indices\":null,\"normalize_output\":true,\"return_residuals\":false}": {},
  "{\"residuals\":[\"f32[16,16,1024]\",\"f32[16,16,1024]\"],\"out\":\"bf16[16,1024,16,128]\",\"dout\":\"bf16[16,1024,16,128]\",\"q\":\"bf16[16,1024,16,128]\",\"k\":\"bf16[16,1024,16,128]\",\"v\":\"bf16[16,1024,16,128]\",\"precision\":[[\"DEFAULT\",\"DEFAULT\"],[\"DEFAULT\",\"DEFAULT\"]],\"logits_dtype\":\"float32\",\"logits_scale\":0.08838834764831843,\"bias\":null,\"logits_soft_cap\":null,\"mask\":{\"bool_mask\":null,\"q_start\":null,\"q_end\":null,\"k_start\":null,\"k_end\":null,\"is_causal\":false},\"dropout_mask\":null,\"dropout_rate\":0.0,\"paging_info\":null,\"q_indices\":null,\"k_indices\":null,\"normalize_output\":true,\"return_residuals\":false}": {
    "{\"block_q_dkv\":1024,\"block_kv_dkv\":1024,\"block_kv_dkv_compute\":512,\"use_base2_exp\":true}": {
      "compile_time_ms": 723.9217850001296,
      "lower_time_ms": 108.03856600250583,
      "evaluation_times_ms": [
        1.369,
        1.369,
        1.37,
        1.371,
        1.371
      ],
      "metadata": {
        "peak_memory_mb": 770.0000305175781
      }
    }
  },
  "{\"residuals\":[\"f32[16,16,1024]\",\"f32[16,16,1024]\"],\"out\":\"f16[16,1024,16,128]\",\"dout\":\"f16[16,1024,16,128]\",\"q\":\"f16[16,1024,16,128]\",\"k\":\"f16[16,1024,16,128]\",\"v\":\"f16[16,1024,16,128]\",\"precision\":[\"BF16_BF16_F32\",\"BF16_BF16_F32\"],\"logits_dtype\":\"float32\",\"logits_scale\":0.08838834764831843,\"bias\":null,\"logits_soft_cap\":null,\"mask\":{\"bool_mask\":null,\"q_start\":null,\"q_end\":null,\"k_start\":null,\"k_end\":null,\"is_causal\":false},\"dropout_mask\":null,\"dropout_rate\":0.0,\"paging_info\":null,\"q_indices\":null,\"k_indices\":null,\"normalize_output\":true,\"return_residuals\":false}": {},
  "{\"residuals\":[\"f32[16,8,1024]\",\"f32[16,8,1024]\"],\"out\":\"bf16[16,1024,8,256]\",\"dout\":\"bf16[16,1024,8,256]\",\"q\":\"bf16[16,1024,8,256]\",\"k\":\"bf16[16,1024,8,256]\",\"v\":\"bf16[16,1024,8,256]\",\"precision\":[[\"DEFAULT\",\"DEFAULT\"],[\"DEFAULT\",\"DEFAULT\"]],\"logits_dtype\":\"float32\",\"logits_scale\":0.0625,\"bias\":null,\"logits_soft_cap\":null,\"mask\":{\"bool_mask\":null,\"q_start\":null,\"q_end\":null,\"k_start\":null,\"k_end\":null,\"is_causal\":true},\"dropout_mask\":null,\"dropout_rate\":0.0,\"paging_info\":null,\"q_indices\":null,\"k_indices\":null,\"normalize_output\":true,\"return_residuals\":false}": {
    "{\"block_q_dkv\":1024,\"block_kv_dkv\":1024,\"block_kv_dkv_compute\":1024,\"use_base2_exp\":true}": {
      "compile_time_ms": 2514.5779619997484,
      "lower_time_ms": 274.1316050014575,
      "evaluation_times_ms": [
        1.125,
        1.126,
        1.122,
        1.125,
        1.123
      ],
      "metadata": {
        "peak_memory_mb": 769.0005187988281
      }
    }
  },
  "{\"residuals\":[\"f32[16,8,1024]\",\"f32[16,8,1024]\"],\"out\":\"f16[16,1024,8,256]\",\"dout\":\"f16[16,1024,8,256]\",\"q\":\"f16[16,1024,8,256]\",\"k\":\"f16[16,1024,8,256]\",\"v\":\"f16[16,1024,8,256]\",\"precision\":[\"BF16_BF16_F32\",\"BF16_BF16_F32\"],\"logits_dtype\":\"float32\",\"logits_scale\":0.0625,\"bias\":null,\"logits_soft_cap\":null,\"mask\":{\"bool_mask\":null,\"q_start\":null,\"q_end\":null,\"k_start\":null,\"k_end\":null,\"is_causal\":true},\"dropout_mask\":null,\"dropout_rate\":0.0,\"paging_info\":null,\"q_indices\":null,\"k_indices\":null,\"normalize_output\":true,\"return_residuals\":false}": {},
  "{\"residuals\":[\"f32[16,8,1024]\",\"f32[16,8,1024]\"],\"out\":\"bf16[16,1024,8,256]\",\"dout\":\"bf16[16,1024,8,256]\",\"q\":\"bf16[16,1024,8,256]\",\"k\":\"bf16[16,1024,8,256]\",\"v\":\"bf16[16,1024,8,256]\",\"precision\":[[\"DEFAULT\",\"DEFAULT\"],[\"DEFAULT\",\"DEFAULT\"]],\"logits_dtype\":\"float32\",\"logits_scale\":0.0625,\"bias\":null,\"logits_soft_cap\":null,\"mask\":{\"bool_mask\":null,\"q_start\":null,\"q_end\":null,\"k_start\":null,\"k_end\":null,\"is_causal\":false},\"dropout_mask\":null,\"dropout_rate\":0.0,\"paging_info\":null,\"q_indices\":null,\"k_indices\":null,\"normalize_output\":true,\"return_residuals\":false}": {
    "{\"block_q_dkv\":1024,\"block_kv_dkv\":1024,\"block_kv_dkv_compute\":512,\"use_base2_exp\":true}": {
      "compile_time_ms": 1904.9887000001036,
      "lower_time_ms": 264.4166229874827,
      "evaluation_times_ms": [
        1.066,
        1.065,
        1.065,
        1.066,
        1.066
      ],
      "metadata": {
        "peak_memory_mb": 769.0000305175781
      }
    }
  },
  "{\"residuals\":[\"f32[16,8,1024]\",\"f32[16,8,1024]\"],\"out\":\"f16[16,1024,8,256]\",\"dout\":\"f16[16,1024,8,256]\",\"q\":\"f16[16,1024,8,256]\",\"k\":\"f16[16,1024,8,256]\",\"v\":\"f16[16,1024,8,256]\",\"precision\":[\"BF16_BF16_F32\",\"BF16_BF16_F32\"],\"logits_dtype\":\"float32\",\"logits_scale\":0.0625,\"bias\":null,\"logits_soft_cap\":null,\"mask\":{\"bool_mask\":null,\"q_start\":null,\"q_end\":null,\"k_start\":null,\"k_end\":null,\"is_causal\":false},\"dropout_mask\":null,\"dropout_rate\":0.0,\"paging_info\":null,\"q_indices\":null,\"k_indices\":null,\"normalize_output\":true,\"return_residuals\":false}": {},
  "{\"residuals\":[\"f32[8,32,2048]\",\"f32[8,32,2048]\"],\"out\":\"bf16[8,2048,32,64]\",\"dout\":\"bf16[8,2048,32,64]\",\"q\":\"bf16[8,2048,32,64]\",\"k\":\"bf16[8,2048,32,64]\",\"v\":\"bf16[8,2048,32,64]\",\"precision\":[[\"DEFAULT\",\"DEFAULT\"],[\"DEFAULT\",\"DEFAULT\"]],\"logits_dtype\":\"float32\",\"logits_scale\":0.125,\"bias\":null,\"logits_soft_cap\":null,\"mask\":{\"bool_mask\":null,\"q_start\":null,\"q_end\":null,\"k_start\":null,\"k_end\":null,\"is_causal\":true},\"dropout_mask\":null,\"dropout_rate\":0.0,\"paging_info\":null,\"q_indices\":null,\"k_indices\":null,\"normalize_output\":true,\"return_residuals\":false}": {
    "{\"block_q_dkv\":1024,\"block_kv_dkv\":1024,\"block_kv_dkv_compute\":512,\"use_base2_exp\":true}": {
      "compile_time_ms": 1503.2144739525393,
      "lower_time_ms": 243.52639797143638,
      "evaluation_times_ms": [
        4.456,
        4.451,
        4.448,
        4.446,
        4.447
      ],
      "metadata": {
        "peak_memory_mb": 1540.0010070800781
      }
    }
  }
}
