{
  "{\"residuals\":[\"bf16[1024]\"],\"out\":\"f32[]\",\"dout\":\"f32[]\",\"x\":\"bf16[1024,4096]\",\"labels\":\"i32[1024]\",\"w\":\"bf16[4096,151936]\",\"reduction\":\"mean\",\"return_residuals\":false}": {
    "{}": {
      "compile_time_ms": 4604.281251085922,
      "lower_time_ms": 21.033862023614347,
      "evaluation_times_ms": [
        6.1409210000000005,
        6.148217,
        6.135801,
        6.145912,
        6.149112
      ],
      "metadata": {},
      "peak_memory_mb": 5037.369376
    }
  },
  "{\"residuals\":[\"f32[1024]\"],\"out\":\"f32[]\",\"dout\":\"f32[]\",\"x\":\"f32[1024,4096]\",\"labels\":\"i32[1024]\",\"w\":\"bf16[4096,151936]\",\"reduction\":\"mean\",\"return_residuals\":false}": {
    "{}": {
      "compile_time_ms": 3638.9449890702963,
      "lower_time_ms": 17.347978078760207,
      "evaluation_times_ms": [
        14.113679,
        14.111471,
        14.173487,
        14.130543,
        14.463341999999999
      ],
      "metadata": {},
      "peak_memory_mb": 5012.2056
    }
  },
  "{\"residuals\":[\"bf16[1024]\"],\"out\":\"f32[]\",\"dout\":\"f32[]\",\"x\":\"bf16[1024,4096]\",\"labels\":\"i32[1024]\",\"w\":\"bf16[4096,151936]\",\"reduction\":\"sum\",\"return_residuals\":false}": {
    "{}": {
      "compile_time_ms": 3601.12956201192,
      "lower_time_ms": 12.49562599696219,
      "evaluation_times_ms": [
        6.14809,
        6.150043,
        6.154394,
        6.156474,
        6.159962
      ],
      "metadata": {},
      "peak_memory_mb": 5037.369376
    }
  },
  "{\"residuals\":[\"f32[1024]\"],\"out\":\"f32[]\",\"dout\":\"f32[]\",\"x\":\"f32[1024,4096]\",\"labels\":\"i32[1024]\",\"w\":\"bf16[4096,151936]\",\"reduction\":\"sum\",\"return_residuals\":false}": {
    "{}": {
      "compile_time_ms": 3652.3363300366327,
      "lower_time_ms": 13.980584917590022,
      "evaluation_times_ms": [
        14.067445000000001,
        14.193493,
        14.201141,
        14.146262,
        14.113622
      ],
      "metadata": {},
      "peak_memory_mb": 5012.2056
    }
  },
  "{\"residuals\":[\"bf16[2048]\"],\"out\":\"f32[]\",\"dout\":\"f32[]\",\"x\":\"bf16[2048,4096]\",\"labels\":\"i32[2048]\",\"w\":\"bf16[4096,151936]\",\"reduction\":\"mean\",\"return_residuals\":false}": {
    "{}": {
      "compile_time_ms": 4533.718115068041,
      "lower_time_ms": 17.460326082073152,
      "evaluation_times_ms": [
        10.790779,
        10.838875,
        10.827898,
        11.440542,
        11.401277
      ],
      "metadata": {},
      "peak_memory_mb": 5062.54544
    }
  },
  "{\"residuals\":[\"f32[2048]\"],\"out\":\"f32[]\",\"dout\":\"f32[]\",\"x\":\"f32[2048,4096]\",\"labels\":\"i32[2048]\",\"w\":\"bf16[4096,151936]\",\"reduction\":\"mean\",\"return_residuals\":false}": {
    "{}": {
      "compile_time_ms": 5933.016509050503,
      "lower_time_ms": 16.653171041980386,
      "evaluation_times_ms": [
        24.874712,
        26.066071,
        26.081655,
        25.45692,
        26.193495
      ],
      "metadata": {},
      "peak_memory_mb": 6290.432032
    }
  },
  "{\"residuals\":[\"bf16[2048]\"],\"out\":\"f32[]\",\"dout\":\"f32[]\",\"x\":\"bf16[2048,4096]\",\"labels\":\"i32[2048]\",\"w\":\"bf16[4096,151936]\",\"reduction\":\"sum\",\"return_residuals\":false}": {
    "{}": {
      "compile_time_ms": 4150.976642999922,
      "lower_time_ms": 21.107432000007975,
      "evaluation_times_ms": [
        10.692821,
        10.702484,
        10.936434,
        11.157999,
        11.148623
      ],
      "metadata": {},
      "peak_memory_mb": 5062.54544
    }
  },
  "{\"residuals\":[\"f32[2048]\"],\"out\":\"f32[]\",\"dout\":\"f32[]\",\"x\":\"f32[2048,4096]\",\"labels\":\"i32[2048]\",\"w\":\"bf16[4096,151936]\",\"reduction\":\"sum\",\"return_residuals\":false}": {
    "{}": {
      "compile_time_ms": 6706.427807999717,
      "lower_time_ms": 17.376918000081787,
      "evaluation_times_ms": [
        25.128163,
        25.575261,
        25.992249,
        25.293376,
        25.919352
      ],
      "metadata": {},
      "peak_memory_mb": 6290.432032
    }
  },
  "{\"residuals\":[\"bf16[4096]\"],\"out\":\"f32[]\",\"dout\":\"f32[]\",\"x\":\"bf16[4096,4096]\",\"labels\":\"i32[4096]\",\"w\":\"bf16[4096,151936]\",\"reduction\":\"mean\",\"return_residuals\":false}": {
    "{}": {
      "compile_time_ms": 6734.273217999998,
      "lower_time_ms": 18.552640000052634,
      "evaluation_times_ms": [
        20.942408999999998,
        22.430583000000002,
        22.534678,
        22.80149,
        22.878514
      ],
      "metadata": {},
      "peak_memory_mb": 5112.897568
    }
  },
  "{\"residuals\":[\"f32[4096]\"],\"out\":\"f32[]\",\"dout\":\"f32[]\",\"x\":\"f32[4096,4096]\",\"labels\":\"i32[4096]\",\"w\":\"bf16[4096,151936]\",\"reduction\":\"mean\",\"return_residuals\":false}": {
    "{}": {
      "compile_time_ms": 11584.361353000077,
      "lower_time_ms": 18.36874099990382,
      "evaluation_times_ms": [
        48.129162,
        49.376571999999996,
        50.029140999999996,
        49.870357999999996,
        50.009589
      ],
      "metadata": {},
      "peak_memory_mb": 8846.884896
    }
  },
  "{\"residuals\":[\"bf16[4096]\"],\"out\":\"f32[]\",\"dout\":\"f32[]\",\"x\":\"bf16[4096,4096]\",\"labels\":\"i32[4096]\",\"w\":\"bf16[4096,151936]\",\"reduction\":\"sum\",\"return_residuals\":false}": {
    "{}": {
      "compile_time_ms": 6648.568133000026,
      "lower_time_ms": 12.87205999960861,
      "evaluation_times_ms": [
        21.499306,
        22.18061,
        23.306612,
        23.720944,
        23.712752
      ],
      "metadata": {},
      "peak_memory_mb": 5112.897568
    }
  },
  "{\"residuals\":[\"f32[4096]\"],\"out\":\"f32[]\",\"dout\":\"f32[]\",\"x\":\"f32[4096,4096]\",\"labels\":\"i32[4096]\",\"w\":\"bf16[4096,151936]\",\"reduction\":\"sum\",\"return_residuals\":false}": {
    "{}": {
      "compile_time_ms": 163.75708999999006,
      "lower_time_ms": 18.875382999908652,
      "evaluation_times_ms": [
        49.356643999999996,
        49.623999999999995,
        49.723,
        49.967371,
        50.174973
      ],
      "metadata": {},
      "peak_memory_mb": 8846.884896
    }
  },
  "{\"residuals\":[\"bf16[16384]\"],\"out\":\"f32[]\",\"dout\":\"f32[]\",\"x\":\"bf16[16384,3840]\",\"labels\":\"i32[16384]\",\"w\":\"bf16[3840,262144]\",\"reduction\":\"mean\",\"return_residuals\":false}": {
    "{}": {
      "compile_time_ms": 48601.142835000246,
      "lower_time_ms": 21.51128300010896,
      "evaluation_times_ms": [
        142.321527,
        143.562609,
        147.492386,
        144.859309,
        143.711088
      ],
      "metadata": {},
      "peak_memory_mb": 23597.318176
    }
  },
  "{\"residuals\":[\"f32[16384]\"],\"out\":\"f32[]\",\"dout\":\"f32[]\",\"x\":\"f32[16384,3840]\",\"labels\":\"i32[16384]\",\"w\":\"bf16[3840,262144]\",\"reduction\":\"mean\",\"return_residuals\":false}": {},
  "{\"residuals\":[\"bf16[16384]\"],\"out\":\"f32[]\",\"dout\":\"f32[]\",\"x\":\"bf16[16384,3840]\",\"labels\":\"i32[16384]\",\"w\":\"bf16[3840,262144]\",\"reduction\":\"sum\",\"return_residuals\":false}": {
    "{}": {
      "compile_time_ms": 38062.53958800062,
      "lower_time_ms": 12.176273999102705,
      "evaluation_times_ms": [
        140.31142,
        138.92428999999998,
        146.155004,
        142.840398,
        141.772852
      ],
      "metadata": {},
      "peak_memory_mb": 23597.318176
    }
  },
  "{\"residuals\":[\"f32[16384]\"],\"out\":\"f32[]\",\"dout\":\"f32[]\",\"x\":\"f32[16384,3840]\",\"labels\":\"i32[16384]\",\"w\":\"bf16[3840,262144]\",\"reduction\":\"sum\",\"return_residuals\":false}": {},
  "{\"residuals\":[\"bf16[32768]\"],\"out\":\"f32[]\",\"dout\":\"f32[]\",\"x\":\"bf16[32768,3840]\",\"labels\":\"i32[32768]\",\"w\":\"bf16[3840,262144]\",\"reduction\":\"mean\",\"return_residuals\":false}": {},
  "{\"residuals\":[\"f32[32768]\"],\"out\":\"f32[]\",\"dout\":\"f32[]\",\"x\":\"f32[32768,3840]\",\"labels\":\"i32[32768]\",\"w\":\"bf16[3840,262144]\",\"reduction\":\"mean\",\"return_residuals\":false}": {},
  "{\"residuals\":[\"bf16[32768]\"],\"out\":\"f32[]\",\"dout\":\"f32[]\",\"x\":\"bf16[32768,3840]\",\"labels\":\"i32[32768]\",\"w\":\"bf16[3840,262144]\",\"reduction\":\"sum\",\"return_residuals\":false}": {},
  "{\"residuals\":[\"f32[32768]\"],\"out\":\"f32[]\",\"dout\":\"f32[]\",\"x\":\"f32[32768,3840]\",\"labels\":\"i32[32768]\",\"w\":\"bf16[3840,262144]\",\"reduction\":\"sum\",\"return_residuals\":false}": {},
  "{\"residuals\":[\"bf16[131072]\"],\"out\":\"f32[]\",\"dout\":\"f32[]\",\"x\":\"bf16[131072,3840]\",\"labels\":\"i32[131072]\",\"w\":\"bf16[3840,262144]\",\"reduction\":\"mean\",\"return_residuals\":false}": {},
  "{\"residuals\":[\"f32[131072]\"],\"out\":\"f32[]\",\"dout\":\"f32[]\",\"x\":\"f32[131072,3840]\",\"labels\":\"i32[131072]\",\"w\":\"bf16[3840,262144]\",\"reduction\":\"mean\",\"return_residuals\":false}": {},
  "{\"residuals\":[\"bf16[131072]\"],\"out\":\"f32[]\",\"dout\":\"f32[]\",\"x\":\"bf16[131072,3840]\",\"labels\":\"i32[131072]\",\"w\":\"bf16[3840,262144]\",\"reduction\":\"sum\",\"return_residuals\":false}": {},
  "{\"residuals\":[\"f32[131072]\"],\"out\":\"f32[]\",\"dout\":\"f32[]\",\"x\":\"f32[131072,3840]\",\"labels\":\"i32[131072]\",\"w\":\"bf16[3840,262144]\",\"reduction\":\"sum\",\"return_residuals\":false}": {},
  "{\"residuals\":[\"bf16[1024]\"],\"out\":\"f32[]\",\"dout\":\"f32[]\",\"x\":\"bf16[1024,4096]\",\"labels\":\"i32[1024]\",\"w\":\"bf16[4096,128256]\",\"reduction\":\"mean\",\"return_residuals\":false}": {
    "{}": {
      "compile_time_ms": 5091.167491000306,
      "lower_time_ms": 22.38895299979049,
      "evaluation_times_ms": [
        5.038384000000001,
        5.040114,
        5.041073,
        5.043025,
        5.042001
      ],
      "metadata": {},
      "peak_memory_mb": 4261.423136
    }
  },
  "{\"residuals\":[\"f32[1024]\"],\"out\":\"f32[]\",\"dout\":\"f32[]\",\"x\":\"f32[1024,4096]\",\"labels\":\"i32[1024]\",\"w\":\"bf16[4096,128256]\",\"reduction\":\"mean\",\"return_residuals\":false}": {
    "{}": {
      "compile_time_ms": 4123.190890000387,
      "lower_time_ms": 18.30715100004454,
      "evaluation_times_ms": [
        11.884017,
        11.894997,
        11.88498,
        11.891349,
        11.90847
      ],
      "metadata": {},
      "peak_memory_mb": 4236.25936
    }
  },
  "{\"residuals\":[\"bf16[1024]\"],\"out\":\"f32[]\",\"dout\":\"f32[]\",\"x\":\"bf16[1024,4096]\",\"labels\":\"i32[1024]\",\"w\":\"bf16[4096,128256]\",\"reduction\":\"sum\",\"return_residuals\":false}": {
    "{}": {
      "compile_time_ms": 3876.1087679999946,
      "lower_time_ms": 12.717284000245854,
      "evaluation_times_ms": [
        5.037427,
        5.043506,
        5.03429,
        5.0557300000000005,
        5.0723389999999995
      ],
      "metadata": {},
      "peak_memory_mb": 4261.423136
    }
  },
  "{\"residuals\":[\"f32[1024]\"],\"out\":\"f32[]\",\"dout\":\"f32[]\",\"x\":\"f32[1024,4096]\",\"labels\":\"i32[1024]\",\"w\":\"bf16[4096,128256]\",\"reduction\":\"sum\",\"return_residuals\":false}": {
    "{}": {
      "compile_time_ms": 3724.152070999935,
      "lower_time_ms": 12.535698000192497,
      "evaluation_times_ms": [
        11.831156,
        11.8557,
        11.833332,
        11.869876,
        11.8581
      ],
      "metadata": {},
      "peak_memory_mb": 4236.25936
    }
  },
  "{\"residuals\":[\"bf16[2048]\"],\"out\":\"f32[]\",\"dout\":\"f32[]\",\"x\":\"bf16[2048,4096]\",\"labels\":\"i32[2048]\",\"w\":\"bf16[4096,128256]\",\"reduction\":\"mean\",\"return_residuals\":false}": {
    "{}": {
      "compile_time_ms": 4906.495138000082,
      "lower_time_ms": 18.09241299997666,
      "evaluation_times_ms": [
        8.897681,
        8.897969,
        8.991825,
        8.97192,
        9.277455
      ],
      "metadata": {},
      "peak_memory_mb": 4286.5992
    }
  },
  "{\"residuals\":[\"f32[2048]\"],\"out\":\"f32[]\",\"dout\":\"f32[]\",\"x\":\"f32[2048,4096]\",\"labels\":\"i32[2048]\",\"w\":\"bf16[4096,128256]\",\"reduction\":\"mean\",\"return_residuals\":false}": {
    "{}": {
      "compile_time_ms": 177.40411200000494,
      "lower_time_ms": 19.788363000003528,
      "evaluation_times_ms": [
        21.005869999999998,
        21.400389,
        21.643156,
        21.523115999999998,
        21.263037
      ],
      "metadata": {},
      "peak_memory_mb": 5320.499232
    }
  },
  "{\"residuals\":[\"bf16[2048]\"],\"out\":\"f32[]\",\"dout\":\"f32[]\",\"x\":\"bf16[2048,4096]\",\"labels\":\"i32[2048]\",\"w\":\"bf16[4096,128256]\",\"reduction\":\"sum\",\"return_residuals\":false}": {
    "{}": {
      "compile_time_ms": 3818.1283050071215,
      "lower_time_ms": 20.025923993671313,
      "evaluation_times_ms": [
        9.113926,
        9.23591,
        9.217413,
        9.23047,
        9.630184
      ],
      "metadata": {},
      "peak_memory_mb": 4286.5992
    }
  },
  "{\"residuals\":[\"f32[2048]\"],\"out\":\"f32[]\",\"dout\":\"f32[]\",\"x\":\"f32[2048,4096]\",\"labels\":\"i32[2048]\",\"w\":\"bf16[4096,128256]\",\"reduction\":\"sum\",\"return_residuals\":false}": {
    "{}": {
      "compile_time_ms": 5964.626290005981,
      "lower_time_ms": 16.110297001432627,
      "evaluation_times_ms": [
        21.135422,
        21.59488,
        22.026914,
        21.616928,
        21.841217
      ],
      "metadata": {},
      "peak_memory_mb": 5320.499232
    }
  },
  "{\"residuals\":[\"bf16[4096]\"],\"out\":\"f32[]\",\"dout\":\"f32[]\",\"x\":\"bf16[4096,4096]\",\"labels\":\"i32[4096]\",\"w\":\"bf16[4096,128256]\",\"reduction\":\"mean\",\"return_residuals\":false}": {
    "{}": {
      "compile_time_ms": 6088.6313850060105,
      "lower_time_ms": 17.328048998024315,
      "evaluation_times_ms": [
        17.329325,
        17.821455,
        18.906676,
        18.736883,
        18.744499
      ],
      "metadata": {},
      "peak_memory_mb": 4336.951328
    }
  },
  "{\"residuals\":[\"f32[4096]\"],\"out\":\"f32[]\",\"dout\":\"f32[]\",\"x\":\"f32[4096,4096]\",\"labels\":\"i32[4096]\",\"w\":\"bf16[4096,128256]\",\"reduction\":\"mean\",\"return_residuals\":false}": {
    "{}": {
      "compile_time_ms": 11006.23576399812,
      "lower_time_ms": 16.975143997115083,
      "evaluation_times_ms": [
        42.004001,
        42.304226,
        42.139426,
        43.824619,
        42.579364
      ],
      "metadata": {},
      "peak_memory_mb": 7488.978976
    }
  },
  "{\"residuals\":[\"bf16[4096]\"],\"out\":\"f32[]\",\"dout\":\"f32[]\",\"x\":\"bf16[4096,4096]\",\"labels\":\"i32[4096]\",\"w\":\"bf16[4096,128256]\",\"reduction\":\"sum\",\"return_residuals\":false}": {
    "{}": {
      "compile_time_ms": 4670.385190998786,
      "lower_time_ms": 12.353336001979187,
      "evaluation_times_ms": [
        17.507195,
        18.090527,
        18.255007,
        18.596033000000002,
        19.197797
      ],
      "metadata": {},
      "peak_memory_mb": 4336.951328
    }
  },
  "{\"residuals\":[\"f32[4096]\"],\"out\":\"f32[]\",\"dout\":\"f32[]\",\"x\":\"f32[4096,4096]\",\"labels\":\"i32[4096]\",\"w\":\"bf16[4096,128256]\",\"reduction\":\"sum\",\"return_residuals\":false}": {
    "{}": {
      "compile_time_ms": 8878.687335993163,
      "lower_time_ms": 12.342872010776773,
      "evaluation_times_ms": [
        40.637342,
        41.870629,
        42.373897,
        42.328424,
        41.686021000000004
      ],
      "metadata": {},
      "peak_memory_mb": 7488.978976
    }
  },
  "{\"residuals\":[\"bf16[16384]\"],\"out\":\"f32[]\",\"dout\":\"f32[]\",\"x\":\"bf16[16384,4096]\",\"labels\":\"i32[16384]\",\"w\":\"bf16[4096,128256]\",\"reduction\":\"mean\",\"return_residuals\":false}": {
    "{}": {
      "compile_time_ms": 19062.71157900028,
      "lower_time_ms": 20.962862000487803,
      "evaluation_times_ms": [
        75.88430699999999,
        74.870319,
        77.684858,
        78.19203,
        75.395185
      ],
      "metadata": {},
      "peak_memory_mb": 11960.221728
    }
  },
  "{\"residuals\":[\"f32[16384]\"],\"out\":\"f32[]\",\"dout\":\"f32[]\",\"x\":\"f32[16384,4096]\",\"labels\":\"i32[16384]\",\"w\":\"bf16[4096,128256]\",\"reduction\":\"mean\",\"return_residuals\":false}": {
    "{}": {
      "compile_time_ms": 33627.474986999914,
      "lower_time_ms": 17.41170500008593,
      "evaluation_times_ms": [
        166.820207,
        169.797569,
        183.638008,
        170.985833,
        166.735119
      ],
      "metadata": {},
      "peak_memory_mb": 20499.85744
    }
  },
  "{\"residuals\":[\"bf16[16384]\"],\"out\":\"f32[]\",\"dout\":\"f32[]\",\"x\":\"bf16[16384,4096]\",\"labels\":\"i32[16384]\",\"w\":\"bf16[4096,128256]\",\"reduction\":\"sum\",\"return_residuals\":false}": {
    "{}": {
      "compile_time_ms": 19188.693316000354,
      "lower_time_ms": 12.177304000033473,
      "evaluation_times_ms": [
        76.747002,
        77.428062,
        78.212419,
        76.567706,
        75.599923
      ],
      "metadata": {},
      "peak_memory_mb": 11960.221728
    }
  },
  "{\"residuals\":[\"f32[16384]\"],\"out\":\"f32[]\",\"dout\":\"f32[]\",\"x\":\"f32[16384,4096]\",\"labels\":\"i32[16384]\",\"w\":\"bf16[4096,128256]\",\"reduction\":\"sum\",\"return_residuals\":false}": {
    "{}": {
      "compile_time_ms": 24164.03592200004,
      "lower_time_ms": 11.874422999426315,
      "evaluation_times_ms": [
        164.192752,
        165.882287,
        177.827354,
        166.40180999999998,
        168.712416
      ],
      "metadata": {},
      "peak_memory_mb": 20499.85744
    }
  },
  "{\"residuals\":[\"bf16[32768]\"],\"out\":\"f32[]\",\"dout\":\"f32[]\",\"x\":\"bf16[32768,4096]\",\"labels\":\"i32[32768]\",\"w\":\"bf16[4096,128256]\",\"reduction\":\"mean\",\"return_residuals\":false}": {
    "{}": {
      "compile_time_ms": 32096.156442999927,
      "lower_time_ms": 17.776133000552363,
      "evaluation_times_ms": [
        151.71634,
        155.735953,
        164.818545,
        157.721791,
        152.43129000000002
      ],
      "metadata": {},
      "peak_memory_mb": 20768.423968
    }
  },
  "{\"residuals\":[\"f32[32768]\"],\"out\":\"f32[]\",\"dout\":\"f32[]\",\"x\":\"f32[32768,4096]\",\"labels\":\"i32[32768]\",\"w\":\"bf16[4096,128256]\",\"reduction\":\"mean\",\"return_residuals\":false}": {
    "{}": {
      "compile_time_ms": 284.3395180000243,
      "lower_time_ms": 20.142511000017294,
      "evaluation_times_ms": [
        332.089627,
        332.810739,
        334.716995,
        332.70716400000003,
        334.044155
      ],
      "metadata": {},
      "peak_memory_mb": 37847.695392
    }
  },
  "{\"residuals\":[\"bf16[32768]\"],\"out\":\"f32[]\",\"dout\":\"f32[]\",\"x\":\"bf16[32768,4096]\",\"labels\":\"i32[32768]\",\"w\":\"bf16[4096,128256]\",\"reduction\":\"sum\",\"return_residuals\":false}": {
    "{}": {
      "compile_time_ms": 32649.484863039106,
      "lower_time_ms": 20.30236308928579,
      "evaluation_times_ms": [
        150.147191,
        153.285403,
        158.08364799999998,
        156.230367,
        153.818683
      ],
      "metadata": {},
      "peak_memory_mb": 20768.423968
    }
  },
  "{\"residuals\":[\"f32[32768]\"],\"out\":\"f32[]\",\"dout\":\"f32[]\",\"x\":\"f32[32768,4096]\",\"labels\":\"i32[32768]\",\"w\":\"bf16[4096,128256]\",\"reduction\":\"sum\",\"return_residuals\":false}": {},
  "{\"residuals\":[\"bf16[131072]\"],\"out\":\"f32[]\",\"dout\":\"f32[]\",\"x\":\"bf16[131072,4096]\",\"labels\":\"i32[131072]\",\"w\":\"bf16[4096,128256]\",\"reduction\":\"mean\",\"return_residuals\":false}": {},
  "{\"residuals\":[\"f32[131072]\"],\"out\":\"f32[]\",\"dout\":\"f32[]\",\"x\":\"f32[131072,4096]\",\"labels\":\"i32[131072]\",\"w\":\"bf16[4096,128256]\",\"reduction\":\"mean\",\"return_residuals\":false}": {},
  "{\"residuals\":[\"bf16[131072]\"],\"out\":\"f32[]\",\"dout\":\"f32[]\",\"x\":\"bf16[131072,4096]\",\"labels\":\"i32[131072]\",\"w\":\"bf16[4096,128256]\",\"reduction\":\"sum\",\"return_residuals\":false}": {},
  "{\"residuals\":[\"f32[131072]\"],\"out\":\"f32[]\",\"dout\":\"f32[]\",\"x\":\"f32[131072,4096]\",\"labels\":\"i32[131072]\",\"w\":\"bf16[4096,128256]\",\"reduction\":\"sum\",\"return_residuals\":false}": {},
  "{\"residuals\":[\"bf16[8192]\"],\"out\":\"f32[]\",\"dout\":\"f32[]\",\"x\":\"bf16[8192,7168]\",\"labels\":\"i32[8192]\",\"w\":\"bf16[7168,128256]\",\"reduction\":\"sum\",\"return_residuals\":false}": {
    "{}": {
      "compile_time_ms": 20639.31504600032,
      "lower_time_ms": 20.73999400045068,
      "evaluation_times_ms": [
        64.964185,
        65.976495,
        64.17920099999999,
        67.580578,
        65.862705
      ],
      "metadata": {},
      "peak_memory_mb": 7824.556064
    }
  },
  "{\"residuals\":[\"f32[8192]\"],\"out\":\"f32[]\",\"dout\":\"f32[]\",\"x\":\"f32[8192,7168]\",\"labels\":\"i32[8192]\",\"w\":\"bf16[7168,128256]\",\"reduction\":\"sum\",\"return_residuals\":false}": {
    "{}": {
      "compile_time_ms": 29534.58734900005,
      "lower_time_ms": 17.015281000112736,
      "evaluation_times_ms": [
        144.464507,
        143.49325,
        143.29030799999998,
        143.905054,
        148.010429
      ],
      "metadata": {},
      "peak_memory_mb": 14391.279648
    }
  },
  "{\"residuals\":[\"bf16[16384]\"],\"out\":\"f32[]\",\"dout\":\"f32[]\",\"x\":\"bf16[16384,7168]\",\"labels\":\"i32[16384]\",\"w\":\"bf16[7168,128256]\",\"reduction\":\"mean\",\"return_residuals\":false}": {
    "{}": {
      "compile_time_ms": 27623.304992000158,
      "lower_time_ms": 18.77519600020605,
      "evaluation_times_ms": [
        129.65578200000002,
        131.17686,
        129.371658,
        139.372578,
        129.684615
      ],
      "metadata": {},
      "peak_memory_mb": 14626.226208
    }
  },
  "{\"residuals\":[\"f32[16384]\"],\"out\":\"f32[]\",\"dout\":\"f32[]\",\"x\":\"f32[16384,7168]\",\"labels\":\"i32[16384]\",\"w\":\"bf16[7168,128256]\",\"reduction\":\"mean\",\"return_residuals\":false}": {
    "{}": {
      "compile_time_ms": 57453.23654200001,
      "lower_time_ms": 18.06419900003675,
      "evaluation_times_ms": [
        284.670343,
        301.123993,
        284.59531499999997,
        290.45300399999996,
        293.86046899999997
      ],
      "metadata": {},
      "peak_memory_mb": 23266.525216
    }
  },
  "{\"residuals\":[\"bf16[16384]\"],\"out\":\"f32[]\",\"dout\":\"f32[]\",\"x\":\"bf16[16384,7168]\",\"labels\":\"i32[16384]\",\"w\":\"bf16[7168,128256]\",\"reduction\":\"sum\",\"return_residuals\":false}": {
    "{}": {
      "compile_time_ms": 18934.01836599969,
      "lower_time_ms": 12.823492000279657,
      "evaluation_times_ms": [
        128.715717,
        130.311099,
        129.928317,
        137.980871,
        129.484833
      ],
      "metadata": {},
      "peak_memory_mb": 14626.226208
    }
  },
  "{\"residuals\":[\"f32[16384]\"],\"out\":\"f32[]\",\"dout\":\"f32[]\",\"x\":\"f32[16384,7168]\",\"labels\":\"i32[16384]\",\"w\":\"bf16[7168,128256]\",\"reduction\":\"sum\",\"return_residuals\":false}": {
    "{}": {
      "compile_time_ms": 41889.11673199982,
      "lower_time_ms": 12.42680100040161,
      "evaluation_times_ms": [
        288.203814,
        302.588711,
        286.246516,
        289.766397,
        293.915105
      ],
      "metadata": {},
      "peak_memory_mb": 23266.525216
    }
  },
  "{\"residuals\":[\"bf16[32768]\"],\"out\":\"f32[]\",\"dout\":\"f32[]\",\"x\":\"bf16[32768,7168]\",\"labels\":\"i32[32768]\",\"w\":\"bf16[7168,128256]\",\"reduction\":\"mean\",\"return_residuals\":false}": {},
  "{\"residuals\":[\"f32[32768]\"],\"out\":\"f32[]\",\"dout\":\"f32[]\",\"x\":\"f32[32768,7168]\",\"labels\":\"i32[32768]\",\"w\":\"bf16[7168,128256]\",\"reduction\":\"mean\",\"return_residuals\":false}": {},
  "{\"residuals\":[\"bf16[32768]\"],\"out\":\"f32[]\",\"dout\":\"f32[]\",\"x\":\"bf16[32768,7168]\",\"labels\":\"i32[32768]\",\"w\":\"bf16[7168,128256]\",\"reduction\":\"sum\",\"return_residuals\":false}": {},
  "{\"residuals\":[\"f32[32768]\"],\"out\":\"f32[]\",\"dout\":\"f32[]\",\"x\":\"f32[32768,7168]\",\"labels\":\"i32[32768]\",\"w\":\"bf16[7168,128256]\",\"reduction\":\"sum\",\"return_residuals\":false}": {},
  "{\"residuals\":[\"bf16[1024]\"],\"out\":\"f32[]\",\"dout\":\"f32[]\",\"x\":\"bf16[1024,2880]\",\"labels\":\"i32[1024]\",\"w\":\"bf16[2880,201088]\",\"reduction\":\"mean\",\"return_residuals\":false}": {
    "{}": {
      "compile_time_ms": 3068.1176269999924,
      "lower_time_ms": 18.38582399977895,
      "evaluation_times_ms": [
        5.866477,
        5.863021,
        5.868429,
        5.871117,
        5.873068
      ],
      "metadata": {},
      "peak_memory_mb": 4684.326944
    }
  },
  "{\"residuals\":[\"f32[1024]\"],\"out\":\"f32[]\",\"dout\":\"f32[]\",\"x\":\"f32[1024,2880]\",\"labels\":\"i32[1024]\",\"w\":\"bf16[2880,201088]\",\"reduction\":\"mean\",\"return_residuals\":false}": {
    "{}": {
      "compile_time_ms": 4904.923704999874,
      "lower_time_ms": 17.597068999748444,
      "evaluation_times_ms": [
        14.869123,
        14.848994000000001,
        14.848355,
        14.848099,
        14.833538
      ],
      "metadata": {},
      "peak_memory_mb": 5145.718816
    }
  },
  "{\"residuals\":[\"bf16[1024]\"],\"out\":\"f32[]\",\"dout\":\"f32[]\",\"x\":\"bf16[1024,2880]\",\"labels\":\"i32[1024]\",\"w\":\"bf16[2880,201088]\",\"reduction\":\"sum\",\"return_residuals\":false}": {
    "{}": {
      "compile_time_ms": 2904.286121000041,
      "lower_time_ms": 20.87356300035026,
      "evaluation_times_ms": [
        5.9222600000000005,
        5.962292,
        5.996724,
        5.951764,
        5.956148
      ],
      "metadata": {},
      "peak_memory_mb": 4684.326944
    }
  },
  "{\"residuals\":[\"f32[1024]\"],\"out\":\"f32[]\",\"dout\":\"f32[]\",\"x\":\"f32[1024,2880]\",\"labels\":\"i32[1024]\",\"w\":\"bf16[2880,201088]\",\"reduction\":\"sum\",\"return_residuals\":false}": {},
  "{\"residuals\":[\"bf16[2048]\"],\"out\":\"f32[]\",\"dout\":\"f32[]\",\"x\":\"bf16[2048,2880]\",\"labels\":\"i32[2048]\",\"w\":\"bf16[2880,201088]\",\"reduction\":\"mean\",\"return_residuals\":false}": {
    "{}": {
      "compile_time_ms": 4238.6488180000015,
      "lower_time_ms": 21.2943379999615,
      "evaluation_times_ms": [
        10.430542,
        10.477057,
        10.788027,
        10.727464,
        10.8022
      ],
      "metadata": {},
      "peak_memory_mb": 4702.031904
    }
  },
  "{\"residuals\":[\"f32[2048]\"],\"out\":\"f32[]\",\"dout\":\"f32[]\",\"x\":\"f32[2048,2880]\",\"labels\":\"i32[2048]\",\"w\":\"bf16[2880,201088]\",\"reduction\":\"mean\",\"return_residuals\":false}": {
    "{}": {
      "compile_time_ms": 7614.617671000019,
      "lower_time_ms": 18.426311999974132,
      "evaluation_times_ms": [
        26.13944,
        27.510036,
        27.141289,
        27.577251,
        27.205018
      ],
      "metadata": {},
      "peak_memory_mb": 6816.63696
    }
  },
  "{\"residuals\":[\"bf16[2048]\"],\"out\":\"f32[]\",\"dout\":\"f32[]\",\"x\":\"bf16[2048,2880]\",\"labels\":\"i32[2048]\",\"w\":\"bf16[2880,201088]\",\"reduction\":\"sum\",\"return_residuals\":false}": {
    "{}": {
      "compile_time_ms": 3815.3451009999344,
      "lower_time_ms": 12.859122000008938,
      "evaluation_times_ms": [
        10.634528,
        10.628705,
        10.753474,
        10.804886,
        10.930458
      ],
      "metadata": {},
      "peak_memory_mb": 4702.031904
    }
  },
  "{\"residuals\":[\"f32[2048]\"],\"out\":\"f32[]\",\"dout\":\"f32[]\",\"x\":\"f32[2048,2880]\",\"labels\":\"i32[2048]\",\"w\":\"bf16[2880,201088]\",\"reduction\":\"sum\",\"return_residuals\":false}": {
    "{}": {
      "compile_time_ms": 6446.05565300003,
      "lower_time_ms": 12.560328999938974,
      "evaluation_times_ms": [
        26.63495,
        27.22652,
        26.892454999999998,
        26.624485999999997,
        26.551289
      ],
      "metadata": {},
      "peak_memory_mb": 6816.63696
    }
  },
  "{\"residuals\":[\"bf16[16384]\"],\"out\":\"f32[]\",\"dout\":\"f32[]\",\"x\":\"bf16[16384,4096]\",\"labels\":\"i32[16384]\",\"w\":\"bf16[4096,151936]\",\"reduction\":\"mean\",\"return_residuals\":false}": {
    "{}": {
      "compile_time_ms": 23604.841539000063,
      "lower_time_ms": 22.965762999774597,
      "evaluation_times_ms": [
        86.696007,
        87.214532,
        87.949344,
        89.903413,
        95.29212
      ],
      "metadata": {},
      "peak_memory_mb": 14094.073888
    }
  },
  "{\"residuals\":[\"f32[16384]\"],\"out\":\"f32[]\",\"dout\":\"f32[]\",\"x\":\"f32[16384,4096]\",\"labels\":\"i32[16384]\",\"w\":\"bf16[4096,151936]\",\"reduction\":\"mean\",\"return_residuals\":false}": {
    "{}": {
      "compile_time_ms": 28365.86427500015,
      "lower_time_ms": 19.02037600029871,
      "evaluation_times_ms": [
        194.792792,
        195.692405,
        202.39001000000002,
        201.545342,
        199.674531
      ],
      "metadata": {},
      "peak_memory_mb": 24185.60208
    }
  },
  "{\"residuals\":[\"bf16[16384]\"],\"out\":\"f32[]\",\"dout\":\"f32[]\",\"x\":\"bf16[16384,4096]\",\"labels\":\"i32[16384]\",\"w\":\"bf16[4096,151936]\",\"reduction\":\"sum\",\"return_residuals\":false}": {
    "{}": {
      "compile_time_ms": 23430.962356000236,
      "lower_time_ms": 13.32147499988423,
      "evaluation_times_ms": [
        86.223929,
        86.65951199999999,
        85.808187,
        88.969937,
        94.413374
      ],
      "metadata": {},
      "peak_memory_mb": 14094.073888
    }
  },
  "{\"residuals\":[\"f32[16384]\"],\"out\":\"f32[]\",\"dout\":\"f32[]\",\"x\":\"f32[16384,4096]\",\"labels\":\"i32[16384]\",\"w\":\"bf16[4096,151936]\",\"reduction\":\"sum\",\"return_residuals\":false}": {
    "{}": {
      "compile_time_ms": 28777.18122899978,
      "lower_time_ms": 13.16900900019391,
      "evaluation_times_ms": [
        192.203097,
        196.087787,
        199.098399,
        197.870243,
        200.854072
      ],
      "metadata": {},
      "peak_memory_mb": 24185.60208
    }
  },
  "{\"residuals\":[\"bf16[32768]\"],\"out\":\"f32[]\",\"dout\":\"f32[]\",\"x\":\"bf16[32768,4096]\",\"labels\":\"i32[32768]\",\"w\":\"bf16[4096,151936]\",\"reduction\":\"mean\",\"return_residuals\":false}": {
    "{}": {
      "compile_time_ms": 25817.952485000205,
      "lower_time_ms": 18.907543999830523,
      "evaluation_times_ms": [
        185.21329,
        179.902815,
        184.35694,
        179.663232,
        188.97861699999999
      ],
      "metadata": {},
      "peak_memory_mb": 24454.168608
    }
  },
  "{\"residuals\":[\"f32[32768]\"],\"out\":\"f32[]\",\"dout\":\"f32[]\",\"x\":\"f32[32768,4096]\",\"labels\":\"i32[32768]\",\"w\":\"bf16[4096,151936]\",\"reduction\":\"mean\",\"return_residuals\":false}": {},
  "{\"residuals\":[\"bf16[8192]\"],\"out\":\"f32[]\",\"dout\":\"f32[]\",\"x\":\"bf16[8192,2880]\",\"labels\":\"i32[8192]\",\"w\":\"bf16[2880,201088]\",\"reduction\":\"sum\",\"return_residuals\":false}": {
    "{}": {
      "compile_time_ms": 13132.885308936238,
      "lower_time_ms": 19.164097029715776,
      "evaluation_times_ms": [
        39.821633,
        41.369058,
        41.242817,
        41.796835,
        42.283426
      ],
      "metadata": {},
      "peak_memory_mb": 10205.691936
    }
  },
  "{\"residuals\":[\"f32[8192]\"],\"out\":\"f32[]\",\"dout\":\"f32[]\",\"x\":\"f32[8192,2880]\",\"labels\":\"i32[8192]\",\"w\":\"bf16[2880,201088]\",\"reduction\":\"sum\",\"return_residuals\":false}": {
    "{}": {
      "compile_time_ms": 25796.29346402362,
      "lower_time_ms": 15.72604093234986,
      "evaluation_times_ms": [
        99.130588,
        98.313722,
        97.862168,
        97.166008,
        103.758404
      ],
      "metadata": {},
      "peak_memory_mb": 16842.145824
    }
  },
  "{\"residuals\":[\"bf16[16384]\"],\"out\":\"f32[]\",\"dout\":\"f32[]\",\"x\":\"bf16[16384,2880]\",\"labels\":\"i32[16384]\",\"w\":\"bf16[2880,201088]\",\"reduction\":\"mean\",\"return_residuals\":false}": {
    "{}": {
      "compile_time_ms": 28746.507311007008,
      "lower_time_ms": 17.361748963594437,
      "evaluation_times_ms": [
        81.225398,
        84.418364,
        82.388249,
        85.388412,
        84.279484
      ],
      "metadata": {},
      "peak_memory_mb": 16936.5832
    }
  },
  "{\"residuals\":[\"f32[16384]\"],\"out\":\"f32[]\",\"dout\":\"f32[]\",\"x\":\"f32[16384,2880]\",\"labels\":\"i32[16384]\",\"w\":\"bf16[2880,201088]\",\"reduction\":\"mean\",\"return_residuals\":false}": {
    "{}": {
      "compile_time_ms": 37645.952060003765,
      "lower_time_ms": 16.686773975379765,
      "evaluation_times_ms": [
        197.160524,
        198.046093,
        200.075312,
        198.54481299999998,
        211.681605
      ],
      "metadata": {},
      "peak_memory_mb": 30209.490976
    }
  },
  "{\"residuals\":[\"bf16[16384]\"],\"out\":\"f32[]\",\"dout\":\"f32[]\",\"x\":\"bf16[16384,2880]\",\"labels\":\"i32[16384]\",\"w\":\"bf16[2880,201088]\",\"reduction\":\"sum\",\"return_residuals\":false}": {
    "{}": {
      "compile_time_ms": 22299.701448064297,
      "lower_time_ms": 11.734031955711544,
      "evaluation_times_ms": [
        82.232439,
        83.14108,
        82.369782,
        83.419833,
        85.010396
      ],
      "metadata": {},
      "peak_memory_mb": 16936.5832
    }
  },
  "{\"residuals\":[\"f32[16384]\"],\"out\":\"f32[]\",\"dout\":\"f32[]\",\"x\":\"f32[16384,2880]\",\"labels\":\"i32[16384]\",\"w\":\"bf16[2880,201088]\",\"reduction\":\"sum\",\"return_residuals\":false}": {
    "{}": {
      "compile_time_ms": 26987.86095099058,
      "lower_time_ms": 11.623032973147929,
      "evaluation_times_ms": [
        196.306582,
        197.745592,
        205.622118,
        196.175478,
        206.292295
      ],
      "metadata": {},
      "peak_memory_mb": 30209.490976
    }
  },
  "{\"residuals\":[\"bf16[32768]\"],\"out\":\"f32[]\",\"dout\":\"f32[]\",\"x\":\"bf16[32768,2880]\",\"labels\":\"i32[32768]\",\"w\":\"bf16[2880,201088]\",\"reduction\":\"mean\",\"return_residuals\":false}": {
    "{}": {
      "compile_time_ms": 38064.14259300004,
      "lower_time_ms": 21.36709800004155,
      "evaluation_times_ms": [
        167.828032,
        174.500845,
        178.064002,
        169.278715,
        172.796114
      ],
      "metadata": {},
      "peak_memory_mb": 30398.365728
    }
  },
  "{\"residuals\":[\"f32[32768]\"],\"out\":\"f32[]\",\"dout\":\"f32[]\",\"x\":\"f32[32768,2880]\",\"labels\":\"i32[32768]\",\"w\":\"bf16[2880,201088]\",\"reduction\":\"mean\",\"return_residuals\":false}": {},
  "{\"residuals\":[\"bf16[32768]\"],\"out\":\"f32[]\",\"dout\":\"f32[]\",\"x\":\"bf16[32768,2880]\",\"labels\":\"i32[32768]\",\"w\":\"bf16[2880,201088]\",\"reduction\":\"sum\",\"return_residuals\":false}": {
    "{}": {
      "compile_time_ms": 25550.23748099984,
      "lower_time_ms": 12.178912999843305,
      "evaluation_times_ms": [
        167.461214,
        166.570686,
        187.96129,
        172.097338,
        169.048889
      ],
      "metadata": {},
      "peak_memory_mb": 30398.365728
    }
  },
  "{\"residuals\":[\"f32[32768]\"],\"out\":\"f32[]\",\"dout\":\"f32[]\",\"x\":\"f32[32768,2880]\",\"labels\":\"i32[32768]\",\"w\":\"bf16[2880,201088]\",\"reduction\":\"sum\",\"return_residuals\":false}": {},
  "{\"residuals\":[\"bf16[1024]\"],\"out\":\"f32[]\",\"dout\":\"f32[]\",\"x\":\"bf16[1024,5120]\",\"labels\":\"i32[1024]\",\"w\":\"bf16[5120,151936]\",\"reduction\":\"mean\",\"return_residuals\":false}": {
    "{}": {
      "compile_time_ms": 5199.0545870000915,
      "lower_time_ms": 19.009663000133514,
      "evaluation_times_ms": [
        7.696614,
        7.693829,
        7.687557,
        7.728581999999999,
        7.753094
      ],
      "metadata": {},
      "peak_memory_mb": 6288.320544
    }
  },
  "{\"residuals\":[\"f32[1024]\"],\"out\":\"f32[]\",\"dout\":\"f32[]\",\"x\":\"f32[1024,5120]\",\"labels\":\"i32[1024]\",\"w\":\"bf16[5120,151936]\",\"reduction\":\"mean\",\"return_residuals\":false}": {
    "{}": {
      "compile_time_ms": 202.78527599998597,
      "lower_time_ms": 20.162303999995856,
      "evaluation_times_ms": [
        17.691883999999998,
        17.685003,
        17.753227,
        17.776364,
        17.73742
      ],
      "metadata": {},
      "peak_memory_mb": 5954.088992
    }
  },
  "{\"residuals\":[\"bf16[1024]\"],\"out\":\"f32[]\",\"dout\":\"f32[]\",\"x\":\"bf16[1024,5120]\",\"labels\":\"i32[1024]\",\"w\":\"bf16[5120,151936]\",\"reduction\":\"sum\",\"return_residuals\":false}": {},
  "{\"residuals\":[\"f32[1024]\"],\"out\":\"f32[]\",\"dout\":\"f32[]\",\"x\":\"f32[1024,5120]\",\"labels\":\"i32[1024]\",\"w\":\"bf16[5120,151936]\",\"reduction\":\"sum\",\"return_residuals\":false}": {},
  "{\"residuals\":[\"bf16[32768]\"],\"out\":\"f32[]\",\"dout\":\"f32[]\",\"x\":\"bf16[32768,4096]\",\"labels\":\"i32[32768]\",\"w\":\"bf16[4096,151936]\",\"reduction\":\"sum\",\"return_residuals\":false}": {},
  "{\"residuals\":[\"f32[32768]\"],\"out\":\"f32[]\",\"dout\":\"f32[]\",\"x\":\"f32[32768,4096]\",\"labels\":\"i32[32768]\",\"w\":\"bf16[4096,151936]\",\"reduction\":\"sum\",\"return_residuals\":false}": {},
  "{\"residuals\":[\"bf16[131072]\"],\"out\":\"f32[]\",\"dout\":\"f32[]\",\"x\":\"bf16[131072,4096]\",\"labels\":\"i32[131072]\",\"w\":\"bf16[4096,151936]\",\"reduction\":\"mean\",\"return_residuals\":false}": {},
  "{\"residuals\":[\"f32[131072]\"],\"out\":\"f32[]\",\"dout\":\"f32[]\",\"x\":\"f32[131072,4096]\",\"labels\":\"i32[131072]\",\"w\":\"bf16[4096,151936]\",\"reduction\":\"mean\",\"return_residuals\":false}": {},
  "{\"residuals\":[\"bf16[131072]\"],\"out\":\"f32[]\",\"dout\":\"f32[]\",\"x\":\"bf16[131072,4096]\",\"labels\":\"i32[131072]\",\"w\":\"bf16[4096,151936]\",\"reduction\":\"sum\",\"return_residuals\":false}": {},
  "{\"residuals\":[\"f32[131072]\"],\"out\":\"f32[]\",\"dout\":\"f32[]\",\"x\":\"f32[131072,4096]\",\"labels\":\"i32[131072]\",\"w\":\"bf16[4096,151936]\",\"reduction\":\"sum\",\"return_residuals\":false}": {},
  "{\"residuals\":[\"bf16[1024]\"],\"out\":\"f32[]\",\"dout\":\"f32[]\",\"x\":\"bf16[1024,2560]\",\"labels\":\"i32[1024]\",\"w\":\"bf16[2560,262144]\",\"reduction\":\"mean\",\"return_residuals\":false}": {
    "{}": {
      "compile_time_ms": 4853.676097000061,
      "lower_time_ms": 22.027633000107016,
      "evaluation_times_ms": [
        6.696593,
        6.692145,
        6.690161,
        6.707665,
        6.844528
      ],
      "metadata": {},
      "peak_memory_mb": 5418.002464
    }
  },
  "{\"residuals\":[\"f32[1024]\"],\"out\":\"f32[]\",\"dout\":\"f32[]\",\"x\":\"f32[1024,2560]\",\"labels\":\"i32[1024]\",\"w\":\"bf16[2560,262144]\",\"reduction\":\"mean\",\"return_residuals\":false}": {
    "{}": {
      "compile_time_ms": 4586.736999000095,
      "lower_time_ms": 18.765959999655024,
      "evaluation_times_ms": [
        16.283229000000002,
        16.247229,
        16.280732,
        16.422269,
        16.382075999999998
      ],
      "metadata": {},
      "peak_memory_mb": 6194.999328
    }
  },
  "{\"residuals\":[\"bf16[1024]\"],\"out\":\"f32[]\",\"dout\":\"f32[]\",\"x\":\"bf16[1024,2560]\",\"labels\":\"i32[1024]\",\"w\":\"bf16[2560,262144]\",\"reduction\":\"sum\",\"return_residuals\":false}": {
    "{}": {
      "compile_time_ms": 3845.464277999781,
      "lower_time_ms": 12.65638199993191,
      "evaluation_times_ms": [
        6.693747,
        6.703571,
        6.689299,
        6.767507,
        6.759795
      ],
      "metadata": {},
      "peak_memory_mb": 5418.002464
    }
  },
  "{\"residuals\":[\"f32[1024]\"],\"out\":\"f32[]\",\"dout\":\"f32[]\",\"x\":\"f32[1024,2560]\",\"labels\":\"i32[1024]\",\"w\":\"bf16[2560,262144]\",\"reduction\":\"sum\",\"return_residuals\":false}": {
    "{}": {
      "compile_time_ms": 4741.74425900037,
      "lower_time_ms": 12.636226000267925,
      "evaluation_times_ms": [
        16.675363,
        16.303299,
        16.309891,
        16.348131,
        16.242948
      ],
      "metadata": {},
      "peak_memory_mb": 6194.999328
    }
  },
  "{\"residuals\":[\"bf16[2048]\"],\"out\":\"f32[]\",\"dout\":\"f32[]\",\"x\":\"bf16[2048,2560]\",\"labels\":\"i32[2048]\",\"w\":\"bf16[2560,262144]\",\"reduction\":\"mean\",\"return_residuals\":false}": {
    "{}": {
      "compile_time_ms": 4970.218770999963,
      "lower_time_ms": 18.552052000359254,
      "evaluation_times_ms": [
        11.629966,
        11.649773,
        12.197037,
        12.423371999999999,
        12.420236000000001
      ],
      "metadata": {},
      "peak_memory_mb": 5433.741344
    }
  },
  "{\"residuals\":[\"f32[2048]\"],\"out\":\"f32[]\",\"dout\":\"f32[]\",\"x\":\"f32[2048,2560]\",\"labels\":\"i32[2048]\",\"w\":\"bf16[2560,262144]\",\"reduction\":\"mean\",\"return_residuals\":false}": {
    "{}": {
      "compile_time_ms": 7058.504957000423,
      "lower_time_ms": 17.541293000249425,
      "evaluation_times_ms": [
        29.010273,
        29.909855,
        29.873536,
        30.135327,
        29.753439
      ],
      "metadata": {},
      "peak_memory_mb": 8363.466784
    }
  },
  "{\"residuals\":[\"bf16[2048]\"],\"out\":\"f32[]\",\"dout\":\"f32[]\",\"x\":\"bf16[2048,2560]\",\"labels\":\"i32[2048]\",\"w\":\"bf16[2560,262144]\",\"reduction\":\"sum\",\"return_residuals\":false}": {
    "{}": {
      "compile_time_ms": 5065.089272000023,
      "lower_time_ms": 20.942087000094034,
      "evaluation_times_ms": [
        11.812104,
        11.859434,
        12.459381,
        12.529497,
        12.725703
      ],
      "metadata": {},
      "peak_memory_mb": 5433.741344
    }
  },
  "{\"residuals\":[\"f32[2048]\"],\"out\":\"f32[]\",\"dout\":\"f32[]\",\"x\":\"f32[2048,2560]\",\"labels\":\"i32[2048]\",\"w\":\"bf16[2560,262144]\",\"reduction\":\"sum\",\"return_residuals\":false}": {
    "{}": {
      "compile_time_ms": 9074.920716000179,
      "lower_time_ms": 17.14867700002287,
      "evaluation_times_ms": [
        29.130624,
        30.594344,
        29.803631,
        30.049443,
        30.112132000000003
      ],
      "metadata": {},
      "peak_memory_mb": 8363.466784
    }
  },
  "{\"residuals\":[\"bf16[4096]\"],\"out\":\"f32[]\",\"dout\":\"f32[]\",\"x\":\"bf16[4096,2560]\",\"labels\":\"i32[4096]\",\"w\":\"bf16[2560,262144]\",\"reduction\":\"mean\",\"return_residuals\":false}": {
    "{}": {
      "compile_time_ms": 7030.77909600006,
      "lower_time_ms": 19.0480370001751,
      "evaluation_times_ms": [
        22.570478,
        24.487419,
        24.43724,
        24.502555,
        24.614306
      ],
      "metadata": {},
      "peak_memory_mb": 5465.219104
    }
  },
  "{\"residuals\":[\"f32[4096]\"],\"out\":\"f32[]\",\"dout\":\"f32[]\",\"x\":\"f32[4096,2560]\",\"labels\":\"i32[4096]\",\"w\":\"bf16[2560,262144]\",\"reduction\":\"mean\",\"return_residuals\":false}": {
    "{}": {
      "compile_time_ms": 12412.949102999846,
      "lower_time_ms": 18.385897999905865,
      "evaluation_times_ms": [
        57.536297999999995,
        58.946449,
        58.882416,
        59.445413,
        58.395036
      ],
      "metadata": {},
      "peak_memory_mb": 12700.401696
    }
  },
  "{\"residuals\":[\"bf16[4096]\"],\"out\":\"f32[]\",\"dout\":\"f32[]\",\"x\":\"bf16[4096,2560]\",\"labels\":\"i32[4096]\",\"w\":\"bf16[2560,262144]\",\"reduction\":\"sum\",\"return_residuals\":false}": {
    "{}": {
      "compile_time_ms": 6623.760609999863,
      "lower_time_ms": 12.892656999611063,
      "evaluation_times_ms": [
        25.208153,
        23.848435,
        25.577634,
        24.888655,
        24.884431
      ],
      "metadata": {},
      "peak_memory_mb": 5465.219104
    }
  },
  "{\"residuals\":[\"f32[4096]\"],\"out\":\"f32[]\",\"dout\":\"f32[]\",\"x\":\"f32[4096,2560]\",\"labels\":\"i32[4096]\",\"w\":\"bf16[2560,262144]\",\"reduction\":\"sum\",\"return_residuals\":false}": {
    "{}": {
      "compile_time_ms": 189.89493099996935,
      "lower_time_ms": 19.692673999998078,
      "evaluation_times_ms": [
        55.895541,
        57.365401,
        57.835363,
        58.932916999999996,
        58.745225000000005
      ],
      "metadata": {},
      "peak_memory_mb": 12700.401696
    }
  },
  "{\"residuals\":[\"bf16[16384]\"],\"out\":\"f32[]\",\"dout\":\"f32[]\",\"x\":\"bf16[16384,2560]\",\"labels\":\"i32[16384]\",\"w\":\"bf16[2560,262144]\",\"reduction\":\"mean\",\"return_residuals\":false}": {},
  "{\"residuals\":[\"f32[16384]\"],\"out\":\"f32[]\",\"dout\":\"f32[]\",\"x\":\"f32[16384,2560]\",\"labels\":\"i32[16384]\",\"w\":\"bf16[2560,262144]\",\"reduction\":\"mean\",\"return_residuals\":false}": {},
  "{\"residuals\":[\"bf16[16384]\"],\"out\":\"f32[]\",\"dout\":\"f32[]\",\"x\":\"bf16[16384,2560]\",\"labels\":\"i32[16384]\",\"w\":\"bf16[2560,262144]\",\"reduction\":\"sum\",\"return_residuals\":false}": {},
  "{\"residuals\":[\"f32[16384]\"],\"out\":\"f32[]\",\"dout\":\"f32[]\",\"x\":\"f32[16384,2560]\",\"labels\":\"i32[16384]\",\"w\":\"bf16[2560,262144]\",\"reduction\":\"sum\",\"return_residuals\":false}": {},
  "{\"residuals\":[\"bf16[32768]\"],\"out\":\"f32[]\",\"dout\":\"f32[]\",\"x\":\"bf16[32768,2560]\",\"labels\":\"i32[32768]\",\"w\":\"bf16[2560,262144]\",\"reduction\":\"mean\",\"return_residuals\":false}": {},
  "{\"residuals\":[\"f32[32768]\"],\"out\":\"f32[]\",\"dout\":\"f32[]\",\"x\":\"f32[32768,2560]\",\"labels\":\"i32[32768]\",\"w\":\"bf16[2560,262144]\",\"reduction\":\"mean\",\"return_residuals\":false}": {},
  "{\"residuals\":[\"bf16[32768]\"],\"out\":\"f32[]\",\"dout\":\"f32[]\",\"x\":\"bf16[32768,2560]\",\"labels\":\"i32[32768]\",\"w\":\"bf16[2560,262144]\",\"reduction\":\"sum\",\"return_residuals\":false}": {},
  "{\"residuals\":[\"f32[32768]\"],\"out\":\"f32[]\",\"dout\":\"f32[]\",\"x\":\"f32[32768,2560]\",\"labels\":\"i32[32768]\",\"w\":\"bf16[2560,262144]\",\"reduction\":\"sum\",\"return_residuals\":false}": {},
  "{\"residuals\":[\"bf16[131072]\"],\"out\":\"f32[]\",\"dout\":\"f32[]\",\"x\":\"bf16[131072,2560]\",\"labels\":\"i32[131072]\",\"w\":\"bf16[2560,262144]\",\"reduction\":\"mean\",\"return_residuals\":false}": {},
  "{\"residuals\":[\"f32[131072]\"],\"out\":\"f32[]\",\"dout\":\"f32[]\",\"x\":\"f32[131072,2560]\",\"labels\":\"i32[131072]\",\"w\":\"bf16[2560,262144]\",\"reduction\":\"mean\",\"return_residuals\":false}": {},
  "{\"residuals\":[\"bf16[131072]\"],\"out\":\"f32[]\",\"dout\":\"f32[]\",\"x\":\"bf16[131072,2560]\",\"labels\":\"i32[131072]\",\"w\":\"bf16[2560,262144]\",\"reduction\":\"sum\",\"return_residuals\":false}": {},
  "{\"residuals\":[\"f32[131072]\"],\"out\":\"f32[]\",\"dout\":\"f32[]\",\"x\":\"f32[131072,2560]\",\"labels\":\"i32[131072]\",\"w\":\"bf16[2560,262144]\",\"reduction\":\"sum\",\"return_residuals\":false}": {},
  "{\"residuals\":[\"bf16[1024]\"],\"out\":\"f32[]\",\"dout\":\"f32[]\",\"x\":\"bf16[1024,3840]\",\"labels\":\"i32[1024]\",\"w\":\"bf16[3840,262144]\",\"reduction\":\"mean\",\"return_residuals\":false}": {
    "{}": {
      "compile_time_ms": 4713.134372839704,
      "lower_time_ms": 21.179246017709374,
      "evaluation_times_ms": [
        9.997902999999999,
        10.008814,
        10.010447,
        10.013135,
        10.216015
      ],
      "metadata": {},
      "peak_memory_mb": 8110.221344
    }
  },
  "{\"residuals\":[\"f32[1024]\"],\"out\":\"f32[]\",\"dout\":\"f32[]\",\"x\":\"f32[1024,3840]\",\"labels\":\"i32[1024]\",\"w\":\"bf16[3840,262144]\",\"reduction\":\"mean\",\"return_residuals\":false}": {
    "{}": {
      "compile_time_ms": 6282.657922944054,
      "lower_time_ms": 17.252713907510042,
      "evaluation_times_ms": [
        23.112330999999998,
        23.731852999999997,
        23.538765,
        23.506061,
        23.881740999999998
      ],
      "metadata": {},
      "peak_memory_mb": 8218.751008
    }
  },
  "{\"residuals\":[\"bf16[1024]\"],\"out\":\"f32[]\",\"dout\":\"f32[]\",\"x\":\"bf16[1024,3840]\",\"labels\":\"i32[1024]\",\"w\":\"bf16[3840,262144]\",\"reduction\":\"sum\",\"return_residuals\":false}": {
    "{}": {
      "compile_time_ms": 3684.6149610355496,
      "lower_time_ms": 12.150747934356332,
      "evaluation_times_ms": [
        10.241779,
        10.249587,
        10.256147,
        10.284883,
        10.313586
      ],
      "metadata": {},
      "peak_memory_mb": 8110.221344
    }
  },
  "{\"residuals\":[\"f32[1024]\"],\"out\":\"f32[]\",\"dout\":\"f32[]\",\"x\":\"f32[1024,3840]\",\"labels\":\"i32[1024]\",\"w\":\"bf16[3840,262144]\",\"reduction\":\"sum\",\"return_residuals\":false}": {
    "{}": {
      "compile_time_ms": 5432.812782004476,
      "lower_time_ms": 11.68711599893868,
      "evaluation_times_ms": [
        23.070225,
        23.047505,
        23.958834,
        23.410673000000003,
        23.60837
      ],
      "metadata": {},
      "peak_memory_mb": 8218.751008
    }
  },
  "{\"residuals\":[\"bf16[2048]\"],\"out\":\"f32[]\",\"dout\":\"f32[]\",\"x\":\"bf16[2048,3840]\",\"labels\":\"i32[2048]\",\"w\":\"bf16[3840,262144]\",\"reduction\":\"mean\",\"return_residuals\":false}": {
    "{}": {
      "compile_time_ms": 5277.55235391669,
      "lower_time_ms": 17.276570899412036,
      "evaluation_times_ms": [
        18.101224,
        18.759625,
        19.271531,
        19.29201,
        19.376107
      ],
      "metadata": {},
      "peak_memory_mb": 8133.824544
    }
  },
  "{\"residuals\":[\"f32[2048]\"],\"out\":\"f32[]\",\"dout\":\"f32[]\",\"x\":\"f32[2048,3840]\",\"labels\":\"i32[2048]\",\"w\":\"bf16[3840,262144]\",\"reduction\":\"mean\",\"return_residuals\":false}": {
    "{}": {
      "compile_time_ms": 9365.25288107805,
      "lower_time_ms": 16.309804981574416,
      "evaluation_times_ms": [
        41.573525000000004,
        42.675192,
        43.114713,
        43.285913,
        42.379511
      ],
      "metadata": {},
      "peak_memory_mb": 10397.704224
    }
  },
  "{\"residuals\":[\"bf16[2048]\"],\"out\":\"f32[]\",\"dout\":\"f32[]\",\"x\":\"bf16[2048,3840]\",\"labels\":\"i32[2048]\",\"w\":\"bf16[3840,262144]\",\"reduction\":\"sum\",\"return_residuals\":false}": {
    "{}": {
      "compile_time_ms": 6556.225523003377,
      "lower_time_ms": 20.162878994597122,
      "evaluation_times_ms": [
        18.357336,
        19.408569999999997,
        19.770681999999997,
        19.773946,
        19.764826
      ],
      "metadata": {},
      "peak_memory_mb": 8133.824544
    }
  },
  "{\"residuals\":[\"f32[2048]\"],\"out\":\"f32[]\",\"dout\":\"f32[]\",\"x\":\"f32[2048,3840]\",\"labels\":\"i32[2048]\",\"w\":\"bf16[3840,262144]\",\"reduction\":\"sum\",\"return_residuals\":false}": {
    "{}": {
      "compile_time_ms": 11341.9839660055,
      "lower_time_ms": 15.951731998939067,
      "evaluation_times_ms": [
        42.770987,
        42.830539,
        43.194956000000005,
        43.358348,
        42.506026
      ],
      "metadata": {},
      "peak_memory_mb": 10397.704224
    }
  },
  "{\"residuals\":[\"bf16[4096]\"],\"out\":\"f32[]\",\"dout\":\"f32[]\",\"x\":\"bf16[4096,3840]\",\"labels\":\"i32[4096]\",\"w\":\"bf16[3840,262144]\",\"reduction\":\"mean\",\"return_residuals\":false}": {
    "{}": {
      "compile_time_ms": 9609.993318008492,
      "lower_time_ms": 18.5104049887741,
      "evaluation_times_ms": [
        33.538758,
        36.805328,
        36.903632,
        36.92536,
        36.464143
      ],
      "metadata": {},
      "peak_memory_mb": 8178.933792
    }
  },
  "{\"residuals\":[\"f32[4096]\"],\"out\":\"f32[]\",\"dout\":\"f32[]\",\"x\":\"f32[4096,3840]\",\"labels\":\"i32[4096]\",\"w\":\"bf16[3840,262144]\",\"reduction\":\"mean\",\"return_residuals\":false}": {},
  "{\"residuals\":[\"bf16[4096]\"],\"out\":\"f32[]\",\"dout\":\"f32[]\",\"x\":\"bf16[4096,3840]\",\"labels\":\"i32[4096]\",\"w\":\"bf16[3840,262144]\",\"reduction\":\"sum\",\"return_residuals\":false}": {
    "{}": {
      "compile_time_ms": 9072.849956995924,
      "lower_time_ms": 11.966339996433817,
      "evaluation_times_ms": [
        34.782076,
        37.26442,
        37.205315999999996,
        36.226113,
        36.511009
      ],
      "metadata": {},
      "peak_memory_mb": 8178.933792
    }
  },
  "{\"residuals\":[\"f32[4096]\"],\"out\":\"f32[]\",\"dout\":\"f32[]\",\"x\":\"f32[4096,3840]\",\"labels\":\"i32[4096]\",\"w\":\"bf16[3840,262144]\",\"reduction\":\"sum\",\"return_residuals\":false}": {}
}
