{
  "{\"residuals\":[\"f32[384,384,1]\",\"f32[384,384,1]\"],\"out\":\"bf16[384,384,64]\",\"dout\":\"bf16[384,384,64]\",\"x\":\"bf16[384,384,64]\",\"scale\":\"f32[64]\",\"offset\":\"f32[64]\",\"axis\":-1,\"epsilon\":1e-6,\"scale_offset\":0.0,\"subtract_mean\":true,\"return_residuals\":false}": {
    "{}": {
      "compile_time_ms": 265.78299095854163,
      "lower_time_ms": 19.678909913636744,
      "evaluation_times_ms": [
        0.057472,
        0.056576,
        0.057632,
        0.056928,
        0.057312
      ],
      "metadata": {},
      "peak_memory_mb": 77.988888
    }
  },
  "{\"residuals\":[\"f32[384,384,1]\",\"f32[384,384,1]\"],\"out\":\"bf16[384,384,128]\",\"dout\":\"bf16[384,384,128]\",\"x\":\"bf16[384,384,128]\",\"scale\":\"f32[128]\",\"offset\":\"f32[128]\",\"axis\":-1,\"epsilon\":1e-6,\"scale_offset\":0.0,\"subtract_mean\":true,\"return_residuals\":false}": {
    "{}": {
      "compile_time_ms": 173.51325300001008,
      "lower_time_ms": 19.789102999993702,
      "evaluation_times_ms": [
        0.085909,
        0.084245,
        0.0853,
        0.085494,
        0.085301
      ],
      "metadata": {},
      "peak_memory_mb": 153.618456
    }
  },
  "{\"residuals\":[\"f32[768,768,1]\",\"f32[768,768,1]\"],\"out\":\"bf16[768,768,128]\",\"dout\":\"bf16[768,768,128]\",\"x\":\"bf16[768,768,128]\",\"scale\":\"f32[128]\",\"offset\":\"f32[128]\",\"axis\":-1,\"epsilon\":1e-6,\"scale_offset\":0.0,\"subtract_mean\":true,\"return_residuals\":false}": {
    "{}": {
      "compile_time_ms": 273.41771200008225,
      "lower_time_ms": 21.397324000190565,
      "evaluation_times_ms": [
        0.301086,
        0.301404,
        0.30178900000000003,
        0.30111699999999997,
        0.30095700000000003
      ],
      "metadata": {},
      "peak_memory_mb": 615.778328
    }
  },
  "{\"residuals\":[\"f32[1,384,384]\",\"f32[1,384,384]\"],\"out\":\"bf16[128,384,384]\",\"dout\":\"bf16[128,384,384]\",\"x\":\"bf16[128,384,384]\",\"scale\":\"f32[128]\",\"offset\":\"f32[128]\",\"axis\":0,\"epsilon\":1e-6,\"scale_offset\":0.0,\"subtract_mean\":true,\"return_residuals\":false}": {},
  "{\"residuals\":[\"f32[1,768,768]\",\"f32[1,768,768]\"],\"out\":\"bf16[128,768,768]\",\"dout\":\"bf16[128,768,768]\",\"x\":\"bf16[128,768,768]\",\"scale\":\"f32[128]\",\"offset\":\"f32[128]\",\"axis\":0,\"epsilon\":1e-6,\"scale_offset\":0.0,\"subtract_mean\":true,\"return_residuals\":false}": {}
}
