{
  "{\"residuals\":[\"f32[32,32,4096]\",\"f32[32,32,4096]\"],\"out\":\"bf16[32,4096,32,128]\",\"dout\":\"bf16[32,4096,32,128]\",\"q\":\"bf16[32,4096,32,128]\",\"k\":\"bf16[32,4096,8,128]\",\"v\":\"bf16[32,4096,8,128]\",\"precision\":[[\"DEFAULT\",\"DEFAULT\"],[\"DEFAULT\",\"DEFAULT\"]],\"logits_dtype\":\"float32\",\"logits_scale\":0.08838834764831843,\"bias\":null,\"logits_soft_cap\":null,\"mask\":{\"bool_mask\":null,\"q_start\":null,\"q_end\":null,\"k_start\":null,\"k_end\":null,\"is_causal\":true},\"dropout_mask\":null,\"dropout_rate\":0.0,\"paging_info\":null,\"q_indices\":null,\"k_indices\":null,\"normalize_output\":true,\"return_residuals\":false}": {
    "{\"block_m1\":32,\"block_n1\":64,\"block_m2\":64,\"block_n2\":32,\"num_stages\":2,\"num_warps\":4}": {
      "compile_time_ms": 1270.343909971416,
      "lower_time_ms": 172.85988596267998,
      "evaluation_times_ms": [
        41.204162999999994,
        41.465857,
        41.508546,
        41.415971,
        41.932257
      ],
      "metadata": {},
      "peak_memory_mb": 7200.000022888184
    }
  },
  "{\"residuals\":[\"f32[512,16,1024]\",\"f32[512,16,1024]\"],\"out\":\"bf16[512,1024,16,128]\",\"dout\":\"bf16[512,1024,16,128]\",\"q\":\"bf16[512,1024,16,192]\",\"k\":\"bf16[512,1024,16,192]\",\"v\":\"bf16[512,1024,16,128]\",\"precision\":[[\"DEFAULT\",\"DEFAULT\"],[\"DEFAULT\",\"DEFAULT\"]],\"logits_dtype\":\"float32\",\"logits_scale\":0.07216878364870323,\"bias\":null,\"logits_soft_cap\":null,\"mask\":{\"bool_mask\":null,\"q_start\":null,\"q_end\":null,\"k_start\":null,\"k_end\":null,\"is_causal\":true},\"dropout_mask\":null,\"dropout_rate\":0.0,\"paging_info\":null,\"q_indices\":null,\"k_indices\":null,\"normalize_output\":true,\"return_residuals\":false}": {
    "{\"block_m1\":32,\"block_n1\":64,\"block_m2\":64,\"block_n2\":32,\"num_stages\":2,\"num_warps\":4}": {
      "compile_time_ms": 2568.9210220007226,
      "lower_time_ms": 173.11278503620997,
      "evaluation_times_ms": [
        56.202574,
        56.26283,
        56.361487,
        56.186639,
        56.371471
      ],
      "metadata": {},
      "peak_memory_mb": 20576.000022888184
    }
  },
  "{\"residuals\":[\"f32[384,4,384]\",\"f32[384,4,384]\"],\"out\":\"bf16[384,384,4,32]\",\"dout\":\"bf16[384,384,4,32]\",\"q\":\"bf16[384,384,4,32]\",\"k\":\"bf16[384,384,4,32]\",\"v\":\"bf16[384,384,4,32]\",\"precision\":[[\"DEFAULT\",\"DEFAULT\"],[\"DEFAULT\",\"DEFAULT\"]],\"logits_dtype\":\"float32\",\"logits_scale\":0.17677669529663687,\"bias\":\"bf16[1,4,384,384]\",\"logits_soft_cap\":null,\"mask\":{\"bool_mask\":\"bool[384,1,1,384]\",\"q_start\":null,\"q_end\":null,\"k_start\":null,\"k_end\":null,\"is_causal\":false},\"dropout_mask\":null,\"dropout_rate\":0.0,\"paging_info\":null,\"q_indices\":null,\"k_indices\":null,\"normalize_output\":true,\"return_residuals\":false}": {
    "{\"block_m1\":32,\"block_n1\":64,\"block_m2\":64,\"block_n2\":32,\"num_stages\":2,\"num_warps\":4}": {
      "compile_time_ms": 679.3010929832235,
      "lower_time_ms": 151.5025330008939,
      "evaluation_times_ms": [
        1.56202,
        1.5617960000000002,
        1.566435,
        1.559748,
        1.559492
      ],
      "metadata": {},
      "peak_memory_mb": 729.1406555175781
    }
  },
  "{\"residuals\":[\"f32[384,4,384]\",\"f32[384,4,384]\"],\"out\":\"bf16[384,384,4,64]\",\"dout\":\"bf16[384,384,4,64]\",\"q\":\"bf16[384,384,4,64]\",\"k\":\"bf16[384,384,4,64]\",\"v\":\"bf16[384,384,4,64]\",\"precision\":[[\"DEFAULT\",\"DEFAULT\"],[\"DEFAULT\",\"DEFAULT\"]],\"logits_dtype\":\"float32\",\"logits_scale\":0.125,\"bias\":\"bf16[1,4,384,384]\",\"logits_soft_cap\":null,\"mask\":{\"bool_mask\":\"bool[384,1,1,384]\",\"q_start\":null,\"q_end\":null,\"k_start\":null,\"k_end\":null,\"is_causal\":false},\"dropout_mask\":null,\"dropout_rate\":0.0,\"paging_info\":null,\"q_indices\":null,\"k_indices\":null,\"normalize_output\":true,\"return_residuals\":false}": {
    "{\"block_m1\":32,\"block_n1\":64,\"block_m2\":64,\"block_n2\":32,\"num_stages\":2,\"num_warps\":4}": {
      "compile_time_ms": 785.2388790342957,
      "lower_time_ms": 152.61103899683803,
      "evaluation_times_ms": [
        1.697636,
        1.702725,
        1.699843,
        1.698214,
        1.6960039999999998
      ],
      "metadata": {},
      "peak_memory_mb": 1017.1406555175781
    }
  },
  "{\"residuals\":[\"f32[768,4,768]\",\"f32[768,4,768]\"],\"out\":\"bf16[768,768,4,64]\",\"dout\":\"bf16[768,768,4,64]\",\"q\":\"bf16[768,768,4,64]\",\"k\":\"bf16[768,768,4,64]\",\"v\":\"bf16[768,768,4,64]\",\"precision\":[[\"DEFAULT\",\"DEFAULT\"],[\"DEFAULT\",\"DEFAULT\"]],\"logits_dtype\":\"float32\",\"logits_scale\":0.125,\"bias\":\"bf16[1,4,768,768]\",\"logits_soft_cap\":null,\"mask\":{\"bool_mask\":\"bool[768,1,1,768]\",\"q_start\":null,\"q_end\":null,\"k_start\":null,\"k_end\":null,\"is_causal\":false},\"dropout_mask\":null,\"dropout_rate\":0.0,\"paging_info\":null,\"q_indices\":null,\"k_indices\":null,\"normalize_output\":true,\"return_residuals\":false}": {
    "{\"block_m1\":32,\"block_n1\":64,\"block_m2\":64,\"block_n2\":32,\"num_stages\":2,\"num_warps\":4}": {
      "compile_time_ms": 835.4513500235043,
      "lower_time_ms": 158.32591697108,
      "evaluation_times_ms": [
        13.369394999999999,
        13.379346,
        13.290481999999999,
        13.351923000000001,
        13.40821
      ],
      "metadata": {},
      "peak_memory_mb": 5796.562530517578
    }
  }
}
