{
  "{\"residuals\":[\"f32[32,32,4096]\",\"f32[32,32,4096]\"],\"out\":\"bf16[32,4096,32,128]\",\"dout\":\"bf16[32,4096,32,128]\",\"q\":\"bf16[32,4096,32,128]\",\"k\":\"bf16[32,4096,8,128]\",\"v\":\"bf16[32,4096,8,128]\",\"precision\":[[\"DEFAULT\",\"DEFAULT\"],[\"DEFAULT\",\"DEFAULT\"]],\"logits_dtype\":\"float32\",\"logits_scale\":0.08838834764831843,\"bias\":null,\"logits_soft_cap\":null,\"mask\":{\"bool_mask\":null,\"q_start\":null,\"q_end\":null,\"k_start\":null,\"k_end\":null,\"is_causal\":true},\"dropout_mask\":null,\"dropout_rate\":0.0,\"paging_info\":null,\"q_indices\":null,\"k_indices\":null,\"normalize_output\":true,\"return_residuals\":false}": {
    "{\"block_q_dkv\":64,\"block_kv_dkv\":64,\"block_q_dq\":64,\"block_kv_dq\":64,\"num_stages\":2,\"compute_wgs\":2}": {
      "compile_time_ms": 137.05073099117726,
      "lower_time_ms": 566.0518030636013,
      "evaluation_times_ms": [
        57.114264,
        60.916624,
        61.821712000000005,
        60.879057,
        61.135153
      ],
      "metadata": {},
      "peak_memory_mb": 6192.500022888184
    }
  },
  "{\"residuals\":[\"f32[512,16,1024]\",\"f32[512,16,1024]\"],\"out\":\"bf16[512,1024,16,128]\",\"dout\":\"bf16[512,1024,16,128]\",\"q\":\"bf16[512,1024,16,192]\",\"k\":\"bf16[512,1024,16,192]\",\"v\":\"bf16[512,1024,16,128]\",\"precision\":[[\"DEFAULT\",\"DEFAULT\"],[\"DEFAULT\",\"DEFAULT\"]],\"logits_dtype\":\"float32\",\"logits_scale\":0.07216878364870323,\"bias\":null,\"logits_soft_cap\":null,\"mask\":{\"bool_mask\":null,\"q_start\":null,\"q_end\":null,\"k_start\":null,\"k_end\":null,\"is_causal\":true},\"dropout_mask\":null,\"dropout_rate\":0.0,\"paging_info\":null,\"q_indices\":null,\"k_indices\":null,\"normalize_output\":true,\"return_residuals\":false}": {
    "{\"block_q_dkv\":64,\"block_kv_dkv\":64,\"block_q_dq\":64,\"block_kv_dq\":64,\"num_stages\":2,\"compute_wgs\":2}": {
      "compile_time_ms": 117.4024940119125,
      "lower_time_ms": 628.4577050246298,
      "evaluation_times_ms": [
        49.240563,
        49.980119,
        50.823804,
        51.071357,
        51.011837
      ],
      "metadata": {},
      "peak_memory_mb": 20578.000022888184
    }
  },
  "{\"residuals\":[\"f32[384,4,384]\",\"f32[384,4,384]\"],\"out\":\"bf16[384,384,4,32]\",\"dout\":\"bf16[384,384,4,32]\",\"q\":\"bf16[384,384,4,32]\",\"k\":\"bf16[384,384,4,32]\",\"v\":\"bf16[384,384,4,32]\",\"precision\":[[\"DEFAULT\",\"DEFAULT\"],[\"DEFAULT\",\"DEFAULT\"]],\"logits_dtype\":\"float32\",\"logits_scale\":0.17677669529663687,\"bias\":\"bf16[1,4,384,384]\",\"logits_soft_cap\":null,\"mask\":{\"bool_mask\":\"bool[384,1,1,384]\",\"q_start\":null,\"q_end\":null,\"k_start\":null,\"k_end\":null,\"is_causal\":false},\"dropout_mask\":null,\"dropout_rate\":0.0,\"paging_info\":null,\"q_indices\":null,\"k_indices\":null,\"normalize_output\":true,\"return_residuals\":false}": {
    "{\"block_q_dkv\":64,\"block_kv_dkv\":64,\"block_q_dq\":64,\"block_kv_dq\":64,\"num_stages\":2,\"compute_wgs\":2}": {
      "compile_time_ms": 268.27867300016806,
      "lower_time_ms": 581.4967750338838,
      "evaluation_times_ms": [
        1.5184309999999999,
        1.521599,
        1.518814,
        1.522046,
        1.520127
      ],
      "metadata": {},
      "peak_memory_mb": 1087.0312805175781
    }
  },
  "{\"residuals\":[\"f32[384,4,384]\",\"f32[384,4,384]\"],\"out\":\"bf16[384,384,4,64]\",\"dout\":\"bf16[384,384,4,64]\",\"q\":\"bf16[384,384,4,64]\",\"k\":\"bf16[384,384,4,64]\",\"v\":\"bf16[384,384,4,64]\",\"precision\":[[\"DEFAULT\",\"DEFAULT\"],[\"DEFAULT\",\"DEFAULT\"]],\"logits_dtype\":\"float32\",\"logits_scale\":0.125,\"bias\":\"bf16[1,4,384,384]\",\"logits_soft_cap\":null,\"mask\":{\"bool_mask\":\"bool[384,1,1,384]\",\"q_start\":null,\"q_end\":null,\"k_start\":null,\"k_end\":null,\"is_causal\":false},\"dropout_mask\":null,\"dropout_rate\":0.0,\"paging_info\":null,\"q_indices\":null,\"k_indices\":null,\"normalize_output\":true,\"return_residuals\":false}": {
    "{\"block_q_dkv\":64,\"block_kv_dkv\":64,\"block_q_dq\":64,\"block_kv_dq\":64,\"num_stages\":2,\"compute_wgs\":2}": {
      "compile_time_ms": 272.4243989214301,
      "lower_time_ms": 573.2060350710526,
      "evaluation_times_ms": [
        1.290467,
        1.29261,
        1.2882259999999999,
        1.288227,
        1.291234
      ],
      "metadata": {},
      "peak_memory_mb": 1017.2812805175781
    }
  },
  "{\"residuals\":[\"f32[768,4,768]\",\"f32[768,4,768]\"],\"out\":\"bf16[768,768,4,64]\",\"dout\":\"bf16[768,768,4,64]\",\"q\":\"bf16[768,768,4,64]\",\"k\":\"bf16[768,768,4,64]\",\"v\":\"bf16[768,768,4,64]\",\"precision\":[[\"DEFAULT\",\"DEFAULT\"],[\"DEFAULT\",\"DEFAULT\"]],\"logits_dtype\":\"float32\",\"logits_scale\":0.125,\"bias\":\"bf16[1,4,768,768]\",\"logits_soft_cap\":null,\"mask\":{\"bool_mask\":\"bool[768,1,1,768]\",\"q_start\":null,\"q_end\":null,\"k_start\":null,\"k_end\":null,\"is_causal\":false},\"dropout_mask\":null,\"dropout_rate\":0.0,\"paging_info\":null,\"q_indices\":null,\"k_indices\":null,\"normalize_output\":true,\"return_residuals\":false}": {
    "{\"block_q_dkv\":64,\"block_kv_dkv\":64,\"block_q_dq\":64,\"block_kv_dq\":64,\"num_stages\":2,\"compute_wgs\":2}": {
      "compile_time_ms": 298.8533820025623,
      "lower_time_ms": 587.0593609870411,
      "evaluation_times_ms": [
        8.915465,
        8.914601000000001,
        8.913513,
        8.917289,
        8.912649
      ],
      "metadata": {},
      "peak_memory_mb": 5797.125030517578
    }
  }
}
